results/Try2/jumper/jumper-100432.pt (torch, 465503 bytes, 30 tensors)

network_body._body_endoder.seq_layers.0.weight f4 [128, 15]
000000 da 36 d5 be 22 af 77 bd 9f b5 db bd 4a 6a 98 be
       -0.4164341 -0.060469754 -0.10728001 -0.29768592
000010 2f 59 f6 3e da c7 29 3e a2 04 a5 be 95 09 8d be
       0.48114917 0.16580144 -0.32230097 -0.27546373
000020 3f 7c 6b bd a4 f0 98 be 8b e7 ec bd 3e 5c 84 3d
       -0.057491537 -0.29871094 -0.11567601 0.06462906
000030 fd 85 b3 bd 94 1d e0 3d 57 6f cc 3e 8a 8f b3 3d
       -0.087657906 0.109431416 0.39928696 0.08767612
000040 fb ad 89 bd 4d bc 02 3d 41 d3 a8 3e 21 04 65 3e
       -0.06722637 0.03191786 0.32973674 0.22364856
000050 39 b4 5c 3e dc b4 10 3f db 10 06 3e 2e db e0 be
       0.21553124 0.5652597 0.13092367 -0.4391722
000060 87 c8 59 3d 7b 18 bd bc e2 da de 3e 10 54 3b 3e
       0.053169753 -0.023082962 0.4352637 0.18293786
000070 50 55 4a be c2 06 f2 3e 5c 87 57 be c4 27 bc bc
       -0.19759107 0.4727078 -0.21047729 -0.02296818
000080 44 07 ab be bd 86 55 3e a8 98 14 3e 0a 5b 92 3c
       -0.3340398 0.2085218 0.14511359 0.017865676
000090 55 67 1e 3e 31 57 86 bd ee 64 ed bd a3 89 99 be
       0.15469106 -0.06559599 -0.115915164 -0.2998782
0000a0 24 7b c2 3d 8f 22 63 be 72 37 6c 3e a1 c5 05 3e
       0.094961435 -0.22181152 0.23068026 0.1306367
0000b0 49 8a 8f be b5 0b 13 be de 92 14 3e 30 6a e0 3d
       -0.2803519 -0.14359935 0.1450915 0.10957754
0000c0 7f f7 55 3e ec c1 0d be e7 dd 92 3d bd f8 9d bd
       0.20895194 -0.13843507 0.07171231 -0.07713459
0000d0 41 26 2d be cc ea 67 3e df a6 d3 be 38 bb 53 be
       -0.16909124 0.22648162 -0.4133825 -0.20676887
0000e0 5e 95 13 bf ad f5 91 3e eb 64 3e 3e 5f f0 0d 3d
       -0.5764979 0.28507748 0.18593185 0.034653064
0000f0 66 47 97 3e 59 c3 38 3e e8 e6 a0 bd 07 41 a8 3e
       0.2954666 0.18043269 -0.07856542 0.32862112
000100 6c 0f 22 3e 5d bd f8 3d 73 2d 63 b9 39 30 a1 3e
       0.15826195 0.12145493 -0.00021665338 0.31482103
000110 ea f1 cf be 34 7a 9d be c7 7a 87 be 0a 77 1d 3c
       -0.40614253 -0.30757296 -0.2646086 0.009610901
000120 f3 4a 5e 3d 0f 1d 85 3e 26 c7 8a 3d 44 d9 cf 3e
       0.054270696 0.25998732 0.06776266 0.40595448
000130 76 7f 87 bd 7b a2 2a be fb 95 19 3e 42 63 95 be
       -0.06616108 -0.16663544 0.1499862 -0.2917729
000140 57 82 bd bc 86 7f c3 3d 80 ee c1 3c dc 96 ca bc
       -0.02313344 0.095458075 0.023673296 -0.024730138
000150 76 d8 d8 be 24 d4 ac 3e 92 f4 58 bc 0e 4e 4c bd
       -0.42352647 0.337556 -0.013241904 -0.049879126
000160 56 d1 88 3d 4e 79 56 3e c3 21 0c 3f 94 ff fe bd
       0.06680553 0.20944712 0.54739016 -0.124510914
000170 bf b0 c5 be 23 9d 67 bd be 2f ba be 91 a4 47 3e
       -0.3861141 -0.05654634 -0.3636455 0.19496371
000180 89 f1 08 be 99 41 96 3d 51 ff 1f 3e 73 83 09 3e
       -0.13373388 0.073367305 0.15624739 0.1342905
000190 94 59 0d 3e 14 31 54 be 52 ae ee 3e db ea ae bd
       0.13803703 -0.20721847 0.4661737 -0.08540889
0001a0 e8 34 fb 3d 0f f0 b0 be 14 30 6f be 4e a3 2d 3e
       0.122659504 -0.3455815 -0.23358184 0.16956827
0001b0 52 ee 10 be d2 28 4b be 0c 33 b0 3d 9c 06 ef be
       -0.14153412 -0.1983979 0.086034864 -0.4668473
0001c0 8e 1b 08 3e b9 cb 24 3e 65 71 71 3e 71 66 36 3f
       0.13291761 0.16093339 0.23578413 0.71250063
0001d0 cb 1f 92 3e c2 cb 7d be bf 03 34 bf 49 c2 91 3e
       0.2853988 -0.24784759 -0.70318216 0.2846854
0001e0 6c dc 7e be ab a2 14 b8 07 c7 83 3d 36 36 0a bd
       -0.24888772 -3.5437446e-05 0.06434446 -0.033743106
0001f0 0b 16 16 3c 49 21 12 3e 24 f9 ad be cc b7 3f 3e
       0.009160529 0.1427051 -0.33979142 0.18722457
000200 e7 16 35 be 91 f7 d2 3d 9b 2f 63 be 1b d2 a2 3e
       -0.17684518 0.10301126 -0.22186129 0.31800923
000210 c6 13 10 3e 87 e7 4e be 6b 75 b0 3e fe 2a da 3e
       0.14070043 -0.20205508 0.34464583 0.42610925
000220 34 f6 43 3e fe 9d d6 be 40 27 42 be f1 b1 69 3e
       0.19136888 -0.41917413 -0.18960285 0.22821786
000230 99 70 b5 3d 71 9a 55 bd b9 0e d1 be 94 40 45 3e
       0.08859367 -0.05214924 -0.40831545 0.19262916
000240 8d 84 eb 3e 20 5a cc 3b bb fc 9b 3d e1 49 05 bd
       0.45999566 0.0062363297 0.07616564 -0.03254116
000250 21 02 60 be 72 e9 9f bd 0f 71 2a 3e 45 b7 d5 be
       -0.21875812 -0.07808198 0.16644691 -0.41741386
000260 7c e1 d0 3e 1e 3c 4b 3d fc f4 a4 3e 8a ae fd 3e
       0.4079703 0.04961788 0.32218158 0.49547225
000270 89 c7 76 bf cd a9 d4 3a 44 e1 a5 be 97 7d cc bc
       -0.96398216 0.0016224921 -0.32398427 -0.02496223
000280 c5 fd 12 3f 72 8a e8 be 06 aa 40 3e de fb a3 3d
       0.5741847 -0.45418125 0.18814859 0.08007024
000290 c8 b3 a0 3d b9 fd 65 3e af ae bc be 52 12 c3 be
       0.078467906 0.22460069 -0.36852023 -0.38099915
0002a0 d8 63 1c be fe d8 cf 3e a9 19 0d bf c6 c6 1c be
       -0.15272462 0.4059524 -0.5511728 -0.15310201
0002b0 7a b4 79 3e 3d a7 aa 3d 22 69 28 bc d0 47 29 be
       0.24385253 0.083326794 -0.010278972 -0.165313
0002c0 77 e7 20 be 72 aa f6 3d 13 50 1d be 7a a3 e0 3d
       -0.15713297 0.120442286 -0.15362577 0.10968681
0002d0 ad 91 22 3e 0e 2a 7c 3d f3 3e 22 3d af ac b6 bc
       0.15875883 0.061563544 0.039610814 -0.022299139
0002e0 a7 e0 48 3d 28 7c 91 3d 1a 0d 70 be 73 fd 8e 3e
       0.04904237 0.07103759 -0.23442498 0.2792774
0002f0 41 9a ed be fe 68 70 bd bd 38 ea bd 9e 35 f9 3e
       -0.4640675 -0.05869388 -0.11436603 0.4867372
000300 4f 69 d8 be 78 1e 88 be ed a9 db be 60 ec ed 3e
       -0.42267844 -0.26585746 -0.4290308 0.46469402
000310 d2 04 0f 3e 74 54 c3 3e ec b2 51 bc ea 15 d1 3c
       0.13966683 0.3815037 -0.012799006 0.025523145
000320 15 dd ca be aa 48 e3 3d a4 c0 6d 3e 85 36 39 be
       -0.39621797 0.11097844 0.23218018 -0.18087204
000330 31 6a 9b be aa 07 88 3e 8c 61 d1 be 92 e2 67 3d
       -0.30354455 0.26568347 -0.40894735 0.05661256
000340 0a b3 bb bd 48 41 21 be f2 d5 88 be d3 ff 62 3e
       -0.09165008 -0.15747559 -0.26725727 0.22167902
000350 32 40 19 bc 20 91 74 be d1 d5 05 3e eb ea 72 3d
       -0.009353684 -0.23883486 0.13069846 0.059306066
000360 72 78 a0 bd b9 b5 08 bd ae 8d 5c 3e 48 16 69 3e
       -0.07835473 -0.03337643 0.21538422 0.22762406
000370 11 3a 7e be eb 40 db bd 8c 6d 35 bc e1 82 d5 bd
       -0.24826838 -0.107057415 -0.011073481 -0.10425354
000380 b1 93 ce bd f3 2d 06 3e 20 f4 c9 3e b4 6b 9f bd
       -0.10086764 0.13103466 0.39444065 -0.077842146
000390 de f5 6f 3e 45 4a 19 3e 94 46 a0 3e 0a 54 a7 bc
       0.23433635 0.14969738 0.31303847 -0.020425815
0003a0 e0 6b 9e 3d 48 75 c7 bd 42 a4 6c 3e e2 e7 88 be
       0.07735419 -0.097391665 0.23109534 -0.26739413
0003b0 5e da b6 3e 22 d5 67 3d f9 9c 9f be 52 ee 40 be
       0.35713476 0.056599744 -0.31174448 -0.18840912
0003c0 d1 c5 4c bc ca 06 6e be fd 92 34 3e 71 c0 ea be
       -0.012498335 -0.23244777 0.17634197 -0.45849946
0003d0 02 c2 d8 be a1 34 ab 3e 52 b4 a7 be c9 cf 9d 3c
       -0.42335516 0.3343859 -0.3275476 0.019264119
0003e0 b8 d8 7a 3e b7 a6 0d bf f4 ad f2 bc a5 0c 3f 3e
       0.24496734 -0.5533251 -0.029623963 0.18657167
0003f0 c6 d3 3e 3f 62 f0 a1 3e 2e c8 cb 3c ad 31 3d bd
       0.7454189 0.3162871 0.024875727 -0.046189953

network_body._body_endoder.seq_layers.0.bias f4 [128]
000000 7a 2c 01 3d 78 a5 bd bc 2e e3 78 ba 68 54 ba bc
       0.031536557 -0.02315019 -0.00094943016 -0.022745326
000010 f2 a8 d1 3c d7 e3 20 3d e8 da 16 bc 11 a3 1d 3d
       0.025593255 0.039279785 -0.009207465 0.03848559
000020 e0 08 d1 bc 99 24 41 3c eb 31 8e bc 98 13 23 3c
       -0.025516927 0.011788511 -0.017357787 0.009953402
000030 da 3a cb 3b 59 d5 11 3d 03 ec 28 3c 56 b0 08 bd
       0.006202084 0.035603855 0.010310176 -0.033371292
000040 dc 86 c4 bb cc 3e 85 3c 52 d1 a4 bc 5f 52 ae 3c
       -0.005997522 0.016265295 -0.020119343 0.021279512
000050 46 4a a0 bc db 86 1b bd 32 df 6e bd 6d 9f 21 3b
       -0.019566666 -0.037970405 -0.058318324 0.0024661676
000060 13 60 70 bc 63 24 22 bc ae 34 5d 3c d4 fb 8c bc
       -0.014671343 -0.009896371 0.013501329 -0.017209925
000070 cf 5e f6 bc ff d4 f4 bc 69 6e c7 bb f2 8e ff ba
       -0.030074505 -0.02988672 -0.00608616 -0.0019497557
000080 99 96 a9 3c 57 7d b8 3c 71 68 c6 3c 66 8a ef 3c
       0.020701693 0.022520704 0.024219723 0.029240798
000090 2c 38 42 3d b2 95 73 3b 2f 6d 85 bc a3 0c 0b bd
       0.04741685 0.0037168083 -0.016287414 -0.0339476
0000a0 f1 1d 24 bd 2b 94 0d 3d 76 9d bc 3c 64 e4 98 bc
       -0.040067617 0.034565132 0.023024302 -0.018663593
0000b0 4d fa f4 3c bd f1 9c 3d b5 6c 04 bd 81 a1 92 3d
       0.029904509 0.076632954 -0.032330234 0.07159711
0000c0 73 c6 09 3d 09 f1 b5 bc db 91 be 3c 34 81 ca bd
       0.03363652 -0.022209661 0.023262909 -0.09887925
0000d0 b4 f2 0b bd 04 51 27 3c 80 bb 31 3d 33 cf 46 bc
       -0.034167007 0.010212187 0.043391705 -0.012134361
0000e0 1d 3b 58 3d eb a8 a5 3b 47 b8 d5 bc c6 54 cf 3c
       0.05279075 0.005055537 -0.026088847 0.025308978
0000f0 27 1e c6 bb 85 1d 53 bc 15 07 ad bc 25 01 74 bb
       -0.006046075 -0.012885456 -0.021121541 -0.0037232128
000100 30 e3 6e 3a 11 e7 88 3c 40 7f c1 3b 98 42 58 bc
       0.0009112833 0.016711744 0.005905062 -0.013199471
000110 45 e6 bd bc 42 0a 8a 3c 85 0a ec 3a b8 a0 b5 bc
       -0.02318109 0.016850594 0.0018008506 -0.022171363
000120 2d 89 10 3b e0 12 b3 3c 89 45 28 3c 01 0a 55 bd
       0.002205442 0.021859586 0.010270485 -0.052011494
000130 54 36 d8 bc 6b 7d 68 bc 5a bc 13 3d 0b b0 68 bc
       -0.026393093 -0.014190058 0.036068298 -0.014202128
000140 7c 02 de bb 6e 3a 35 3b 52 19 96 bd 86 2d e8 3b
       -0.0067751985 0.0027653235 -0.07329048 0.007085505
000150 45 cc b3 bb 43 3f c3 bb e3 27 0c 3d dd 9f 3c bd
       -0.0054869973 -0.005958469 0.034217726 -0.046050895
000160 fb 54 5e 3c 4d 52 26 bc 3f e2 d3 3c aa 4e 0d bd
       0.013570066 -0.010151458 0.025864718 -0.034498848
000170 b6 d3 61 3d f9 35 0d 3c 7c 36 fa bc 7d 83 ab bc
       0.055133544 0.008618825 -0.030543558 -0.020936722
000180 c3 c0 8f 3c 97 a1 41 bc cc a5 85 bc 0e 00 7b 3c
       0.01754797 -0.011818311 -0.01631441 0.015319837
000190 39 8e 28 bc 2f ae 44 3c e7 e5 0d bc e7 87 ed 39
       -0.010287815 0.012004419 -0.00866077 0.00045305418
0001a0 15 06 73 3d 5e c1 97 bb d9 d8 90 bb f8 d3 2c bd
       0.059331972 -0.0046312055 -0.0044203815 -0.042194337
0001b0 36 02 4c 3d f5 96 a4 3d bc f7 a0 bd 9e 7a b9 3a
       0.049806796 0.08036605 -0.078597516 0.0014150923
0001c0 f6 d4 ab 3c f3 b4 ff b8 df 11 f4 ba fe 8e 65 3c
       0.020975571 -0.00012193052 -0.0018621049 0.014011143
0001d0 15 0d 14 3d 50 b1 f0 ba c4 e8 d9 3b 62 d4 e7 bc
       0.03614529 -0.001836339 0.0066500623 -0.028299514
0001e0 99 00 12 bc d7 80 b2 3c 75 6d 45 3c 78 a8 88 bc
       -0.008911275 0.021789951 0.012050022 -0.016681895
0001f0 f8 67 36 bb c0 72 42 bc 26 25 0f bc 73 50 ef bc
       -0.0027832966 -0.011868179 -0.008736884 -0.029213166

network_body._body_endoder.seq_layers.2.weight f4 [128, 128]
000000 d7 ce 12 3d f5 13 aa bd f7 6d 21 be 01 89 5a bb
       0.03584179 -0.08304588 -0.15764605 -0.003334582
000010 a0 e8 b3 bc f6 ea 33 3c 14 26 1d be ce 74 61 be
       -0.02196151 0.010981312 -0.15346557 -0.22017214
000020 2f 7a 86 bd e6 7c 98 bd c4 f4 15 be 6d 96 ed 3d
       -0.065662734 -0.074456975 -0.14644152 0.11600957
000030 71 c3 82 bd 7c 42 2b be f1 bd 14 3c 43 ff 17 bc
       -0.06384934 -0.1672458 0.009078489 -0.009277168
000040 5e 83 97 b9 6e d4 78 be 95 7d 37 bd bb 47 0c be
       -0.0002889884 -0.24299785 -0.0447975 -0.13699238
000050 57 be d2 3d fc 7c 0b be ed e1 fa bb 7e 06 e0 bd
       0.10290211 -0.13621897 -0.007656327 -0.10938738
000060 eb c9 80 3d 02 b8 2f 3b be 92 0a bd e0 f0 4b be
       0.06288513 0.0026812558 -0.03383135 -0.19916105
000070 45 a8 23 be 57 69 34 bd 8f a4 87 3d 1a c1 3a bd
       -0.15982158 -0.044045772 0.06623184 -0.045594312
000080 96 4b 47 bd 91 d4 be 3d d4 05 24 3d 13 7b 80 3d
       -0.04865607 0.093178876 0.04004462 0.062734745
000090 56 4e 3d 3d 37 83 7c be 86 29 47 bc 8b 38 dd 3d
       0.046217285 -0.2465943 -0.012155896 0.108018
0000a0 8a 41 12 bb 70 95 74 bd 78 2f ff 3d b3 e6 e9 3d
       -0.0022316896 -0.059712827 0.12460226 0.114209555
0000b0 c9 20 d5 3d d0 8a b9 3d 02 5a bd bd 5e 35 b2 bc
       0.10406644 0.090596795 -0.09245683 -0.021753963
0000c0 7a 8d 38 bd be 1c 1a bd f1 95 56 3d cb 0a fb 3d
       -0.045056798 -0.037625067 0.05238909 0.12257918
0000d0 77 86 ee 3c 90 c3 e4 3d ab ad e6 bc 8f da c7 ba
       0.029116852 0.11170113 -0.028158983 -0.0015247631
0000e0 74 a7 cf 3d cd fb 03 be 18 ac 02 3d 19 7f 34 3e
       0.10139361 -0.12889023 0.031902403 0.17626609
0000f0 3a 4a b9 3d 78 0a 6b bd 38 c4 e9 bd 5d ec db bd
       0.09047361 -0.05738303 -0.11414379 -0.10738442
000100 d3 7b 28 bd 1f 0e a7 bb 5c 0c ab bd a5 1b 8a 3d
       -0.041133713 -0.005098119 -0.08351967 0.06743554
000110 51 9a 88 bd 39 de b4 3d 7c 50 26 3e 1c ca 11 be
       -0.066700585 0.08831448 0.1624164 -0.14237255
000120 f6 ae 86 3c 3b 76 37 bd 32 bf f1 3d 51 4e 23 be
       0.01644085 -0.044790488 0.11804046 -0.15947844
000130 ba c5 cb 3d 85 26 d9 3d 01 4c 06 3d e0 c3 83 3d
       0.09949823 0.1060305 0.032787327 0.064338446
000140 b5 73 f2 bd 50 51 75 bc 0e 15 d6 bb 0f fd 9b bd
       -0.118384756 -0.014973 -0.0065332716 -0.076166265
000150 54 16 39 3b 93 d9 72 3d fd da 1c 3c 27 5a 04 3e
       0.0028242068 0.059289526 0.009573695 0.12925015
000160 44 04 27 3e 6c b1 48 3c 0e 0a d3 3c 6b 61 c2 bc
       0.16310221 0.012249332 0.02576163 -0.023728093
000170 82 95 d0 bc f8 02 ae bc ba 36 8a 3d 65 2e f6 3d
       -0.025461916 -0.02124165 0.067487195 0.12020568
000180 da f5 ab 3d c0 11 bf bd 01 e9 20 be 4a f8 0d 3e
       0.08396502 -0.093295574 -0.15713884 0.13864246
000190 b6 ae 12 3e 64 72 e4 3d 0b 6e 74 bc ad 1b 61 3d
       0.1432446 0.11154631 -0.014918814 0.054958034
0001a0 d3 78 5a 3d 62 89 4d be 53 37 55 3c 56 91 98 3d
       0.053337883 -0.20071939 0.013013679 0.07449596
0001b0 6a e4 d1 bc 0d 4c 35 bd 6a a5 d0 bd ec 07 99 3d
       -0.025621612 -0.04426198 -0.101878 0.07472214
0001c0 e5 64 c4 3d 9b f9 0a 3d 2f 9c 41 be d9 22 81 3d
       0.095895566 0.03392945 -0.18907236 0.06305475
0001d0 38 f0 ab 3d a2 1d ca 3c b5 60 26 3d 48 43 a5 3c
       0.083954275 0.024672333 0.04061957 0.020173684
0001e0 0a c6 4e 3d bd 18 23 bd cf a1 20 be 1e 8b 6e bd
       0.050481834 -0.039818514 -0.15686725 -0.05823814
0001f0 13 5c 70 bd 32 94 1d be 89 44 ab 3d f5 41 15 3e
       -0.05868156 -0.15388563 0.083626814 0.14575942
000200 27 b8 9b 3d e3 8a 13 3d 04 02 cd bd 47 4e da 3d
       0.07603484 0.036021125 -0.1001015 0.106594615
000210 ee 12 ed 3d c7 7a 45 3e c3 a1 57 3d 48 97 15 3d
       0.11575876 0.19285117 0.052644502 0.036521226
000220 04 81 2b 3d c9 25 da 3d 6e 5d bf bd d6 d0 d7 3d
       0.041871086 0.10651738 -0.09343992 0.10537879
000230 97 68 f1 3d e3 0e de bc 10 f1 12 3e 68 f8 b4 bd
       0.11787527 -0.027106708 0.1434977 -0.08836442
000240 bd ce 8e bc 6f cf d5 bb 02 b2 25 be ae 5c 44 3d
       -0.017432565 -0.006524972 -0.16181186 0.04793995
000250 00 0c 8e 3d 3a 63 f1 bd e4 a8 a4 bb 51 f2 72 3d
       0.069358826 -0.11786504 -0.005025016 0.059313122
000260 64 8f 1e 3d 90 0d 1b 3e 1b b0 ff bb 56 83 ee ba
       0.038710967 0.15141892 -0.007802976 -0.00181971
000270 69 43 03 3e a2 ae 28 bd 71 4c f6 3c 03 57 28 3e
       0.12818684 -0.041182168 0.030065747 0.16439442
000280 98 34 25 3e 76 7e be 3d 9e cc 49 3d 48 0d de bd
       0.16133344 0.09301464 0.049267404 -0.10842377
000290 83 5a 9d 3c 59 08 2c bd 4b dc b8 3a c6 a0 dd bd
       0.019208198 -0.04200015 0.0014103738 -0.10821681
0002a0 93 0f 17 3e c4 36 02 be 9d 76 40 3d 9a d6 0d be
       0.14752035 -0.12716204 0.04698812 -0.13851395
0002b0 a5 87 6c bb 34 0c 55 3d 5b 79 5f 3c bc ad 5a bb
       -0.0036091593 0.05201359 0.013639773 -0.0033367714
0002c0 c7 6a be bc 83 49 90 3c 1d 9e b1 bd 59 7f 38 3d
       -0.023244275 0.017613178 -0.08672736 0.045043323
0002d0 d7 5a ab bd e3 38 00 3d eb a1 90 3d 29 e6 6f 3d
       -0.08366936 0.03130425 0.070621334 0.058569107
0002e0 48 ff 8a bd 85 ad e6 bd 4f 1c b9 bc a2 85 b8 bc
       -0.06786972 -0.11263565 -0.022596506 -0.022524659
0002f0 c4 cf 42 bd 58 70 43 3e 8f 3e 07 bd b4 05 ac 3d
       -0.047561422 0.19085824 -0.033018645 0.08399525
000300 bc 4a 8d 3d 11 4f e6 3c f0 3a 02 3d 21 54 3f 3e
       0.0689902 0.028113874 0.03179449 0.18684436
000310 e0 b4 67 bd 5e 02 30 3e 9b 08 03 b7 dd 5d fd bd
       -0.05656898 0.17188403 -7.810212e-06 -0.123714186
000320 81 d5 8f bb e3 4e 04 be 90 2a 8b 3d 9f 98 19 3c
       -0.0043894653 -0.12920718 0.067952275 0.009374767
000330 94 e1 ad bc 94 50 02 3d 73 df a7 3d 48 79 0c 3b
       -0.021225728 0.031815127 0.081969164 0.0021434594
000340 90 6a 33 3e b4 73 64 be d9 08 55 be 3f 94 d2 bd
       0.17521119 -0.22309762 -0.20804156 -0.10282182
000350 b0 fd e4 bd 5d 77 08 3d 75 9d bc 3d 41 ee f1 3c
       -0.111811996 0.03331696 0.0920972 0.029532554
000360 74 d7 86 3d ed fd 0b be a9 9d e1 39 93 62 00 3e
       0.06584063 -0.13671084 0.0004303281 0.12537603
000370 35 59 c1 3d a3 41 32 3e ec aa a4 3d 64 47 06 3e
       0.09440843 0.17407851 0.08040413 0.13113171
000380 b5 75 ff bd 8c 78 23 3d be 90 2a 3e bb 41 d6 3c
       -0.12473623 0.039909884 0.16656777 0.02615439
000390 65 12 9e 3d b0 52 3f be 09 e4 4f 3c 2b 4e 30 bd
       0.07718352 -0.18683887 0.012688645 -0.043043297
0003a0 12 a2 05 3e c2 e4 e0 3d c2 f5 e0 bd cc 11 85 3b
       0.13050106 0.10981132 -0.109843746 0.0040609594
0003b0 c6 17 1b 3e 29 eb 2d bd c1 1e 7d 3b c4 d7 16 be
       0.15145788 -0.042460594 0.0038623067 -0.14730746
0003c0 60 d8 70 bd dc b3 47 be 81 09 b5 3d 49 59 93 bc
       -0.0588001 -0.19502205 0.08839703 -0.01798691
0003d0 f9 19 67 bd ab ce 0f bd e2 6d 11 3e 86 a1 fc 3d
       -0.056421254 -0.035109203 0.14202073 0.12335496
0003e0 e2 a4 35 bd 18 14 0a 3d 01 ae 99 3b 25 5b 46 3d
       -0.044346698 0.03371057 0.0046899323 0.048426766
0003f0 72 c6 96 3d 87 9d 0c 3a a9 d2 60 3d a3 cf 34 3e
       0.07362069 0.00053640496 0.0548884 0.17657332

network_body._body_endoder.seq_layers.2.bias f4 [128]
000000 f8 72 8c bb 5c ce 4a 3b 16 e3 55 3c ce 9b 18 3c
       -0.0042861663 0.0030945754 0.01305463 0.0093144905
000010 3e 42 7c bb ef 1a 1f 3c 89 a4 1a 3c 77 e5 41 bb
       -0.0038491632 0.009711011 0.009438642 -0.0029586235
000020 2b e6 c7 bb 7a e3 c7 bc 69 de a6 3c fb 24 c4 bb
       -0.006100436 -0.024400461 0.020369725 -0.0059858537
000030 71 83 c0 ba 58 99 97 3b 08 49 48 bc 6e 85 6e 3b
       -0.001468761 0.0046264343 -0.012224443 0.0036395448
000040 c2 0b b3 3b 74 77 70 39 a3 fa ca bb 8d 27 44 3b
       0.005464048 0.00022932683 -0.006194429 0.00299308
000050 23 34 93 3c d7 c2 81 bc 02 55 67 3c 15 0c f8 bb
       0.017969197 -0.015839977 0.014119389 -0.0075697997
000060 e2 90 79 bc 97 3f 82 bc b0 7e f9 3b 18 1e 96 bb
       -0.015232297 -0.015899463 0.0076139793 -0.004581224
000070 d8 55 d3 3c a6 14 d4 3b 97 88 3a 3b e3 cb 2d bc
       0.02579777 0.006472188 0.0028462762 -0.010607692
000080 57 3a a5 bc bf 44 90 bb 07 0b fe 3c a7 dc 8b bb
       -0.02016942 -0.0044027264 0.031011118 -0.004268247
000090 c8 3c 39 bc 78 4a 9b 3c 41 b4 08 3b 82 80 9a bb
       -0.011305995 0.018956408 0.0020859393 -0.0047150264
0000a0 88 97 6e 3b 57 d7 74 3c e9 2f aa ba e2 59 00 3c
       0.0036406238 0.014943919 -0.0012984249 0.00783393
0000b0 c9 9f a2 bc ac e2 a2 bc d3 36 d3 3b 4b 50 98 3c
       -0.019851582 -0.019883476 0.0064457445 0.018592974
0000c0 e9 65 c0 3b 0a df 00 bc c0 75 31 3c 3b 23 47 bc
       0.0058715236 -0.007865677 0.010831296 -0.012154396
0000d0 c3 dd 29 bc 78 04 bb b7 90 99 0b bc 03 bd 01 bd
       -0.0103678135 -2.2294218e-05 -0.008520499 -0.031674396
0000e0 73 f6 81 bc c6 2f e3 3c 7a 47 c7 3a 4d bd 92 b9
       -0.015864586 0.027732741 0.0015203797 -0.0002798833
0000f0 e7 67 5e 3b 58 19 c5 bb 2a ff 22 bd b6 ef 9c 3b
       0.0033936442 -0.006014984 -0.039794125 0.004789318
000100 16 9d 18 bb 37 59 7d 3c 48 35 d0 3b 9c 0c ac 3c
       -0.002328699 0.015463165 0.006354008 0.021002106
000110 7d 79 1e 3c 65 12 71 3c f5 b7 31 bc b4 b2 0d bb
       0.00967252 0.014713858 -0.010847081 -0.0021621408
000120 5b c9 93 3c 7e 2e 8d 3b f3 f0 a3 3c 6a 2c ed b9
       0.01804035 0.004308521 0.020012354 -0.00045237254
000130 de c9 4d 3b 3c b6 44 3c 98 05 63 bb 18 e4 a4 3c
       0.003140084 0.012006339 -0.0034640785 0.020128295
000140 59 8f 4f bc 21 aa b7 3c b4 f8 09 3b e9 c9 a7 3b
       -0.012668454 0.022419991 0.002105278 0.005120505
000150 dc 1d f7 3b f5 a5 09 3b 56 f7 6b bb f9 34 71 3b
       0.0075414013 0.002100346 -0.0036005578 0.0036805256
000160 d5 fd 95 bb 4e ec 2a 3c c9 d1 5d 3b 8e 48 8c bc
       -0.0045773783 0.010432316 0.0033846966 -0.01712444
000170 b0 9f 41 bc c8 0c 7c 3c 90 f2 8f bb ff 95 13 bc
       -0.011817858 0.015383907 -0.0043929294 -0.00900793
000180 74 f8 3a 3c 11 0d 51 3b 97 10 97 3c 27 2a 80 3c
       0.011411775 0.0031898657 0.018440528 0.0156451
000190 db 12 ef 3b 67 21 ba bb 8b 36 c8 3b 35 b3 04 3c
       0.007295949 -0.0056802514 0.0061100177 0.008099367
0001a0 f5 2e ef 3c 01 bd 8a 3c 28 e0 fe 3b da ca 40 bc
       0.029197196 0.016935827 0.0077781864 -0.011767114
0001b0 84 c8 b1 3c 13 ab fa ba 0c 6d c7 3a e5 e8 a4 bc
       0.021702059 -0.001912447 0.0015214994 -0.020130584
0001c0 50 42 81 3c 36 83 e5 3c f7 06 23 3d 1e 42 06 3c
       0.01577869 0.028016668 0.039801564 0.0081944745
0001d0 14 1d b2 3c bc f3 58 3c f8 9a d1 3c cd 2d 8b 3c
       0.021742381 0.013241705 0.02558659 0.016989613
0001e0 09 47 16 3b 9b 98 41 bb 70 3c c3 bb c5 c5 89 3b
       0.0022930524 -0.0029540423 -0.0059581324 0.004204484
0001f0 ce 6d 36 bc 56 f2 f4 3c dc 17 1f bc 09 c4 8d 3c
       -0.011134578 0.029900711 -0.009710278 0.01730539

action_model._continuous_distribution.mu.weight f4 [1, 128]
000000 f0 41 e1 bc fc c9 d9 b9 77 79 97 bc 97 9c 1f bd
       -0.027497262 -0.00041539955 -0.018490536 -0.038967695
000010 6e 64 13 bd 3e 3b 4b bd 9a 1c d5 3c 87 ff 2d bd
       -0.03598445 -0.049617045 0.026014615 -0.042480018
000020 b6 56 e2 bc 66 f6 1b bd 3e b3 02 bd ef c5 15 bd
       -0.027629238 -0.03807678 -0.03190922 -0.036565717
000030 42 af c5 3b 89 7f 18 bc d6 c5 67 3c 62 2a cb 3c
       0.0060328552 -0.0093077505 0.014146289 0.024800483
000040 33 7b e3 bc d7 d6 3d bd 8f b9 f0 bc f7 74 e1 3c
       -0.027768707 -0.046347465 -0.029385356 0.027521593
000050 67 a2 47 3d 1e 18 f3 bc 08 ee 1f 3d b0 ba 91 bc
       0.048738863 -0.029674586 0.039045364 -0.017789215
000060 46 61 47 bd fd 46 91 3c 85 1a cb bc 3f 30 ff bc
       -0.04867675 0.017734045 -0.024792919 -0.031150935
000070 85 9b 2c 3d 57 96 78 bc b1 5e 1e bd 56 63 9c 3c
       0.042140502 -0.015172563 -0.038664524 0.019090336
000080 2f 6a 9e 3c a7 0e 2b bd 2c 20 3b 3d f7 7b 18 bc
       0.019337742 -0.04176202 0.04568498 -0.009306899
000090 a9 f7 be bc e4 ff ac 3b c6 b7 09 bc 8f 82 25 bd
       -0.023311453 0.005279528 -0.008405631 -0.040407714
0000a0 19 da ed 3c 71 89 f6 bc ba dd 03 bd 46 79 fe bc
       0.029034661 -0.030094834 -0.032193877 -0.031063687
0000b0 f5 f9 f7 bc e9 38 1b bd cc 64 46 bc 31 6b 18 3d
       -0.030270556 -0.03789607 -0.012108993 0.0372116
0000c0 f3 d1 ad 3c 70 fa f0 3c 65 1f 1a 3d a6 d8 1f bd
       0.021218276 0.029416293 0.037627596 -0.03902497
0000d0 45 ec b8 3a 4e 06 1c bd a5 08 57 3c 9a 7a 0a bd
       0.00141085 -0.03809195 0.01312462 -0.03380833
0000e0 60 98 14 bd 15 85 6c 3d 26 58 f1 bc fc a7 3f bd
       -0.03627813 0.057744104 -0.029460978 -0.04679106
0000f0 82 94 4b bd 33 34 61 bd b0 f5 1a bd 9d c6 ad bb
       -0.049702175 -0.05498142 -0.037831962 -0.0053032176
000100 7d 4f 43 b8 59 7f fc 3c 81 e0 25 bd 22 12 3e 3d
       -4.6565652e-05 0.030822443 -0.040497307 0.04640401
000110 96 70 a0 bc e1 75 0b 3d 07 de 09 3c be cc 16 bc
       -0.019584935 0.034047965 0.008414752 -0.009204088
000120 d9 59 0a 3d 56 d0 42 bc c3 11 3d 3d a5 da 2a bd
       0.03377709 -0.0118904915 0.046159517 -0.041712422
000130 2e 2b c8 bc e9 08 0a bd af 14 09 bd 78 ab 5e 3d
       -0.024434652 -0.033699904 -0.03346699 0.054362744
000140 87 b6 35 bd bf 95 1c 3d 76 18 10 3d 5a b3 06 3d
       -0.044363525 0.038228747 0.035179578 0.032885887
000150 75 d0 dc 3c 44 e4 4a bd 86 01 87 bb 09 98 59 bd
       0.026954869 -0.049534097 -0.0041200547 -0.053123508
000160 5e 9b b3 bc a2 e7 49 3c 27 10 09 3d 13 87 e1 bc
       -0.02192467 0.012323292 0.03346267 -0.027530229
000170 45 bb 54 bd e4 e1 4e bd 22 98 03 3c dd 06 31 bd
       -0.051936407 -0.050508395 0.008031877 -0.043219436
000180 db 4c ca 3c 0c 29 2a bd 2b fa 1f 3d bc 8f fb 3c
       0.02469485 -0.04154305 0.03905694 0.030708186
000190 9e 08 0a 3d 0c 9b 1d 3b bc 4a 44 bd 89 2b 4b bd
       0.033699624 0.0024048714 -0.047922835 -0.049602065
0001a0 88 00 7b 3d ac 36 26 3d 52 bd 14 bd ed 44 3c bd
       0.061279804 0.040579483 -0.036313362 -0.04596417
0001b0 f2 81 cd bc 73 a1 8e bb 24 49 10 3d a1 8c b2 bb
       -0.025086377 -0.0043527423 0.035226002 -0.005448893
0001c0 ee 91 02 3d 0d 0d 7b 3d 64 b8 55 3d 44 4c 2e 3d
       0.03187745 0.061291743 0.0521778 0.0425532
0001d0 c1 5f 31 3d b4 b2 b3 3b fc b3 38 3d 1b c5 aa bb
       0.04330421 0.0054839496 0.04509352 -0.005211485
0001e0 2b ff ad 3c 3a c7 c0 bc 7a 80 ed bc b2 0b 97 3c
       0.021239838 -0.023532499 -0.028991926 0.018438194
0001f0 2f 12 b7 bc 87 33 50 3d fa 23 79 3c 46 1b b9 bc
       -0.022347538 0.05083039 0.015206331 -0.022596013

exp_avg f4 [128, 15]
000000 b6 72 68 2f b7 26 86 ba 24 a2 a1 b7 b9 4a 1b b9
       2.114103e-10 -0.0010234927 -1.9268198e-05 -0.00014809788
000010 29 4c d3 bb f2 6f d0 bb 02 46 46 ba 38 91 56 ba
       -0.006448288 -0.006361001 -0.00075635326 -0.00081850914
000020 62 a9 9b bb 91 c8 9b bb 67 74 fe ba 0c 30 00 bb
       -0.0047504166 -0.004754134 -0.0019413353 -0.0019559888
000030 13 ac a1 bb 13 ac a1 bb 00 00 00 00 4f 45 bc af
       -0.004933843 -0.004933843 0.0 -3.4246248e-10
000040 2a d5 26 3a 2f 18 7a 38 f2 da 3e 39 2a 6b 8c 3b
       0.00063641614 5.9627168e-05 0.00018201375 0.004285236
000050 7b 52 8b 3b cf 0d 93 3a df ef 96 3a 27 8e 71 3b
       0.004251776 0.0011219325 0.0011515579 0.003685841
000060 38 c3 71 3b 02 7c e8 3a b9 89 e9 3a 50 c9 7b 3b
       0.003689004 0.0017737153 0.0017817534 0.0038419552
000070 50 c9 7b 3b 00 00 00 00 81 f2 69 2e 50 b9 2b b9
       0.0038419552 0.0 5.3193453e-11 -0.00016376865
000080 97 c1 dc b4 f8 94 7c b7 5d 5a 86 ba 43 19 83 ba
       -4.1119048e-07 -1.5055055e-05 -0.0010250319 -0.0010002035
000090 a0 fc ff b6 42 18 a5 b7 7d d8 0e ba 19 cb 0e ba
       -7.6290016e-06 -1.9680829e-05 -0.00054491294 -0.0005447134
0000a0 66 fb 6b b9 d3 b6 6e b9 46 43 0c ba 46 43 0c ba
       -0.00022505 -0.00022765556 -0.00053506007 -0.00053506007
0000b0 00 00 00 00 4a 36 42 2f df 0a d9 b9 32 25 b2 b6
       0.0 1.7663485e-10 -0.00041397565 -5.3091435e-06
0000c0 9f 4a 0d b8 ce 23 22 bb 13 31 1f bb 3f 20 5d b8
       -3.3686516e-05 -0.002474058 -0.0024290725 -5.2720537e-05
0000d0 37 5d 93 b8 f4 51 d0 ba 94 05 d0 ba c3 bf 73 b9
       -7.026869e-05 -0.0015893565 -0.0015870803 -0.00023245723
0000e0 3a 22 7a b9 fc 98 c1 ba fc 98 c1 ba 00 00 00 00
       -0.00023854608 -0.0014770324 -0.0014770324 0.0
0000f0 09 c2 25 ad 58 d6 a9 b7 38 06 02 b6 b9 0f c4 b6
       -9.422249e-12 -2.0246182e-05 -1.937513e-06 -5.8430855e-06
000100 79 40 41 b9 cf a7 33 b9 9c 1a 97 37 9d 07 55 37
       -0.00018429932 -0.00017133284 1.8012994e-05 1.2697562e-05
000110 3e 4a 7d 38 75 aa 7b 38 63 ef 21 b9 ae 63 22 b9
       6.0389044e-05 6.0001814e-05 -0.00015443335 -0.00015486658
000120 cf 23 2d 38 cf 23 2d 38 00 00 00 00 d0 7f 4a ae
       4.1279764e-05 4.1279764e-05 0.0 -4.6043003e-11
000130 ae 85 2e 38 3d 20 56 35 5b a3 f3 36 8a d8 90 39
       4.160933e-05 7.9768125e-07 7.2609814e-06 0.00027627154
000140 2f 84 8d 39 7e 01 ef 37 d1 32 08 38 b2 43 21 39
       0.000269921 2.8491715e-05 3.2472253e-05 0.00015379375
000150 2e 78 21 39 f6 f9 01 39 4f a5 02 39 0f 62 2b 39
       0.00015398927 0.00012395516 0.00012459348 0.0001634436
000160 0f 62 2b 39 00 00 00 00 5e dd 06 ae 69 ad 21 b8
       0.0001634436 0.0 -3.0664686e-11 -3.8546892e-05
000170 f6 98 3b 37 06 28 02 38 39 de 09 39 a0 50 bb 38
       1.1181683e-05 3.103169e-05 0.00013148123 8.9318724e-05
000180 fa 54 b8 38 42 b2 d4 38 c4 72 20 ba 5d 46 20 ba
       8.789632e-05 0.00010142151 -0.0006120617 -0.00061140006
000190 e3 78 18 3a 39 64 18 3a 2a e3 17 ba 2a e3 17 ba
       0.00058163534 0.0005813274 -0.0005794043 -0.0005794043
0001a0 00 00 00 00 83 f6 62 ac 8e dd b9 38 c8 67 2e 37
       0.0 -3.2253373e-12 8.862755e-05 1.0395372e-05
0001b0 fe c1 2c 38 60 ec 2b 3a 7e 20 2a 3a 6c 1c 78 39
       4.1188665e-05 0.0006558355 0.0006489827 0.00023661711
0001c0 2f ef 84 39 22 55 15 3a 58 2d 16 3a 33 69 3a 3a
       0.00025355208 0.00056965847 0.00057288026 0.0007111013
0001d0 7c b4 3a 3a 1c 03 3f 3a 1c 03 3f 3a 00 00 00 00
       0.0007122231 0.0007286535 0.0007286535 0.0
0001e0 be 19 87 2e 66 9b 36 b9 da aa 87 b7 3b bd 5f b8
       6.143662e-11 -0.00017414763 -1.6172813e-05 -5.3343578e-05
0001f0 75 bc a6 ba 3f 97 a2 ba 55 0b 72 b9 66 49 83 b9
       -0.001272096 -0.0012404694 -0.0002308314 -0.00025040953
000200 cb 3a 35 ba ed bd 35 ba d6 de 46 ba d4 8a 47 ba
       -0.0006913363 -0.0006932903 -0.0007586306 -0.00076119346
000210 8c 82 4e ba 8c 82 4e ba 00 00 00 00 fb 14 10 30
       -0.00078777294 -0.00078777294 0.0 5.241671e-10
000220 2b f5 89 ba 5e 75 88 b7 28 89 02 b9 fc 62 d6 bb
       -0.0010525336 -1.6267117e-05 -0.00012448861 -0.0065425616
000230 34 db d2 bb f6 06 0a ba c0 56 18 ba 39 b3 92 bb
       -0.0064348225 -0.00052653195 -0.00058112666 -0.0044769314
000240 0e b9 92 bb d6 c4 ae ba bf be b0 ba 51 d3 93 bb
       -0.0044776266 -0.0013333808 -0.0013484581 -0.004511275
000250 51 d3 93 bb 00 00 00 00 5c 51 bf 2f ce e4 58 ba
       -0.004511275 0.0 3.4800507e-10 -0.00082738406
000260 33 14 93 b8 c5 1b 56 b9 e0 16 b0 bb 12 cd ad bb
       -7.0132686e-05 -0.00020418975 -0.0053738207 -0.0053039873
000270 bb 2f 77 ba a3 f9 83 ba 3e 51 84 bb 1f 89 84 bb
       -0.00094294146 -0.0010068904 -0.004038005 -0.0040446664
000280 08 f5 16 bb cd ba 17 bb c7 16 8f bb c7 16 8f bb
       -0.0023034234 -0.0023152113 -0.004366729 -0.004366729
000290 00 00 00 00 d3 de 89 ae 56 26 50 39 bb d2 f3 35
       0.0 -6.26962e-11 0.00019850707 1.8166241e-06
0002a0 ff c4 d6 37 52 3c b4 3a 02 d9 ae 3a d9 cf 74 38
       2.5602521e-05 0.0013750887 0.001333982 5.8367707e-05
0002b0 90 b2 9a 38 0b 05 1c 3a 9b d1 1b 3a 29 5c bd 39
       7.376552e-05 0.0005951679 0.00059440144 0.00036117554
0002c0 14 14 bf 39 f7 19 12 3a f7 19 12 3a 00 00 00 00
       0.00036445318 0.0005573327 0.0005573327 0.0
0002d0 72 9f f4 ad 18 c7 9c 37 1c 0e 25 b6 03 bc 30 b6
       -2.7810396e-11 1.868936e-05 -2.4595129e-06 -2.633548e-06
0002e0 b7 e9 c6 38 aa 5b c5 38 ee e6 95 b7 c7 ac 91 b7
       9.4849085e-05 9.410766e-05 -1.786972e-05 -1.7365803e-05
0002f0 38 41 ad 38 db a1 ac 38 c1 89 96 b7 13 ff 93 b7
       8.261431e-05 8.231747e-05 -1.794554e-05 -1.7642544e-05
000300 6c 88 8e 38 6c 88 8e 38 00 00 00 00 be 8c 7d ae
       6.796498e-05 6.796498e-05 0.0 -5.7650544e-11
000310 9b 90 25 38 d1 99 99 36 38 52 4f 37 72 ad ab 39
       3.947374e-05 4.577662e-06 1.23573045e-05 0.00032744888
000320 d6 cd a1 39 0c 29 d7 36 b0 40 56 37 a2 20 a8 b7
       0.00030861673 6.412278e-06 1.2770455e-05 -2.0042356e-05
000330 95 67 ab b7 79 76 4f 39 35 25 50 39 66 eb 24 b8
       -2.0433023e-05 0.00019785193 0.00019850286 -3.931988e-05
000340 66 eb 24 b8 00 00 00 00 ee 93 6c 2f 47 0e 19 ba
       -3.931988e-05 0.0 2.151663e-10 -0.00058386143
000350 35 28 6f b7 bf ef 9e b8 e5 f3 71 bb 9b 66 6d bb
       -1.42548715e-05 -7.578683e-05 -0.0036919054 -0.0036224488
000360 ef 84 9c b9 37 61 ac b9 b0 44 1b bb 8b 35 1b bb
       -0.00029853682 -0.00032878827 -0.0023692064 -0.0023683037
000370 38 aa 42 ba 7b df 44 ba 2b 59 18 bb 2b 59 18 bb
       -0.0007425877 -0.0007510108 -0.0023246508 -0.0023246508
000380 00 00 00 00 ab 15 1d 2f 5e ef 9d b9 ce 8b e8 b7
       0.0 1.4286765e-10 -0.00030123716 -2.7721657e-05
000390 14 b1 aa b8 4a 20 09 bb a0 4c 06 bb 30 56 be b9
       -8.139215e-05 -0.0020923787 -0.002049245 -0.0003630384
0003a0 40 27 cb b9 b7 91 ac ba f4 c6 ac ba ed d5 77 ba
       -0.0003874842 -0.0013165985 -0.0013181851 -0.00094541797
0003b0 5a f1 78 ba af d4 b6 ba af d4 b6 ba 00 00 00 00
       -0.00094964134 -0.0013948883 -0.0013948883 0.0
0003c0 a8 b8 29 2f 1f 75 e9 b9 00 c4 b6 b7 2f 18 b9 b8
       1.5436064e-10 -0.00044528485 -2.178736e-05 -8.825992e-05
0003d0 93 b4 42 bb ed b4 3e bb 3c 2f c9 b9 45 18 db b9
       -0.0029709681 -0.002909954 -0.000383729 -0.00041789017
0003e0 94 f5 ee ba 22 27 ef ba c0 d5 95 ba 8b ad 96 ba
       -0.0018231147 -0.0018245915 -0.00114315 -0.0011495812
0003f0 20 83 f8 ba 20 83 f8 ba 00 00 00 00 3c 38 f1 2f
       -0.0018959977 -0.0018959977 0.0 4.3877602e-10

exp_avg_sq f4 [128, 15]
000000 bb cd f7 37 c5 0c d8 38 ff b2 00 37 18 79 34 37
       2.9540495e-05 0.00010302061 7.67107e-06 1.075703e-05
000010 a2 81 04 3a 84 7b 04 3a 62 46 63 37 41 62 71 37
       0.0005054717 0.00050538057 1.3546642e-05 1.4387596e-05
000020 89 28 06 3a cc 29 06 3a 10 20 7c 37 ea 59 82 37
       0.00051177345 0.00051179226 1.5027836e-05 1.5539077e-05
000030 1f ec 07 3a 45 ec 07 3a 00 00 00 00 67 4a 0a 38
       0.0005185026 0.0005185048 0.0 3.2971056e-05
000040 99 22 83 38 ef 0a 42 38 4a 43 4e 38 93 72 80 39
       6.253011e-05 4.6263387e-05 4.9176895e-05 0.00024499427
000050 16 70 80 39 d9 ac 83 38 7e 48 85 38 7d c4 81 39
       0.00024497573 6.278762e-05 6.355437e-05 0.00024751193
000060 2a c5 81 39 32 76 31 38 f5 a5 33 38 f8 90 82 39
       0.00024751696 4.2310166e-05 4.2831485e-05 0.00024903542
000070 15 91 82 39 00 00 00 00 ee a9 9d 35 0a 7e 6e 36
       0.00024903627 0.0 1.1746868e-06 3.5538128e-06
000080 c9 50 92 34 3e e3 d1 34 9b eb 86 37 33 e5 86 37
       2.7253398e-07 3.9094624e-07 1.6083757e-05 1.6080774e-05
000090 2a 57 34 34 bb 5b 57 34 f5 0a 8a 37 0e 0d 8a 37
       1.6795516e-07 2.0056807e-07 1.6455984e-05 1.6456961e-05
0000a0 20 da 58 34 47 ce 6e 34 bf de 8c 37 e4 de 8c 37
       2.0195921e-07 2.224052e-07 1.6793025e-05 1.6793092e-05
0000b0 00 00 00 00 10 64 65 37 4a f7 00 38 e0 25 5e 36
       0.0 1.3672761e-05 3.0747884e-05 3.3102624e-06
0000c0 5a 55 94 36 f5 47 e4 38 bd 43 e4 38 01 92 ff 35
       4.42068e-06 0.0001088529 0.000108845044 1.9041473e-06
0000d0 87 44 15 36 96 a3 e5 38 50 a6 e5 38 08 28 a7 34
       2.2242618e-06 0.00010950041 0.00010950549 3.11353e-07
0000e0 ef e3 0c 35 8f 0b e8 38 9f 0b e8 38 00 00 00 00
       5.248575e-07 0.00011064775 0.00011064787 0.0
0000f0 6e a4 1f 32 d7 4d 1b 33 9a ae 24 33 60 3c 2a 33
       9.292405e-09 3.6159545e-08 3.8343025e-08 3.963612e-08
000100 55 27 a5 34 fb 47 a5 34 30 94 ef 33 89 56 f0 33
       3.0762263e-07 3.0786018e-07 1.115626e-07 1.11916115e-07
000110 99 48 01 35 7d 4d 01 35 3c 57 17 34 75 50 17 34
       4.816189e-07 4.8169005e-07 1.4094707e-07 1.4092241e-07
000120 50 53 14 35 fd 53 14 35 00 00 00 00 f3 5a 3d 35
       5.525553e-07 5.5256515e-07 0.0 7.0540335e-07
000130 78 50 68 35 34 eb 6d 33 b4 03 d3 33 2e ae df 35
       8.654383e-07 5.539478e-08 9.826127e-08 1.6665488e-06
000140 67 a9 df 35 98 39 62 33 2f eb 8c 33 33 fe e4 35
       1.6664097e-06 5.2672107e-08 6.562038e-08 1.7061305e-06
000150 91 03 e5 35 20 60 71 33 dd 89 89 33 9e 73 ee 35
       1.7062868e-06 5.619961e-08 6.404637e-08 1.7766031e-06
000160 ea 73 ee 35 00 00 00 00 88 e5 bd 33 50 80 99 34
       1.7766117e-06 0.0 8.84275e-08 2.859183e-07
000170 22 c0 b0 35 4e d7 b4 35 97 c3 3a 36 bb b1 3b 36
       1.316894e-06 1.3473707e-06 2.7830008e-06 2.7968624e-06
000180 59 c1 81 36 8b 12 82 36 cc 5c c6 36 e7 5b c6 36
       3.867008e-06 3.8764606e-06 5.911663e-06 5.9115587e-06
000190 4e 85 6b 36 13 f7 6b 36 ca 10 c9 36 2b 11 c9 36
       3.5095322e-06 3.5161545e-06 5.9922213e-06 5.9922654e-06
0001a0 00 00 00 00 94 1e 91 31 ec d3 b6 34 ae e8 62 35
       0.0 4.2235317e-09 3.4054335e-07 8.4530154e-07
0001b0 d6 17 66 35 ba 53 7e 36 2a 6e 7e 36 82 03 08 36
       8.571636e-07 3.7897685e-06 3.7913073e-06 2.026762e-06
0001c0 22 39 08 36 99 0b c1 36 12 0a c1 36 9f 67 65 36
       2.0298835e-06 5.7531984e-06 5.7530206e-06 3.4183975e-06
0001d0 3a 24 65 36 b1 a0 c3 36 f1 a1 c3 36 00 00 00 00
       3.4144746e-06 5.83016e-06 5.8303053e-06 0.0
0001e0 87 7d a0 35 12 ea 56 36 81 c0 39 36 79 4c 42 36
       1.1957462e-06 3.2024732e-06 2.76792e-06 2.8952766e-06
0001f0 a1 4c 92 37 59 48 92 37 f3 e6 91 36 6b cc 92 36
       1.744024e-05 1.7438246e-05 4.348223e-06 4.3749365e-06
000200 71 32 a1 37 5f 34 a1 37 61 51 8c 36 74 ce 8c 36
       1.9216184e-05 1.9217083e-05 4.181799e-06 4.1963594e-06
000210 0b 64 a5 37 83 64 a5 37 00 00 00 00 34 bc 01 39
       1.9716119e-05 1.9716337e-05 0.0 0.0001237251
000220 f6 96 68 39 39 3f 14 37 f9 76 92 37 30 95 33 3a
       0.00022181481 8.836208e-06 1.7459957e-05 0.0006850539
000230 c1 8c 33 3a 9b 82 3f 37 18 4f 69 37 45 7b 35 3a
       0.0006849282 1.1414896e-05 1.3906298e-05 0.00069229706
000240 06 7c 35 3a 8b 9f 38 37 2a 7c 52 37 44 f7 35 3a
       0.0006923083 1.1004401e-05 1.2545885e-05 0.00069414475
000250 4c f7 35 3a 00 00 00 00 9b 20 3b 38 c3 d1 b7 38
       0.0006941452 0.0 4.461464e-05 8.765191e-05
000260 98 9d 6f 38 03 e8 7e 38 35 c4 c7 39 13 ba c7 39
       5.712881e-05 6.0774397e-05 0.00038102423 0.00038094874
000270 be 90 7c 38 93 79 80 38 b9 56 cc 39 9b 58 cc 39
       6.0216284e-05 6.1261606e-05 0.00038974526 0.00038975928
000280 2a 63 62 38 43 f3 64 38 d9 33 cf 39 25 34 cf 39
       5.3974953e-05 5.458599e-05 0.00039520746 0.00039520967
000290 00 00 00 00 77 26 01 36 e6 7a 96 36 75 07 83 34
       0.0 1.9244887e-06 4.4846556e-06 2.4406077e-07
0002a0 3f 5c d3 34 fd 15 b6 37 3c 0c b6 37 97 49 54 35
       3.936893e-07 2.170633e-05 2.1701788e-05 7.908324e-07
0002b0 7c d2 5d 35 d6 c1 be 37 bc c4 be 37 aa f4 31 35
       8.263521e-07 2.2740027e-05 2.2741377e-05 6.629367e-07
0002c0 6a 37 38 35 30 ca c2 37 87 ca c2 37 00 00 00 00
       6.862598e-07 2.3220753e-05 2.3220911e-05 0.0
0002d0 07 de 72 34 95 f9 9c 34 cd 32 4c 33 96 88 84 33
       2.261878e-07 2.923886e-07 4.7543654e-08 6.171574e-08
0002e0 27 ca 10 35 44 e0 10 35 0c dc 7e 33 68 a1 89 33
       5.393835e-07 5.397053e-07 5.9339115e-08 6.408919e-08
0002f0 43 f5 16 35 d7 f7 16 35 a1 e0 80 33 2d 16 87 33
       5.623626e-07 5.624001e-07 6.001324e-08 6.290461e-08
000300 5c 85 1a 35 2d 85 1a 35 00 00 00 00 da 5b ca 35
       5.7563534e-07 5.7563267e-07 0.0 1.5076905e-06
000310 8c 74 ee 35 bb 65 43 35 a6 96 59 35 f7 b9 63 36
       1.7766301e-06 7.27912e-07 8.105802e-07 3.3933882e-06
000320 1a b9 63 36 c5 b9 54 35 85 82 5b 35 30 72 75 36
       3.393338e-06 7.9246485e-07 8.177379e-07 3.657431e-06
000330 f0 7a 75 36 5f 03 b8 34 07 c7 c0 34 c5 d7 82 36
       3.6579404e-06 3.4275124e-07 3.5907598e-07 3.899421e-06
000340 61 d8 82 36 00 00 00 00 b7 9f bd 37 15 02 5f 38
       3.8994917e-06 0.0 2.2604929e-05 5.3169282e-05
000350 66 2a c4 36 ae 56 01 37 76 0d 53 39 e7 03 53 39
       5.846191e-06 7.709181e-06 0.00020127543 0.00020123982
000360 29 6e e8 36 da 93 f9 36 45 c8 55 39 bb c9 55 39
       6.926963e-06 7.4379905e-06 0.00020387869 0.00020388413
000370 83 05 93 36 cb 43 9e 36 56 bb 56 39 73 bb 56 39
       4.381583e-06 4.716659e-06 0.00020478418 0.0002047846
000380 00 00 00 00 8e 0d 04 37 64 59 78 37 0c 89 1a 37
       0.0 7.870969e-06 1.4802765e-05 9.211024e-06
000390 45 21 25 37 d6 96 73 38 11 8c 73 38 b6 9b 51 37
       9.842513e-06 5.807619e-05 5.806616e-05 1.2493625e-05
0003a0 37 3a 54 37 2b 85 80 38 10 86 80 38 29 12 2f 37
       1.2649739e-05 6.12832e-05 6.128487e-05 1.0435041e-05
0003b0 e2 b1 30 37 8b 65 81 38 c6 65 81 38 00 00 00 00
       1.0531834e-05 6.170113e-05 6.170156e-05 0.0
0003c0 eb 3a 50 37 22 aa e9 37 94 78 e7 36 86 89 04 37
       1.2411484e-05 2.7854989e-05 6.8983736e-06 7.899833e-06
0003d0 70 b4 f1 38 12 a6 f1 38 2d 77 29 37 dc db 2d 37
       0.000115253846 0.000115227085 1.0100933e-05 1.0362794e-05
0003e0 ca 6a fa 38 02 6e fa 38 b4 c5 1f 37 c6 7c 22 37
       0.0001194082 0.000119414195 9.52317e-06 9.6850035e-06
0003f0 43 d9 fe 38 75 d9 fe 38 00 00 00 00 3a cd b5 38
       0.00012152132 0.00012152168 0.0 8.668979e-05

exp_avg f4 [128]
000000 13 ac a1 bb 50 c9 7b 3b 45 43 0c ba fd 98 c1 ba
       -0.004933843 0.0038419552 -0.00053506 -0.0014770326
000010 d1 23 2d 38 0e 62 2b 39 28 e3 17 ba 1c 03 3f 3a
       4.127977e-05 0.00016344359 -0.0005794042 0.0007286535
000020 8b 82 4e ba 51 d3 93 bb c7 16 8f bb f3 19 12 3a
       -0.0007877729 -0.004511275 -0.004366729 0.0005573325
000030 6a 88 8e 38 69 eb 24 b8 2c 59 18 bb ae d4 b6 ba
       6.796497e-05 -3.931989e-05 -0.002324651 -0.0013948882
000040 21 83 f8 ba 6e 42 87 bb 97 8d 1f 39 3e bf 11 38
       -0.0018959978 -0.004127792 0.00015216168 3.4748802e-05
000050 d6 95 18 b9 a8 37 85 3a 8b a0 b4 b8 f0 9c 97 3a
       -0.00014551668 0.0010163682 -8.612972e-05 0.0011567157
000060 ce 97 22 3a cb b4 60 3b ce f6 9d 3a 80 72 d6 b8
       0.000620243 0.0034287449 0.0012051703 -0.000102256425
000070 91 0f 54 ba 5a 67 a9 3a b6 f0 d6 3a e8 d8 b7 39
       -0.0008089478 0.0012924478 0.0016398642 0.00035066088
000080 cf 61 17 3b d1 dd f0 b9 3c ee 64 3a a9 cb 6e 3a
       0.002309907 -0.00045941633 0.00087330095 0.0009109327
000090 42 72 03 bb 3b e3 8a bb 36 3f 14 3b 2d 6a c0 b8
       -0.0020057117 -0.0042385138 0.0022620684 -9.17505e-05
0000a0 6c 6b 5f 3a bf be aa bb 6e 8d 3d 39 db 3d 09 b9
       0.0008522782 -0.005210727 0.00018077131 -0.00013088381
0000b0 4e 1b fb 39 42 25 a4 ba d4 0e e8 ba 0b a8 13 38
       0.00047894794 -0.0012523311 -0.0017704614 3.5204033e-05
0000c0 b8 a7 08 38 b9 90 dd b9 32 2c 80 bb c5 0a 25 3a
       3.2581127e-05 -0.00042260232 -0.0039115185 0.0006295855
0000d0 e7 57 b0 3a 1f 56 a9 39 93 37 27 39 9d 9a 1c ba
       0.0013453931 0.00032298357 0.00015947064 -0.0005973967
0000e0 87 1e 50 b9 a0 b2 ba ba d6 5d 7e ba 49 c5 ea 38
       -0.00019847798 -0.0014243908 -0.00097033137 0.00011194737
0000f0 4c 0a 87 3a cb 1f 16 3b 62 fe f6 3a 10 7f 84 ba
       0.0010302751 0.0022907134 0.0018844123 -0.0010108668
000100 8d e8 3c bb f9 bf 87 bb 26 51 fe b7 ef df 7a ba
       -0.0028825135 -0.004142758 -3.0316947e-05 -0.0009570112
000110 94 2d 33 ba 8e fb 4a 3b d1 1a c0 bb f0 d0 d3 3a
       -0.00068351 0.0030972692 -0.0058625718 0.0016160291
000120 74 d4 9a 3a d0 ba 50 3b 87 f2 23 3b d2 52 26 3a
       0.0011812584 0.003184963 0.0025016384 0.00063447386
000130 84 a8 e7 3a f2 28 ef b9 bf 72 20 bb 44 8b b7 39
       0.0017674123 -0.0004561614 -0.0024482457 0.0003500824
000140 59 ca 96 b9 f7 e4 30 bb 96 51 9a ba 82 e4 7d bb
       -0.0002876099 -0.0026991942 -0.0011773582 -0.0038740938
000150 a0 b6 1f 3b d8 62 10 ba 36 b4 e6 3a c4 f2 5e 39
       0.0024370328 -0.0005507893 0.0017601314 0.00021262007
000160 5a c8 da b9 e6 be 37 3a 7e e4 52 3b 78 2b 93 3b
       -0.00041729474 0.0007009342 0.003217965 0.004491266
000170 79 a5 90 bb 67 8e 69 3b fc a9 16 3b 1d f7 c3 b9
       -0.004414257 0.0035637857 0.0022989502 -0.00037377412
000180 6a 0c c0 3a 4b 20 de 3a d3 de 02 b9 9f e4 26 3b
       0.0014652137 0.001694688 -0.00012480775 0.0025465859
000190 ab e9 ec ba 43 89 16 3b fb c4 34 ba fe 31 c4 38
       -0.001807501 0.0022969998 -0.00068958075 9.35532e-05
0001a0 a5 41 75 39 65 6d ea ba db 4f b1 ba db 12 f6 3a
       0.00023389475 -0.0017885385 -0.0013527827 0.001877393
0001b0 b3 c0 5a ba 94 84 89 ba 25 b2 88 3a 03 19 dc 3a
       -0.00083447545 -0.0010491782 0.0010429068 0.0016792122
0001c0 e2 36 ac 3a 8e 7e 59 3a e8 5f 4f ba a1 57 6f bb
       0.0013138915 0.0008296751 -0.00079107145 -0.0036520737
0001d0 f3 43 68 39 da cd 65 3a bd 00 03 bb 17 e2 9f ba
       0.00022150557 0.0008766331 -0.0019989454 -0.0012198117
0001e0 a9 31 cb 3a d8 f2 7a bb f3 31 a6 36 4f 3a b6 ba
       0.0015502471 -0.0038291719 4.9530004e-06 -0.0013902875
0001f0 46 e8 85 3b 70 4b 41 bb b6 92 2f 3b e2 b8 0d 3b
       0.004086527 -0.0029494427 0.0026790327 0.0021625091

exp_avg_sq f4 [128]
000000 bf 2f 08 3a 37 b1 82 39 ab 43 8d 37 5b 39 e8 38
       0.0005195103 0.00024927568 1.684002e-05 0.00011073305
000010 c2 9b 16 35 52 4a ef 35 8d 80 c9 36 ef dd c6 36
       5.610601e-07 1.7828518e-06 6.005232e-06 5.9266963e-06
000020 f1 2c a6 37 5d 0c 36 3a ff 99 cf 39 1a e2 c3 37
       1.980967e-05 0.00069445913 0.00039596853 2.3351098e-05
000030 3d a6 1d 35 79 7d 84 36 7b e6 56 39 81 c0 81 38
       5.8728966e-07 3.9485135e-06 0.00020494491 6.187056e-05
000040 a4 29 ff 38 09 c2 26 3a ec c5 8a 35 10 fa 73 35
       0.00012167104 0.0006361311 1.0339404e-06 9.0888443e-07
000050 ef 1b 42 35 e9 0a 98 37 4a 99 5c 34 20 83 67 37
       7.231128e-07 1.8124892e-05 2.0544863e-07 1.3799203e-05
000060 07 a8 f6 36 00 06 a6 39 22 9b 27 38 20 61 2f 35
       7.3509323e-06 0.00031666458 3.996038e-05 6.5333916e-07
000070 34 d4 f2 37 78 70 b6 37 0f fb b6 39 61 b8 34 37
       2.8947463e-05 2.1748463e-05 0.00034900798 1.0771765e-05
000080 27 8f a7 39 cc 33 b7 38 09 d8 7b 37 9d 85 0f 38
       0.0003195938 8.735768e-05 1.5011065e-05 3.4218294e-05
000090 12 a9 18 39 b3 64 37 3a 5a 50 8d 38 5d 55 7f 37
       0.00014558833 0.00069959013 6.7383706e-05 1.521906e-05
0000a0 55 c1 95 37 1d 84 73 3a 15 d3 a3 36 b7 56 23 37
       1.7852211e-05 0.0009289401 4.8823517e-06 9.735747e-06
0000b0 5c 53 1d 39 23 1d 5c 38 9b dd d8 38 62 3c 25 37
       0.0001500374 5.2479223e-05 0.0001034096 9.848825e-06
0000c0 ae b1 50 36 89 3c 86 37 af bc 43 3a 56 5b 18 37
       3.1097838e-06 1.6002234e-05 0.0007466776 9.081172e-06
0000d0 27 5d 82 38 5c 75 04 37 29 62 89 35 85 4e 25 38
       6.216234e-05 7.895138e-06 1.0235864e-06 3.9412193e-05
0000e0 3e eb b4 36 65 76 b7 38 cf 6d 1f 38 76 e3 65 39
       5.391804e-06 8.748173e-05 3.801082e-05 0.00021923878
0000f0 05 f8 7b 38 05 e4 17 39 04 91 a3 38 87 60 09 38
       6.007405e-05 0.00014485426 7.799457e-05 3.2753243e-05
000100 2f a7 8d 39 ae 65 3d 3a fd 08 63 33 d3 3c 58 38
       0.00027018177 0.0007224929 5.286073e-08 5.155506e-05
000110 9d f7 db 37 da 17 50 39 35 ca 93 3a cb 41 4e 38
       2.6222138e-05 0.00019845311 0.0011275472 4.91755e-05
000120 d9 bf ca 37 e0 c6 aa 39 ca 08 72 39 76 b0 94 36
       2.4169613e-05 0.000325731 0.00023082193 4.4312865e-06
000130 73 1d 3d 38 da e8 73 36 80 52 c3 39 f1 f9 fd 36
       4.5088538e-05 3.634536e-06 0.00037254766 7.5690846e-06
000140 36 00 73 35 d9 f5 83 39 f0 9a ed 37 f2 79 0e 3a
       9.052486e-07 0.00025169438 2.832475e-05 0.00054350414
000150 8f a8 30 39 fa 9d bd 37 6f 21 a1 39 67 4b fa 35
       0.00016847461 2.260412e-05 0.00030733223 1.8648396e-06
000160 79 19 ed 35 84 ff fa 37 47 9b 0e 3a 0c 46 f4 39
       1.766529e-06 2.9921306e-05 0.0005440008 0.00046591496
000170 80 1d 41 3a b9 19 e4 39 b7 25 91 39 f3 af 80 36
       0.00073667616 0.00043506714 0.00027684655 3.8351805e-06
000180 9a 93 16 38 a6 d4 1d 39 67 15 0f 37 ab 9f c6 39
       3.590025e-05 0.00015051904 8.528447e-06 0.00037884465
000190 d7 cd f4 38 d5 40 0e 3a 26 a0 c7 37 39 2d d1 38
       0.00011673167 0.0005426531 2.3797224e-05 9.97432e-05
0001a0 07 e8 f8 38 97 2d 0f 39 d5 ea c1 38 b5 97 8b 38
       0.0001186878 0.00013654526 9.246698e-05 6.656294e-05
0001b0 b1 14 be 37 ef 31 aa 37 fa 81 d7 37 03 9f 78 39
       2.26594e-05 2.0288831e-05 2.5690522e-05 0.0002371036
0001c0 79 9e 68 38 78 93 15 38 0e ed 91 38 dd 5e e5 39
       5.54607e-05 3.566171e-05 6.958294e-05 0.00043748962
0001d0 59 27 f6 35 e4 25 63 37 29 f1 8d 39 19 b3 87 38
       1.833988e-06 1.35390765e-05 0.00027073294 6.470661e-05
0001e0 19 69 a4 39 37 90 e9 39 d3 3c 3e 33 41 6c a3 38
       0.0003135882 0.00044548672 4.429314e-08 7.7926095e-05
0001f0 82 c0 e2 39 a1 eb a8 39 66 5c 10 39 0d e3 c5 38
       0.0004324951 0.00032219014 0.00013767331 9.4359835e-05
