results/Try2/jumper.onnx (onnx, 76764 bytes, 5 tensors)

action_model._continuous_distribution.mu.weight f4 [1, 128]
0	0xbce141f0	-0.027497262
1	0xb9d9c9fc	-0.00041539955
2	0xbc977977	-0.018490536
3	0xbd1f9c97	-0.038967695
4	0xbd13646e	-0.03598445
5	0xbd4b3b3e	-0.049617045
6	0x3cd51c9a	0.026014615
7	0xbd2dff87	-0.042480018
8	0xbce256b6	-0.027629238
9	0xbd1bf666	-0.03807678
10	0xbd02b33e	-0.03190922
11	0xbd15c5ef	-0.036565717
12	0x3bc5af42	0.0060328552
13	0xbc187f89	-0.0093077505
14	0x3c67c5d6	0.014146289
15	0x3ccb2a62	0.024800483
16	0xbce37b33	-0.027768707
17	0xbd3dd6d7	-0.046347465
18	0xbcf0b98f	-0.029385356
19	0x3ce174f7	0.027521593
20	0x3d47a267	0.048738863
21	0xbcf3181e	-0.029674586
22	0x3d1fee08	0.039045364
23	0xbc91bab0	-0.017789215
24	0xbd476146	-0.04867675
25	0x3c9146fd	0.017734045
26	0xbccb1a85	-0.024792919
27	0xbcff303f	-0.031150935
28	0x3d2c9b85	0.042140502
29	0xbc789657	-0.015172563
30	0xbd1e5eb1	-0.038664524
31	0x3c9c6356	0.019090336
32	0x3c9e6a2f	0.019337742
33	0xbd2b0ea7	-0.04176202
34	0x3d3b202c	0.04568498
35	0xbc187bf7	-0.009306899
36	0xbcbef7a9	-0.023311453
37	0x3bacffe4	0.005279528
38	0xbc09b7c6	-0.008405631
39	0xbd25828f	-0.040407714
40	0x3cedda19	0.029034661
41	0xbcf68971	-0.030094834
42	0xbd03ddba	-0.032193877
43	0xbcfe7946	-0.031063687
44	0xbcf7f9f5	-0.030270556
45	0xbd1b38e9	-0.03789607
46	0xbc4664cc	-0.012108993
47	0x3d186b31	0.0372116
48	0x3cadd1f3	0.021218276
49	0x3cf0fa70	0.029416293
50	0x3d1a1f65	0.037627596
51	0xbd1fd8a6	-0.03902497
52	0x3ab8ec45	0.00141085
53	0xbd1c064e	-0.03809195
54	0x3c5708a5	0.01312462
55	0xbd0a7a9a	-0.03380833
56	0xbd149860	-0.03627813
57	0x3d6c8515	0.057744104
58	0xbcf15826	-0.029460978
59	0xbd3fa7fc	-0.04679106
60	0xbd4b9482	-0.049702175
61	0xbd613433	-0.05498142
62	0xbd1af5b0	-0.037831962
63	0xbbadc69d	-0.0053032176
64	0xb8434f7d	-4.6565652e-05
65	0x3cfc7f59	0.030822443
66	0xbd25e081	-0.040497307
67	0x3d3e1222	0.04640401
68	0xbca07096	-0.019584935
69	0x3d0b75e1	0.034047965
70	0x3c09de07	0.008414752
71	0xbc16ccbe	-0.009204088
72	0x3d0a59d9	0.03377709
73	0xbc42d056	-0.0118904915
74	0x3d3d11c3	0.046159517
75	0xbd2adaa5	-0.041712422
76	0xbcc82b2e	-0.024434652
77	0xbd0a08e9	-0.033699904
78	0xbd0914af	-0.03346699
79	0x3d5eab78	0.054362744
80	0xbd35b687	-0.044363525
81	0x3d1c95bf	0.038228747
82	0x3d101876	0.035179578
83	0x3d06b35a	0.032885887
84	0x3cdcd075	0.026954869
85	0xbd4ae444	-0.049534097
86	0xbb870186	-0.0041200547
87	0xbd599809	-0.053123508
88	0xbcb39b5e	-0.02192467
89	0x3c49e7a2	0.012323292
90	0x3d091027	0.03346267
91	0xbce18713	-0.027530229
92	0xbd54bb45	-0.051936407
93	0xbd4ee1e4	-0.050508395
94	0x3c039822	0.008031877
95	0xbd3106dd	-0.043219436
96	0x3cca4cdb	0.02469485
97	0xbd2a290c	-0.04154305
98	0x3d1ffa2b	0.03905694
99	0x3cfb8fbc	0.030708186
100	0x3d0a089e	0.033699624
101	0x3b1d9b0c	0.0024048714
102	0xbd444abc	-0.047922835
103	0xbd4b2b89	-0.049602065
104	0x3d7b0088	0.061279804
105	0x3d2636ac	0.040579483
106	0xbd14bd52	-0.036313362
107	0xbd3c44ed	-0.04596417
108	0xbccd81f2	-0.025086377
109	0xbb8ea173	-0.0043527423
110	0x3d104924	0.035226002
111	0xbbb28ca1	-0.005448893
112	0x3d0291ee	0.03187745
113	0x3d7b0d0d	0.061291743
114	0x3d55b864	0.0521778
115	0x3d2e4c44	0.0425532
116	0x3d315fc1	0.04330421
117	0x3bb3b2b4	0.0054839496
118	0x3d38b3fc	0.04509352
119	0xbbaac51b	-0.005211485
120	0x3cadff2b	0.021239838
121	0xbcc0c73a	-0.023532499
122	0xbced807a	-0.028991926
123	0x3c970bb2	0.018438194
124	0xbcb7122f	-0.022347538
125	0x3d503387	0.05083039
126	0x3c7923fa	0.015206331
127	0xbcb91b46	-0.022596013

network_body._body_endoder.seq_layers.0.bias f4 [128]
0	0x3d012c7a	0.031536557
1	0xbcbda578	-0.02315019
2	0xba78e32e	-0.00094943016
3	0xbcba5468	-0.022745326
4	0x3cd1a8f2	0.025593255
5	0x3d20e3d7	0.039279785
6	0xbc16dae8	-0.009207465
7	0x3d1da311	0.03848559
8	0xbcd108e0	-0.025516927
9	0x3c412499	0.011788511
10	0xbc8e31eb	-0.017357787
11	0x3c231398	0.009953402
12	0x3bcb3ada	0.006202084
13	0x3d11d559	0.035603855
14	0x3c28ec03	0.010310176
15	0xbd08b056	-0.033371292
16	0xbbc486dc	-0.005997522
17	0x3c853ecc	0.016265295
18	0xbca4d152	-0.020119343
19	0x3cae525f	0.021279512
20	0xbca04a46	-0.019566666
21	0xbd1b86db	-0.037970405
22	0xbd6edf32	-0.058318324
23	0x3b219f6d	0.0024661676
24	0xbc706013	-0.014671343
25	0xbc222463	-0.009896371
26	0x3c5d34ae	0.013501329
27	0xbc8cfbd4	-0.017209925
28	0xbcf65ecf	-0.030074505
29	0xbcf4d4ff	-0.02988672
30	0xbbc76e69	-0.00608616
31	0xbaff8ef2	-0.0019497557
32	0x3ca99699	0.020701693
33	0x3cb87d57	0.022520704
34	0x3cc66871	0.024219723
35	0x3cef8a66	0.029240798
36	0x3d42382c	0.04741685
37	0x3b7395b2	0.0037168083
38	0xbc856d2f	-0.016287414
39	0xbd0b0ca3	-0.0339476
40	0xbd241df1	-0.040067617
41	0x3d0d942b	0.034565132
42	0x3cbc9d76	0.023024302
43	0xbc98e464	-0.018663593
44	0x3cf4fa4d	0.029904509
45	0x3d9cf1bd	0.076632954
46	0xbd046cb5	-0.032330234
47	0x3d92a181	0.07159711
48	0x3d09c673	0.03363652
49	0xbcb5f109	-0.022209661
50	0x3cbe91db	0.023262909
51	0xbdca8134	-0.09887925
52	0xbd0bf2b4	-0.034167007
53	0x3c275104	0.010212187
54	0x3d31bb80	0.043391705
55	0xbc46cf33	-0.012134361
56	0x3d583b1d	0.05279075
57	0x3ba5a8eb	0.005055537
58	0xbcd5b847	-0.026088847
59	0x3ccf54c6	0.025308978
60	0xbbc61e27	-0.006046075
61	0xbc531d85	-0.012885456
62	0xbcad0715	-0.021121541
63	0xbb740125	-0.0037232128
64	0x3a6ee330	0.0009112833
65	0x3c88e711	0.016711744
66	0x3bc17f40	0.005905062
67	0xbc584298	-0.013199471
68	0xbcbde645	-0.02318109
69	0x3c8a0a42	0.016850594
70	0x3aec0a85	0.0018008506
71	0xbcb5a0b8	-0.022171363
72	0x3b10892d	0.002205442
73	0x3cb312e0	0.021859586
74	0x3c284589	0.010270485
75	0xbd550a01	-0.052011494
76	0xbcd83654	-0.026393093
77	0xbc687d6b	-0.014190058
78	0x3d13bc5a	0.036068298
79	0xbc68b00b	-0.014202128
80	0xbbde027c	-0.0067751985
81	0x3b353a6e	0.0027653235
82	0xbd961952	-0.07329048
83	0x3be82d86	0.007085505
84	0xbbb3cc45	-0.0054869973
85	0xbbc33f43	-0.005958469
86	0x3d0c27e3	0.034217726
87	0xbd3c9fdd	-0.046050895
88	0x3c5e54fb	0.013570066
89	0xbc26524d	-0.010151458
90	0x3cd3e23f	0.025864718
91	0xbd0d4eaa	-0.034498848
92	0x3d61d3b6	0.055133544
93	0x3c0d35f9	0.008618825
94	0xbcfa367c	-0.030543558
95	0xbcab837d	-0.020936722
96	0x3c8fc0c3	0.01754797
97	0xbc41a197	-0.011818311
98	0xbc85a5cc	-0.01631441
99	0x3c7b000e	0.015319837
100	0xbc288e39	-0.010287815
101	0x3c44ae2f	0.012004419
102	0xbc0de5e7	-0.00866077
103	0x39ed87e7	0.00045305418
104	0x3d730615	0.059331972
105	0xbb97c15e	-0.0046312055
106	0xbb90d8d9	-0.0044203815
107	0xbd2cd3f8	-0.042194337
108	0x3d4c0236	0.049806796
109	0x3da496f5	0.08036605
110	0xbda0f7bc	-0.078597516
111	0x3ab97a9e	0.0014150923
112	0x3cabd4f6	0.020975571
113	0xb8ffb4f3	-0.00012193052
114	0xbaf411df	-0.0018621049
115	0x3c658efe	0.014011143
116	0x3d140d15	0.03614529
117	0xbaf0b150	-0.001836339
118	0x3bd9e8c4	0.0066500623
119	0xbce7d462	-0.028299514
120	0xbc120099	-0.008911275
121	0x3cb280d7	0.021789951
122	0x3c456d75	0.012050022
123	0xbc88a878	-0.016681895
124	0xbb3667f8	-0.0027832966
125	0xbc4272c0	-0.011868179
126	0xbc0f2526	-0.008736884
127	0xbcef5073	-0.029213166

network_body._body_endoder.seq_layers.0.weight f4 [128, 15]
0	0xbed536da	-0.4164341
1	0xbd77af22	-0.060469754
2	0xbddbb59f	-0.10728001
3	0xbe986a4a	-0.29768592
4	0x3ef6592f	0.48114917
5	0x3e29c7da	0.16580144
6	0xbea504a2	-0.32230097
7	0xbe8d0995	-0.27546373
8	0xbd6b7c3f	-0.057491537
9	0xbe98f0a4	-0.29871094
10	0xbdece78b	-0.11567601
11	0x3d845c3e	0.06462906
12	0xbdb385fd	-0.087657906
13	0x3de01d94	0.109431416
14	0x3ecc6f57	0.39928696
15	0x3db38f8a	0.08767612
16	0xbd89adfb	-0.06722637
17	0x3d02bc4d	0.03191786
18	0x3ea8d341	0.32973674
19	0x3e650421	0.22364856
20	0x3e5cb439	0.21553124
21	0x3f10b4dc	0.5652597
22	0x3e0610db	0.13092367
23	0xbee0db2e	-0.4391722
24	0x3d59c887	0.053169753
25	0xbcbd187b	-0.023082962
26	0x3ededae2	0.4352637
27	0x3e3b5410	0.18293786
28	0xbe4a5550	-0.19759107
29	0x3ef206c2	0.4727078
30	0xbe57875c	-0.21047729
31	0xbcbc27c4	-0.02296818
32	0xbeab0744	-0.3340398
33	0x3e5586bd	0.2085218
34	0x3e1498a8	0.14511359
35	0x3c925b0a	0.017865676
36	0x3e1e6755	0.15469106
37	0xbd865731	-0.06559599
38	0xbded64ee	-0.115915164
39	0xbe9989a3	-0.2998782
40	0x3dc27b24	0.094961435
41	0xbe63228f	-0.22181152
42	0x3e6c3772	0.23068026
43	0x3e05c5a1	0.1306367
44	0xbe8f8a49	-0.2803519
45	0xbe130bb5	-0.14359935
46	0x3e1492de	0.1450915
47	0x3de06a30	0.10957754
48	0x3e55f77f	0.20895194
49	0xbe0dc1ec	-0.13843507
50	0x3d92dde7	0.07171231
51	0xbd9df8bd	-0.07713459
52	0xbe2d2641	-0.16909124
53	0x3e67eacc	0.22648162
54	0xbed3a6df	-0.4133825
55	0xbe53bb38	-0.20676887
56	0xbf13955e	-0.5764979
57	0x3e91f5ad	0.28507748
58	0x3e3e64eb	0.18593185
59	0x3d0df05f	0.034653064
60	0x3e974766	0.2954666
61	0x3e38c359	0.18043269
62	0xbda0e6e8	-0.07856542
63	0x3ea84107	0.32862112
64	0x3e220f6c	0.15826195
65	0x3df8bd5d	0.12145493
66	0xb9632d73	-0.00021665338
67	0x3ea13039	0.31482103
68	0xbecff1ea	-0.40614253
69	0xbe9d7a34	-0.30757296
70	0xbe877ac7	-0.2646086
71	0x3c1d770a	0.009610901
72	0x3d5e4af3	0.054270696
73	0x3e851d0f	0.25998732
74	0x3d8ac726	0.06776266
75	0x3ecfd944	0.40595448
76	0xbd877f76	-0.06616108
77	0xbe2aa27b	-0.16663544
78	0x3e1995fb	0.1499862
79	0xbe956342	-0.2917729
80	0xbcbd8257	-0.02313344
81	0x3dc37f86	0.095458075
82	0x3cc1ee80	0.023673296
83	0xbcca96dc	-0.024730138
84	0xbed8d876	-0.42352647
85	0x3eacd424	0.337556
86	0xbc58f492	-0.013241904
87	0xbd4c4e0e	-0.049879126
88	0x3d88d156	0.06680553
89	0x3e56794e	0.20944712
90	0x3f0c21c3	0.54739016
91	0xbdfeff94	-0.124510914
92	0xbec5b0bf	-0.3861141
93	0xbd679d23	-0.05654634
94	0xbeba2fbe	-0.3636455
95	0x3e47a491	0.19496371
96	0xbe08f189	-0.13373388
97	0x3d964199	0.073367305
98	0x3e1fff51	0.15624739
99	0x3e098373	0.1342905
100	0x3e0d5994	0.13803703
101	0xbe543114	-0.20721847
102	0x3eeeae52	0.4661737
103	0xbdaeeadb	-0.08540889
104	0x3dfb34e8	0.122659504
105	0xbeb0f00f	-0.3455815
106	0xbe6f3014	-0.23358184
107	0x3e2da34e	0.16956827
108	0xbe10ee52	-0.14153412
109	0xbe4b28d2	-0.1983979
110	0x3db0330c	0.086034864
111	0xbeef069c	-0.4668473
112	0x3e081b8e	0.13291761
113	0x3e24cbb9	0.16093339
114	0x3e717165	0.23578413
115	0x3f366671	0.71250063
116	0x3e921fcb	0.2853988
117	0xbe7dcbc2	-0.24784759
118	0xbf3403bf	-0.70318216
119	0x3e91c249	0.2846854
120	0xbe7edc6c	-0.24888772
121	0xb814a2ab	-3.5437446e-05
122	0x3d83c707	0.06434446
123	0xbd0a3636	-0.033743106
124	0x3c16160b	0.009160529
125	0x3e122149	0.1427051
126	0xbeadf924	-0.33979142
127	0x3e3fb7cc	0.18722457
128	0xbe3516e7	-0.17684518
129	0x3dd2f791	0.10301126
130	0xbe632f9b	-0.22186129
131	0x3ea2d21b	0.31800923
132	0x3e1013c6	0.14070043
133	0xbe4ee787	-0.20205508
134	0x3eb0756b	0.34464583
135	0x3eda2afe	0.42610925
136	0x3e43f634	0.19136888
137	0xbed69dfe	-0.41917413
138	0xbe422740	-0.18960285
139	0x3e69b1f1	0.22821786
140	0x3db57099	0.08859367
141	0xbd559a71	-0.05214924
142	0xbed10eb9	-0.40831545
143	0x3e454094	0.19262916
144	0x3eeb848d	0.45999566
145	0x3bcc5a20	0.0062363297
146	0x3d9bfcbb	0.07616564
147	0xbd0549e1	-0.03254116
148	0xbe600221	-0.21875812
149	0xbd9fe972	-0.07808198
150	0x3e2a710f	0.16644691
151	0xbed5b745	-0.41741386
152	0x3ed0e17c	0.4079703
153	0x3d4b3c1e	0.04961788
154	0x3ea4f4fc	0.32218158
155	0x3efdae8a	0.49547225
156	0xbf76c789	-0.96398216
157	0x3ad4a9cd	0.0016224921
158	0xbea5e144	-0.32398427
159	0xbccc7d97	-0.02496223
160	0x3f12fdc5	0.5741847
161	0xbee88a72	-0.45418125
162	0x3e40aa06	0.18814859
163	0x3da3fbde	0.08007024
164	0x3da0b3c8	0.078467906
165	0x3e65fdb9	0.22460069
166	0xbebcaeaf	-0.36852023
167	0xbec31252	-0.38099915
168	0xbe1c63d8	-0.15272462
169	0x3ecfd8fe	0.4059524
170	0xbf0d19a9	-0.5511728
171	0xbe1cc6c6	-0.15310201
172	0x3e79b47a	0.24385253
173	0x3daaa73d	0.083326794
174	0xbc286922	-0.010278972
175	0xbe2947d0	-0.165313
176	0xbe20e777	-0.15713297
177	0x3df6aa72	0.120442286
178	0xbe1d5013	-0.15362577
179	0x3de0a37a	0.10968681
180	0x3e2291ad	0.15875883
181	0x3d7c2a0e	0.061563544
182	0x3d223ef3	0.039610814
183	0xbcb6acaf	-0.022299139
184	0x3d48e0a7	0.04904237
185	0x3d917c28	0.07103759
186	0xbe700d1a	-0.23442498
187	0x3e8efd73	0.2792774
188	0xbeed9a41	-0.4640675
189	0xbd7068fe	-0.05869388
190	0xbdea38bd	-0.11436603
191	0x3ef9359e	0.4867372
192	0xbed8694f	-0.42267844
193	0xbe881e78	-0.26585746
194	0xbedba9ed	-0.4290308
195	0x3eedec60	0.46469402
196	0x3e0f04d2	0.13966683
197	0x3ec35474	0.3815037
198	0xbc51b2ec	-0.012799006
199	0x3cd115ea	0.025523145
200	0xbecadd15	-0.39621797
201	0x3de348aa	0.11097844
202	0x3e6dc0a4	0.23218018
203	0xbe393685	-0.18087204
204	0xbe9b6a31	-0.30354455
205	0x3e8807aa	0.26568347
206	0xbed1618c	-0.40894735
207	0x3d67e292	0.05661256
208	0xbdbbb30a	-0.09165008
209	0xbe214148	-0.15747559
210	0xbe88d5f2	-0.26725727
211	0x3e62ffd3	0.22167902
212	0xbc194032	-0.009353684
213	0xbe749120	-0.23883486
214	0x3e05d5d1	0.13069846
215	0x3d72eaeb	0.059306066
216	0xbda07872	-0.07835473
217	0xbd08b5b9	-0.03337643
218	0x3e5c8dae	0.21538422
219	0x3e691648	0.22762406
220	0xbe7e3a11	-0.24826838
221	0xbddb40eb	-0.107057415
222	0xbc356d8c	-0.011073481
223	0xbdd582e1	-0.10425354
224	0xbdce93b1	-0.10086764
225	0x3e062df3	0.13103466
226	0x3ec9f420	0.39444065
227	0xbd9f6bb4	-0.077842146
228	0x3e6ff5de	0.23433635
229	0x3e194a45	0.14969738
230	0x3ea04694	0.31303847
231	0xbca7540a	-0.020425815
232	0x3d9e6be0	0.07735419
233	0xbdc77548	-0.097391665
234	0x3e6ca442	0.23109534
235	0xbe88e7e2	-0.26739413
236	0x3eb6da5e	0.35713476
237	0x3d67d522	0.056599744
238	0xbe9f9cf9	-0.31174448
239	0xbe40ee52	-0.18840912
240	0xbc4cc5d1	-0.012498335
241	0xbe6e06ca	-0.23244777
242	0x3e3492fd	0.17634197
243	0xbeeac071	-0.45849946
244	0xbed8c202	-0.42335516
245	0x3eab34a1	0.3343859
246	0xbea7b452	-0.3275476
247	0x3c9dcfc9	0.019264119
248	0x3e7ad8b8	0.24496734
249	0xbf0da6b7	-0.5533251
250	0xbcf2adf4	-0.029623963
251	0x3e3f0ca5	0.18657167
252	0x3f3ed3c6	0.7454189
253	0x3ea1f062	0.3162871
254	0x3ccbc82e	0.024875727
255	0xbd3d31ad	-0.046189953

network_body._body_endoder.seq_layers.2.bias f4 [128]
0	0xbb8c72f8	-0.0042861663
1	0x3b4ace5c	0.0030945754
2	0x3c55e316	0.01305463
3	0x3c189bce	0.0093144905
4	0xbb7c423e	-0.0038491632
5	0x3c1f1aef	0.009711011
6	0x3c1aa489	0.009438642
7	0xbb41e577	-0.0029586235
8	0xbbc7e62b	-0.006100436
9	0xbcc7e37a	-0.024400461
10	0x3ca6de69	0.020369725
11	0xbbc424fb	-0.0059858537
12	0xbac08371	-0.001468761
13	0x3b979958	0.0046264343
14	0xbc484908	-0.012224443
15	0x3b6e856e	0.0036395448
16	0x3bb30bc2	0.005464048
17	0x39707774	0.00022932683
18	0xbbcafaa3	-0.006194429
19	0x3b44278d	0.00299308
20	0x3c933423	0.017969197
21	0xbc81c2d7	-0.015839977
22	0x3c675502	0.014119389
23	0xbbf80c15	-0.0075697997
24	0xbc7990e2	-0.015232297
25	0xbc823f97	-0.015899463
26	0x3bf97eb0	0.0076139793
27	0xbb961e18	-0.004581224
28	0x3cd355d8	0.02579777
29	0x3bd414a6	0.006472188
30	0x3b3a8897	0.0028462762
31	0xbc2dcbe3	-0.010607692
32	0xbca53a57	-0.02016942
33	0xbb9044bf	-0.0044027264
34	0x3cfe0b07	0.031011118
35	0xbb8bdca7	-0.004268247
36	0xbc393cc8	-0.011305995
37	0x3c9b4a78	0.018956408
38	0x3b08b441	0.0020859393
39	0xbb9a8082	-0.0047150264
40	0x3b6e9788	0.0036406238
41	0x3c74d757	0.014943919
42	0xbaaa2fe9	-0.0012984249
43	0x3c0059e2	0.00783393
44	0xbca29fc9	-0.019851582
45	0xbca2e2ac	-0.019883476
46	0x3bd336d3	0.0064457445
47	0x3c98504b	0.018592974
48	0x3bc065e9	0.0058715236
49	0xbc00df0a	-0.007865677
50	0x3c3175c0	0.010831296
51	0xbc47233b	-0.012154396
52	0xbc29ddc3	-0.0103678135
53	0xb7bb0478	-2.2294218e-05
54	0xbc0b9990	-0.008520499
55	0xbd01bd03	-0.031674396
56	0xbc81f673	-0.015864586
57	0x3ce32fc6	0.027732741
58	0x3ac7477a	0.0015203797
59	0xb992bd4d	-0.0002798833
60	0x3b5e67e7	0.0033936442
61	0xbbc51958	-0.006014984
62	0xbd22ff2a	-0.039794125
63	0x3b9cefb6	0.004789318
64	0xbb189d16	-0.002328699
65	0x3c7d5937	0.015463165
66	0x3bd03548	0.006354008
67	0x3cac0c9c	0.021002106
68	0x3c1e797d	0.00967252
69	0x3c711265	0.014713858
70	0xbc31b7f5	-0.010847081
71	0xbb0db2b4	-0.0021621408
72	0x3c93c95b	0.01804035
73	0x3b8d2e7e	0.004308521
74	0x3ca3f0f3	0.020012354
75	0xb9ed2c6a	-0.00045237254
76	0x3b4dc9de	0.003140084
77	0x3c44b63c	0.012006339
78	0xbb630598	-0.0034640785
79	0x3ca4e418	0.020128295
80	0xbc4f8f59	-0.012668454
81	0x3cb7aa21	0.022419991
82	0x3b09f8b4	0.002105278
83	0x3ba7c9e9	0.005120505
84	0x3bf71ddc	0.0075414013
85	0x3b09a5f5	0.002100346
86	0xbb6bf756	-0.0036005578
87	0x3b7134f9	0.0036805256
88	0xbb95fdd5	-0.0045773783
89	0x3c2aec4e	0.010432316
90	0x3b5dd1c9	0.0033846966
91	0xbc8c488e	-0.01712444
92	0xbc419fb0	-0.011817858
93	0x3c7c0cc8	0.015383907
94	0xbb8ff290	-0.0043929294
95	0xbc1395ff	-0.00900793
96	0x3c3af874	0.011411775
97	0x3b510d11	0.0031898657
98	0x3c971097	0.018440528
99	0x3c802a27	0.0156451
100	0x3bef12db	0.007295949
101	0xbbba2167	-0.0056802514
102	0x3bc8368b	0.0061100177
103	0x3c04b335	0.008099367
104	0x3cef2ef5	0.029197196
105	0x3c8abd01	0.016935827
106	0x3bfee028	0.0077781864
107	0xbc40cada	-0.011767114
108	0x3cb1c884	0.021702059
109	0xbafaab13	-0.001912447
110	0x3ac76d0c	0.0015214994
111	0xbca4e8e5	-0.020130584
112	0x3c814250	0.01577869
113	0x3ce58336	0.028016668
114	0x3d2306f7	0.039801564
115	0x3c06421e	0.0081944745
116	0x3cb21d14	0.021742381
117	0x3c58f3bc	0.013241705
118	0x3cd19af8	0.02558659
119	0x3c8b2dcd	0.016989613
120	0x3b164709	0.0022930524
121	0xbb41989b	-0.0029540423
122	0xbbc33c70	-0.0059581324
123	0x3b89c5c5	0.004204484
124	0xbc366dce	-0.011134578
125	0x3cf4f256	0.029900711
126	0xbc1f17dc	-0.009710278
127	0x3c8dc409	0.01730539

network_body._body_endoder.seq_layers.2.weight f4 [128, 128]
0	0x3d12ced7	0.03584179
1	0xbdaa13f5	-0.08304588
2	0xbe216df7	-0.15764605
3	0xbb5a8901	-0.003334582
4	0xbcb3e8a0	-0.02196151
5	0x3c33eaf6	0.010981312
6	0xbe1d2614	-0.15346557
7	0xbe6174ce	-0.22017214
8	0xbd867a2f	-0.065662734
9	0xbd987ce6	-0.074456975
10	0xbe15f4c4	-0.14644152
11	0x3ded966d	0.11600957
12	0xbd82c371	-0.06384934
13	0xbe2b427c	-0.1672458
14	0x3c14bdf1	0.009078489
15	0xbc17ff43	-0.009277168
16	0xb997835e	-0.0002889884
17	0xbe78d46e	-0.24299785
18	0xbd377d95	-0.0447975
19	0xbe0c47bb	-0.13699238
20	0x3dd2be57	0.10290211
21	0xbe0b7cfc	-0.13621897
22	0xbbfae1ed	-0.007656327
23	0xbde0067e	-0.10938738
24	0x3d80c9eb	0.06288513
25	0x3b2fb802	0.0026812558
26	0xbd0a92be	-0.03383135
27	0xbe4bf0e0	-0.19916105
28	0xbe23a845	-0.15982158
29	0xbd346957	-0.044045772
30	0x3d87a48f	0.06623184
31	0xbd3ac11a	-0.045594312
32	0xbd474b96	-0.04865607
33	0x3dbed491	0.093178876
34	0x3d2405d4	0.04004462
35	0x3d807b13	0.062734745
36	0x3d3d4e56	0.046217285
37	0xbe7c8337	-0.2465943
38	0xbc472986	-0.012155896
39	0x3ddd388b	0.108018
40	0xbb12418a	-0.0022316896
41	0xbd749570	-0.059712827
42	0x3dff2f78	0.12460226
43	0x3de9e6b3	0.114209555
44	0x3dd520c9	0.10406644
45	0x3db98ad0	0.090596795
46	0xbdbd5a02	-0.09245683
47	0xbcb2355e	-0.021753963
48	0xbd388d7a	-0.045056798
49	0xbd1a1cbe	-0.037625067
50	0x3d5695f1	0.05238909
51	0x3dfb0acb	0.12257918
52	0x3cee8677	0.029116852
53	0x3de4c390	0.11170113
54	0xbce6adab	-0.028158983
55	0xbac7da8f	-0.0015247631
56	0x3dcfa774	0.10139361
57	0xbe03fbcd	-0.12889023
58	0x3d02ac18	0.031902403
59	0x3e347f19	0.17626609
60	0x3db94a3a	0.09047361
61	0xbd6b0a78	-0.05738303
62	0xbde9c438	-0.11414379
63	0xbddbec5d	-0.10738442
64	0xbd287bd3	-0.041133713
65	0xbba70e1f	-0.005098119
66	0xbdab0c5c	-0.08351967
67	0x3d8a1ba5	0.06743554
68	0xbd889a51	-0.066700585
69	0x3db4de39	0.08831448
70	0x3e26507c	0.1624164
71	0xbe11ca1c	-0.14237255
72	0x3c86aef6	0.01644085
73	0xbd37763b	-0.044790488
74	0x3df1bf32	0.11804046
75	0xbe234e51	-0.15947844
76	0x3dcbc5ba	0.09949823
77	0x3dd92685	0.1060305
78	0x3d064c01	0.032787327
79	0x3d83c3e0	0.064338446
80	0xbdf273b5	-0.118384756
81	0xbc755150	-0.014973
82	0xbbd6150e	-0.0065332716
83	0xbd9bfd0f	-0.076166265
84	0x3b391654	0.0028242068
85	0x3d72d993	0.059289526
86	0x3c1cdafd	0.009573695
87	0x3e045a27	0.12925015
88	0x3e270444	0.16310221
89	0x3c48b16c	0.012249332
90	0x3cd30a0e	0.02576163
91	0xbcc2616b	-0.023728093
92	0xbcd09582	-0.025461916
93	0xbcae02f8	-0.02124165
94	0x3d8a36ba	0.067487195
95	0x3df62e65	0.12020568
96	0x3dabf5da	0.08396502
97	0xbdbf11c0	-0.093295574
98	0xbe20e901	-0.15713884
99	0x3e0df84a	0.13864246
100	0x3e12aeb6	0.1432446
101	0x3de47264	0.11154631
102	0xbc746e0b	-0.014918814
103	0x3d611bad	0.054958034
104	0x3d5a78d3	0.053337883
105	0xbe4d8962	-0.20071939
106	0x3c553753	0.013013679
107	0x3d989156	0.07449596
108	0xbcd1e46a	-0.025621612
109	0xbd354c0d	-0.04426198
110	0xbdd0a56a	-0.101878
111	0x3d9907ec	0.07472214
112	0x3dc464e5	0.095895566
113	0x3d0af99b	0.03392945
114	0xbe419c2f	-0.18907236
115	0x3d8122d9	0.06305475
116	0x3dabf038	0.083954275
117	0x3cca1da2	0.024672333
118	0x3d2660b5	0.04061957
119	0x3ca54348	0.020173684
120	0x3d4ec60a	0.050481834
121	0xbd2318bd	-0.039818514
122	0xbe20a1cf	-0.15686725
123	0xbd6e8b1e	-0.05823814
124	0xbd705c13	-0.05868156
125	0xbe1d9432	-0.15388563
126	0x3dab4489	0.083626814
127	0x3e1541f5	0.14575942
128	0x3d9bb827	0.07603484
129	0x3d138ae3	0.036021125
130	0xbdcd0204	-0.1001015
131	0x3dda4e47	0.106594615
132	0x3ded12ee	0.11575876
133	0x3e457ac7	0.19285117
134	0x3d57a1c3	0.052644502
135	0x3d159748	0.036521226
136	0x3d2b8104	0.041871086
137	0x3dda25c9	0.10651738
138	0xbdbf5d6e	-0.09343992
139	0x3dd7d0d6	0.10537879
140	0x3df16897	0.11787527
141	0xbcde0ee3	-0.027106708
142	0x3e12f110	0.1434977
143	0xbdb4f868	-0.08836442
144	0xbc8ecebd	-0.017432565
145	0xbbd5cf6f	-0.006524972
146	0xbe25b202	-0.16181186
147	0x3d445cae	0.04793995
148	0x3d8e0c00	0.069358826
149	0xbdf1633a	-0.11786504
150	0xbba4a8e4	-0.005025016
151	0x3d72f251	0.059313122
152	0x3d1e8f64	0.038710967
153	0x3e1b0d90	0.15141892
154	0xbbffb01b	-0.007802976
155	0xbaee8356	-0.00181971
156	0x3e034369	0.12818684
157	0xbd28aea2	-0.041182168
158	0x3cf64c71	0.030065747
159	0x3e285703	0.16439442
160	0x3e253498	0.16133344
161	0x3dbe7e76	0.09301464
162	0x3d49cc9e	0.049267404
163	0xbdde0d48	-0.10842377
164	0x3c9d5a83	0.019208198
165	0xbd2c0859	-0.04200015
166	0x3ab8dc4b	0.0014103738
167	0xbddda0c6	-0.10821681
168	0x3e170f93	0.14752035
169	0xbe0236c4	-0.12716204
170	0x3d40769d	0.04698812
171	0xbe0dd69a	-0.13851395
172	0xbb6c87a5	-0.0036091593
173	0x3d550c34	0.05201359
174	0x3c5f795b	0.013639773
175	0xbb5aadbc	-0.0033367714
176	0xbcbe6ac7	-0.023244275
177	0x3c904983	0.017613178
178	0xbdb19e1d	-0.08672736
179	0x3d387f59	0.045043323
180	0xbdab5ad7	-0.08366936
181	0x3d0038e3	0.03130425
182	0x3d90a1eb	0.070621334
183	0x3d6fe629	0.058569107
184	0xbd8aff48	-0.06786972
185	0xbde6ad85	-0.11263565
186	0xbcb91c4f	-0.022596506
187	0xbcb885a2	-0.022524659
188	0xbd42cfc4	-0.047561422
189	0x3e437058	0.19085824
190	0xbd073e8f	-0.033018645
191	0x3dac05b4	0.08399525
192	0x3d8d4abc	0.0689902
193	0x3ce64f11	0.028113874
194	0x3d023af0	0.03179449
195	0x3e3f5421	0.18684436
196	0xbd67b4e0	-0.05656898
197	0x3e30025e	0.17188403
198	0xb703089b	-7.810212e-06
199	0xbdfd5ddd	-0.123714186
200	0xbb8fd581	-0.0043894653
201	0xbe044ee3	-0.12920718
202	0x3d8b2a90	0.067952275
203	0x3c19989f	0.009374767
204	0xbcade194	-0.021225728
205	0x3d025094	0.031815127
206	0x3da7df73	0.081969164
207	0x3b0c7948	0.0021434594
208	0x3e336a90	0.17521119
209	0xbe6473b4	-0.22309762
210	0xbe5508d9	-0.20804156
211	0xbdd2943f	-0.10282182
212	0xbde4fdb0	-0.111811996
213	0x3d08775d	0.03331696
214	0x3dbc9d75	0.0920972
215	0x3cf1ee41	0.029532554
216	0x3d86d774	0.06584063
217	0xbe0bfded	-0.13671084
218	0x39e19da9	0.0004303281
219	0x3e006293	0.12537603
220	0x3dc15935	0.09440843
221	0x3e3241a3	0.17407851
222	0x3da4aaec	0.08040413
223	0x3e064764	0.13113171
224	0xbdff75b5	-0.12473623
225	0x3d23788c	0.039909884
226	0x3e2a90be	0.16656777
227	0x3cd641bb	0.02615439
228	0x3d9e1265	0.07718352
229	0xbe3f52b0	-0.18683887
230	0x3c4fe409	0.012688645
231	0xbd304e2b	-0.043043297
232	0x3e05a212	0.13050106
233	0x3de0e4c2	0.10981132
234	0xbde0f5c2	-0.109843746
235	0x3b8511cc	0.0040609594
236	0x3e1b17c6	0.15145788
237	0xbd2deb29	-0.042460594
238	0x3b7d1ec1	0.0038623067
239	0xbe16d7c4	-0.14730746
240	0xbd70d860	-0.0588001
241	0xbe47b3dc	-0.19502205
242	0x3db50981	0.08839703
243	0xbc935949	-0.01798691
244	0xbd6719f9	-0.056421254
245	0xbd0fceab	-0.035109203
246	0x3e116de2	0.14202073
247	0x3dfca186	0.12335496
248	0xbd35a4e2	-0.044346698
249	0x3d0a1418	0.03371057
250	0x3b99ae01	0.0046899323
251	0x3d465b25	0.048426766
252	0x3d96c672	0.07362069
253	0x3a0c9d87	0.00053640496
254	0x3d60d2a9	0.0548884
255	0x3e34cfa3	0.17657332
