results/Try1/jumper/checkpoint.pt (torch, 465503 bytes, 30 tensors)

network_body._body_endoder.seq_layers.0.weight f4 [128, 15]
00000000: 74d1 08bf 1427 af3d 2137 3d3e edfc 9b3e
00000010: 653e 89bd 230f 733e 78cf edbe dc39 0cbe
00000020: a7e0 7ebd 6035 12be 9fab 9ebd 09fb 79bd
00000030: a129 e83e 9eaa 933e cb8f 593d c6b8 29bd
00000040: ef03 8b3d 4da9 bfbc 3f80 593d d984 60bc
00000050: 9e76 74be df92 b13e a7d6 8abc 39a2 e6bc
00000060: 7dc7 b3be 9edd 31be ba33 15bc f5a8 573c
00000070: eb02 06bf e463 993e cf8e cab9 2835 20bd
00000080: 458c 803e f2b8 1bbe bf57 16bf 5a0d a2bd
00000090: 06cd 973e a52d 85bd 6d4b 36be fe8e 723e
000000a0: f65f f6bc 3a41 a73e 6a8d 8fbd ccaa 8fbd
000000b0: 015f 9f3e 4052 5c3e 440f 41be 2f9e 1fbe
000000c0: 9552 263d 26c0 8cbc b920 883d 01d9 8ebe
000000d0: 74ff 68be 6e60 48be 47e3 9ebd e239 df3d
000000e0: c489 f7be b337 063f 63c2 0dbe 5f2c c03e
000000f0: aae5 98bd 2ea4 30bf 0ded afbd 664d b2be
00000100: 2ab5 a53e a1c0 94be 10ac 2dbc dff9 bc3e
00000110: 865e 173f 9b05 0ebe 5689 8d3d 3745 643b
00000120: c269 4d3e eaa4 343e b96e 2f3e 168e f4bd
00000130: abd4 88be a14c 6fbe 713d ccbe ed73 373d
00000140: f7ee 64be f4df b6bd 5cbf cabd b7c8 7cbe
00000150: 1e27 f0bc e7b6 1ebd 3011 a23e 013e 313f
00000160: 9cd5 f23d 0acc a0be 93d2 db3e 73b5 84bd
00000170: 57ee 653e 0280 5fbc 6e5a d6bc e0fc df3d
00000180: d220 db3d 30da 6fbe cdd0 7a3e fb89 74be
00000190: df1d 8d3e 6f59 593e 84b3 c93c 260f 633c
000001a0: 5f92 233e 28b9 e2bc 0f45 f33c 3737 0b3e
000001b0: adaf bdbd 03cc 33be d420 cc3e 2f01 9cb9
000001c0: 3ac2 e2be 2351 e83e e68a babe c08f 8fbd
000001d0: f4c8 e13e df17 71bd a7ec 8bbe 0085 e5be
000001e0: bbd3 d9bd a5e8 09bf af83 443e e206 173e
000001f0: 9943 6bbb 71ec aebd d7af cd3d 3d55 86be
00000200: 1988 103e db34 8fbe 1256 53be 5cbe 9d3e
00000210: f09a 003e 8c4c 90be 63e3 d0bd fba4 fa3d
00000220: 505a 86bd e4c3 bb3e e32c a93e 5aef 733c
00000230: 3f11 103e b512 6f3e 6bc2 153a d962 5dbe
00000240: 9a40 f93b 9b84 303d 56f0 d6bd 63e6 5a3e
00000250: 348f 423e e204 a53d 595f febd 2105 f43d
00000260: 470b ce3c 5f17 a9bd a563 ca3d 1889 60bd
00000270: e3a0 313e e984 76be 400a 3bbd a6c3 71be
00000280: 4701 d03b aedd 36be b81c b33e 5ea4 dbbe
00000290: e7bb 973d 6a5d 113e b022 f13e e192 533d
000002a0: 230d 27bf 9de5 623e 95ff 623e fa44 c7bc
000002b0: cc55 3b3e c213 07bf e6d3 863d ef88 aebd
000002c0: 3992 d0be 0521 ecbd fa08 5b3d 000f 96be
000002d0: e26c aa3e a0ed 74bd 75ff 823e 9613 35be
000002e0: 8127 26bd 7812 9bbd 3aaf d2bd 680c 5c3c
000002f0: a27d ddbe 49ad 17be a904 f93d 1d09 673e
00000300: a560 a5be 1e54 3f3d 8ffb 283f 7e13 0fbd
00000310: 34df aabd 0bc0 3abe 765d 8ebe b828 00be
00000320: 98a3 bf3e b060 b83e 81d3 8dbc 5ee6 4dbe
00000330: acec 3f3e 0738 8b3e a463 883e 2592 e2b9
00000340: 3d16 b03e 8f7e 16bf 6cd9 bdbe 539a 4d3e
00000350: 52fc 92be 1d35 863e a2e0 003e 5cc2 af3c
00000360: 7d90 dcbd 40a8 7c3e 7de5 003e 1104 a23e
00000370: 6013 08be 0b2c b9bd 21a8 e2bc 3063 b03e
00000380: ccd6 2c3e 0bf2 31bf d47a e2be 1caf 99bc
00000390: c149 fb3b c5b8 df3c 8681 21be 06d6 91be
000003a0: 7e7e a6be 4829 063e cae8 3e3e 4c88 1a3e
000003b0: ef6e 2fbd 44be 14be acb2 793e a052 e73c
000003c0: f043 2b3e ce5e 46bd 488a bdbe b061 343e
000003d0: 71f0 283e 3902 753e a350 6b3e 34a6 853d
000003e0: a857 8cbb 4d97 b33e 4da6 10bf d683 8ebd
000003f0: 1fb3 b1be 144b 383e 89c9 66be aa6f 50be
-0.534446 0.085523754 0.18478061 0.30466405 -0.06701354 0.23736243 -0.4644735 -0.13693947
-0.062225964 -0.14278173 -0.07747578 -0.06103042 0.4534426 0.28841108 0.053115647 -0.04143598
0.0678786 -0.023396159 0.05310082 -0.013703548 -0.23873374 0.34682366 -0.016948057 -0.028153526
-0.35113135 -0.17369696 -0.009106571 0.013162841 -0.523482 0.29959023 -0.00038634843 -0.039113194
0.25107017 -0.1520727 -0.5872764 -0.07912703 0.29648608 -0.06502847 -0.1780221 0.2368736
-0.030075055 0.3266695 -0.070093945 -0.07014999 0.3112717 0.21515751 -0.1885348 -0.15587686
0.0406061 -0.017181467 0.06646866 -0.27899936 -0.22753698 -0.19568035 -0.077581935 0.10899712
-0.48347294 0.5242874 -0.13843684 0.37533852 -0.0746568 -0.6900052 -0.08590136 -0.34824675
0.3236478 -0.29053214 -0.010600105 0.36909387 0.59128606 -0.13869326 0.069109604 0.0034831294
0.20059875 0.17641035 0.17132081 -0.11941163 -0.26724753 -0.23369075 -0.39890626 0.04478829
-0.22356783 -0.089294344 -0.0989978 -0.24685942 -0.029315528 -0.038748648 0.31653738 0.69235235
0.11857149 -0.3140567 0.42934093 -0.06479921 0.224542 -0.013641359 -0.026166167 0.10936904
0.10699619 -0.23423076 0.24493714 -0.2388076 0.27561852 0.21225522 0.024621733 0.013858592
0.15973805 -0.02767618 0.029696016 0.13595282 -0.09262023 -0.17558293 0.39868796 -0.0002975552
-0.44288808 0.45374402 -0.36434096 -0.0700984 0.44098628 -0.058860656 -0.2732899 -0.44828033
-0.106360875 -0.5387061 0.19190858 0.1474872 -0.0035898446 -0.08541191 0.100433044 -0.26236907
0.14114417 -0.27970013 -0.20638302 0.30809295 0.12559104 -0.281834 -0.101996206 0.12238499
-0.065601945 0.3667289 0.33042058 0.014888609 0.14069079 0.2334698 0.00057128695 -0.21619739
0.007606578 0.043095212 -0.10495059 0.21376948 0.1899994 0.08057572 -0.1242053 0.11915041
0.025151862 -0.08256411 0.09882287 -0.054818243 0.1734653 -0.24074139 -0.045664072 -0.2360979
0.0063478085 -0.17858002 0.34982848 -0.4289884 0.074088864 0.14195791 0.47096777 0.051653747
-0.6525442 0.22157903 0.2216781 -0.024324883 0.18294448 -0.52764523 0.06583385 -0.08522212
-0.4073656 -0.115297355 0.053475358 -0.2930832 0.33286196 -0.05979693 0.25585523 -0.17683253
-0.040565018 -0.07571882 -0.10287328 0.013430692 -0.43259913 -0.14812197 0.12159092 0.2256207
-0.32300296 0.04671108 0.6600885 -0.0349307 -0.08343354 -0.18237321 -0.2780568 -0.12515533
0.374295 0.36011267 -0.017312767 -0.2010741 0.18742627 0.27191183 0.2663852 -0.00043214965
0.34391966 -0.58786863 -0.37079942 0.20078401 -0.2870813 0.26212397 0.1258569 0.021454982
-0.107697465 0.24673557 0.12587543 0.31643727 -0.13288641 -0.09041604 -0.02766806 0.34450674
0.16878814 -0.69509953 -0.44234335 -0.018760256 0.0076687043 0.027309785 -0.15772066 -0.284836
-0.3251838 0.13101685 0.1864349 0.15091056 -0.042830404 -0.14525706 0.24384564 0.02823764
0.16725135 -0.048430257 -0.37019563 0.1761539 0.16497971 0.23926629 0.22979979 0.06525841
-0.0042829104 0.3507637 -0.56503755 -0.069587395 -0.3470697 0.1799739 -0.22537817 -0.20355096

network_body._body_endoder.seq_layers.0.bias f4 [128]
00000000: cbd0 e4bb b162 38bc 60a2 063c 0554 27bc
00000010: ce70 be3b a051 053c 02ec d8bb d7ac 34bb
00000020: 37db 073d fd26 7bbb 6c20 c23b 5f22 bcb9
00000030: 2fcf 69b8 24d1 bfbc 9f02 82bb 1a15 983c
00000040: 459c 41bc d044 243c dcec 6fbc fef4 94bc
00000050: 73fb 71bc 1cbf 2fbc e35b 003c 1259 2ebb
00000060: 7d6a 863c 8fd9 383c dda4 b2bb 723c 2dbc
00000070: e2f6 f6bb 4c21 853c 4dd4 173c ef69 283c
00000080: b92b 803c 816b 713b a395 c43b fccf 18bb
00000090: c179 9e3b 10d5 b9bb f860 2bba edd0 dbbc
000000a0: 512f 8ebb d276 413b 7587 a33c fefb cfbb
000000b0: 4eb7 0bbd bb42 a4bc abce e33c 86bd 14bc
000000c0: e73f 23bc 9233 bb3c 23d6 17bd a099 87bb
000000d0: 8657 14bc fb4e 3cbc b22a aebb 9f0b c9bb
000000e0: 2b65 56bc e270 23bb f912 3cb9 2f5d e33b
000000f0: 282e 86bb 79ff bb3b d176 463c d135 ccbc
00000100: 2e97 9dbb 650c 653c 60e2 0d3c bfba f73b
00000110: d15a 8dbb 5641 2c39 ce46 00bb 0939 d4bb
00000120: 2e01 0bbc 8d37 373c f072 803b 3fec 6b3c
00000130: 8e67 40bc 5eb0 ad3c 3cfd 193c 721c c53c
00000140: f42d aebb b522 c0bb 82af 00bd 3292 7f3c
00000150: ff39 91ba 86bb 8ebb 1114 f03b 191c 0ebc
00000160: 01f7 b2ba 91d7 7fbb 8bcf 2e3c 7fee 923c
00000170: d2b4 a83c fb99 913c cd65 02bc e70d b93c
00000180: f75d 31bc c7a4 2cbc 2b53 c5ba 4daa 1bbc
00000190: e584 e839 ec59 1e3c 8536 bd3b 74b9 bbba
000001a0: 6db0 39bc 8673 e03c f37a be3b da04 e73b
000001b0: 639e 893c 8306 12bc 8266 83bb 9c9b 8a38
000001c0: 3d34 0dbc b61c 173c 4a68 bc3b d7fd 5f3b
000001d0: 9168 16bc fa2a cbbb c26c a039 d533 abbb
000001e0: 7c35 7abc 941a be3c cdb6 ad3c 96ae 2bbc
000001f0: 4bb3 7c3b 61a6 01bc 68de b5bb b24e e7bb
-0.006982898 -0.011253999 0.008217424 -0.010212903 0.005811787 0.008137137 -0.006619931 -0.002756884
0.033168044 -0.00383228 0.005924275 -0.00035883763 -5.5744484e-05 -0.023415156 -0.0039675976 0.01856475
-0.011817043 0.010026172 -0.014643874 -0.018183228 -0.014769423 -0.010726716 0.0078344075 -0.0026603383
0.0164082 0.011282339 -0.005451782 -0.010573493 -0.007536755 0.016251229 0.009266925 0.010279163
0.015645849 0.003683776 0.0059992834 -0.0023317328 0.0048362915 -0.005671151 -0.0006537582 -0.026833022
-0.0043391366 0.0029520285 0.019962052 -0.0063471785 -0.03411036 -0.02005135 0.027808508 -0.009078389
-0.009963966 0.02285174 -0.03706945 -0.0041381866 -0.00905407 -0.01149344 -0.0053151483 -0.0061354185
-0.013085644 -0.002493911 -0.00017936145 0.0069385986 -0.0040948577 0.005737242 0.012113289 -0.024928005
-0.004809282 0.013980006 0.008659929 0.0075601037 -0.0043138047 0.00016427538 -0.0019573453 -0.0064765257
-0.008484168 0.011182678 0.0039199516 0.014399587 -0.011743439 0.021202262 0.009398755 0.024061415
-0.0053155366 -0.0058635124 -0.031417377 0.0155988205 -0.0011079906 -0.0043558506 0.007326611 -0.008673691
-0.0013653935 -0.00390384 0.010669599 0.01793599 0.020594034 0.017773619 -0.0079588415 0.022589637
-0.010825626 -0.010537333 -0.0015054693 -0.009501052 0.00044349502 0.009664994 0.0057743215 -0.0014322237
-0.011333567 0.027398836 0.0058129965 0.007050139 0.016799157 -0.008912685 -0.0040100226 6.609337e-05
-0.008618412 0.009223154 0.005749737 0.00341784 -0.009180204 -0.0062001916 0.0003059861 -0.0052246847
-0.015271541 0.023206033 0.02120533 -0.010478636 0.0038559015 -0.007913203 -0.0055501945 -0.0070589418

network_body._body_endoder.seq_layers.2.weight f4 [128, 128]
00000000: 3a22 083e a9ee e4bd 1ca9 db3c fea7 7ebd
00000010: 54b5 d1bd 5c15 bd3d 0dab bfbc b30c a63d
00000020: 7b9d f93d a5a9 80bd df81 da39 7776 21bd
00000030: 9748 603d bfa5 34bc fcf4 28bd d8df 5c3d
00000040: 7941 003d aec9 803b 6e39 dcbd 2b33 92bc
00000050: e1d0 a33c 19db e53d 7492 8bbd 593e 8dbc
00000060: 2e06 9c3d 1166 34bd d347 61bc 8e6c 493d
00000070: a5aa ddbd 76f5 c93d c8a1 9f3c 93e3 03be
00000080: e3f5 68bd 209b 26bd ba00 b43d 0500 f8bd
00000090: ff49 ecbd 69fc a83d 1ebf 37be d7ff 69bd
000000a0: 805f dbbd 6ea3 8e3d d98f 00bd c8f8 14bd
000000b0: 0e24 02bd f121 423d d1ba f6bc 8138 6fbc
000000c0: 26fd 41bd 577d 65bd 8acb 1abe 48a3 f43d
000000d0: f4c6 90bd 3107 423d d663 823a e8d4 ac3d
000000e0: 894e 433d 85f6 ef3d 1a83 2e3b cf39 07bd
000000f0: f2ee 17bd dc2d c13b a00c 12be 2e98 1c3e
00000100: 8040 913c fc17 e93b f358 c33d 0c83 10bd
00000110: 267c a83d d9ec 9d3c 2cd9 b33d 747b 473c
00000120: 2ae2 e5bd 2199 8cbd 20b8 5fbd 4521 443d
00000130: eac6 cfbc 7a13 d83d 9f41 503d f7ba 6d3c
00000140: daf7 c3bc 1689 21be edcf 2bbe 07b4 263a
00000150: c54c 4e3d 76b4 d13c 0cda 8e3e b4c1 3abd
00000160: 1dc2 c13c 876b 44be 3549 70bd 3ff1 23bd
00000170: 08bf c0bb c8df fe3c 9b2e cdbd 9fba c73d
00000180: 66e6 d8bc 0cf1 9abb 6492 10be 178a 64bc
00000190: 2769 5abd 0d6d afbc 79c8 48be bc50 36bd
000001a0: 519d 433c 437e 373d 51d1 0b3b 5191 9fbd
000001b0: 5e8d debc 512d 8cbd db73 d7bc accf 23bd
000001c0: 58f5 6ebc 748f 04bd 0d35 1cbe 53ca 6e3d
000001d0: f3ff 2abc da67 8dbd 3d29 d2bd 0df3 a43d
000001e0: 788d 05bd 08ff 68bd f30e 823d c229 6bbd
000001f0: 0843 f9bd 4cc3 c1bd 23cc 8abd a014 883b
00000200: 5952 463d 3645 183c 9512 67bd 53ad 073e
00000210: a8eb 3abe 7495 3bbb 8b50 26bd a45a 8e3c
00000220: 5752 d93d bac4 55bd 6648 443c 094d ecbc
00000230: 29b2 e43d 7928 313d 2d51 f2bd 6d59 0b3b
00000240: 0266 8ebc 8465 80bd 736b 2bbe 9499 94bd
00000250: fb39 d03d fc00 fd3d 243f d2bd 3658 2b3d
00000260: 6b7b 88bd ab73 07be fec4 333e 509d cfbd
00000270: a587 c4bc af53 64bc c3ca 133e 17a7 c93c
00000280: 6c86 72bd 34f9 d5bc 11e4 81bd 0d0f 2b3e
00000290: a79f 18bc 3435 053e 2e95 ce3d 686d 92bc
000002a0: 56d4 2a3e 8f35 433d 4652 9c3d 9a21 07be
000002b0: b7fe 85bd b29c 423d 2162 e53d cefe 83bd
000002c0: 7560 61bd ac5a 9d3d 43f0 b5bb 3ea9 d3bd
000002d0: 6202 6a3d 82f7 89bc 2c82 c53d 2a9d 89bd
000002e0: 6a7d 20bd eb46 813d 598e 98bd 555c 643e
000002f0: bf46 343d 98a2 17be b4bc 0abd f9de 01bd
00000300: 3b1c e2bd d04b d53d a527 86ba cead ca3d
00000310: 34f1 1a3e 988d c43c c7a3 03be 3b39 be3c
00000320: b8b5 f2bd 45b2 a53d 1cdc 633d 6009 93bc
00000330: 1171 efbd 5a77 dcbc a430 a2bc a307 d3bc
00000340: ec7a 35bd 4ce6 5b3c 96b8 1c3c 2c7d a6bd
00000350: 24c6 ecbd 9c9c fdbc 9acc 703d 2b00 7dbd
00000360: afa5 5c3d fb29 0c3e 895a 1e3e 79ed 0b3e
00000370: 43cc f8bd 7e20 963d 7727 833d 15d0 dc3c
00000380: e72d 68be dc3d 183e cead 8fbb db4e 43bd
00000390: ce7a 233e 2965 0dbd be9e 703e c950 1a3e
000003a0: 7682 023e 6f7f 04be 3c4b b3bd deac 07be
000003b0: 61d3 b5bb a634 4d3c fb1d abbd 38a6 b63c
000003c0: 0d36 cdbb a45e 0b3e 66bf b9bd 831c 5a3d
000003d0: d2b6 df3d 9eea 03bc 2c9b 0e3d a343 9e3c
000003e0: 9563 4f3c ac33 563e 7434 043d c6c6 213e
000003f0: cee9 053e d4f1 a43b 5ffe 5e3b ad64 bf39
0.13294306 -0.11178333 0.026814036 -0.06217193 -0.10239664 0.092325896 -0.023396993 0.08107891
0.1218824 -0.06282357 0.00041676962 -0.039419618 0.054756727 -0.011025845 -0.04124926 0.05392441
0.03131244 0.003930292 -0.10753141 -0.017846664 0.019997062 0.1122343 -0.06815043 -0.017241644
0.07618366 -0.04404265 -0.013750034 0.04917579 -0.108235635 0.09861271 0.019486323 -0.12879781
-0.05687512 -0.040675282 0.08789201 -0.12109379 -0.11537551 0.082512684 -0.17943999 -0.057128754
-0.107115746 0.069647655 -0.031387184 -0.03637007 -0.031772666 0.04739565 -0.030118378 -0.014600874
-0.04736056 -0.056027737 -0.15116706 0.11945206 -0.07069197 0.04737014 0.0009947966 0.08439046
0.04768232 0.11716942 0.0026628436 -0.033014115 -0.03709311 0.0058953594 -0.14262629 0.15292427
0.017730951 0.007113455 0.0953845 -0.035281226 0.082268044 0.019277977 0.087816566 0.01217543
-0.11224778 -0.068651445 -0.054618955 0.04788329 -0.025363404 0.1055059 0.05084383 0.014509908
-0.023921896 -0.1577495 -0.16778536 0.00063592236 0.050366182 0.025598746 0.27900732 -0.045594886
0.02365213 -0.19181643 -0.058663566 -0.040024992 -0.0058821477 0.031112567 -0.10018655 0.09752392
-0.02647705 -0.004728442 -0.14118344 -0.013948939 -0.053322937 -0.021414304 -0.19607724 -0.044510588
0.011939363 0.044798147 0.002133448 -0.07791389 -0.027167019 -0.06844581 -0.026300361 -0.039992973
-0.014584862 -0.03236337 -0.15254612 0.05829842 -0.010437 -0.06904574 -0.10261772 0.08054171
-0.03260562 -0.05688384 0.063505076 -0.05741287 -0.12170988 -0.09461078 -0.06777217 0.0041528493
0.048418377 0.009293845 -0.056414206 0.13249712 -0.18253958 -0.0028623017 -0.040604156 0.017377205
0.10611408 -0.052189566 0.011980152 -0.028845327 0.11166794 0.04325149 -0.11831889 0.0021263019
-0.017382625 -0.062693626 -0.16740207 -0.07255855 0.10167309 0.123537034 -0.10265949 0.04183217
-0.06664165 -0.13227718 0.17555615 -0.10137427 -0.023990462 -0.013935967 0.14432816 0.024615807
-0.059210226 -0.026119806 -0.06342328 0.1670496 -0.009315408 0.13008577 0.100870475 -0.017874435
0.16682562 0.0476585 0.0763288 -0.13196412 -0.065427236 0.047512718 0.11200357 -0.064450845
-0.05502363 0.0768331 -0.005552323 -0.10335015 0.05713118 -0.016841654 0.09643969 -0.0671943
-0.039182104 0.06312355 -0.07449026 0.22300847 0.04401278 -0.14808118 -0.033871368 -0.031706784
-0.11040541 0.10414851 -0.0010235204 0.09896432 0.15131074 0.023993298 -0.12855445 0.023220649
-0.11851066 0.08090643 0.055629835 -0.017948806 -0.116914876 -0.02691238 -0.019798584 -0.025760477
-0.04430668 0.013421606 0.009565493 -0.081293434 -0.1156123 -0.030958466 0.058788873 -0.06176774
0.053868946 0.1368789 0.15464224 0.13664807 -0.12148335 0.07330416 0.06404012 0.02695469
-0.2267376 0.14867347 -0.004384733 -0.047682624 0.15964815 -0.034520302 0.23498055 0.1506988
0.1274508 -0.12939237 -0.08754584 -0.13249537 -0.00554888 0.012524759 -0.08355328 0.022296056
-0.006262547 0.13610321 -0.090697095 0.053249847 0.10923542 -0.008051543 0.034815952 0.019319361
0.01265802 0.20918149 0.032276586 0.15798482 0.1307747 0.005033711 0.0034026129 0.00036505368

network_body._body_endoder.seq_layers.2.bias f4 [128]
00000000: 704f ba3b 1529 473b 79c7 ffb9 3838 cbbb
00000010: 9190 c1bb 07a7 7abc 8237 893c 56ba 1a38
00000020: d066 853c 4230 543c 4934 a8b9 b8ea e23b
00000030: d101 18bc d25a b1ba 79d1 8cbb 995a 103c
00000040: d44c 8bbb 165b 253c d94d d0bb 5179 75ba
00000050: deb6 8739 186f 46bb 7a4b d1bb 7c50 453b
00000060: ab25 f1ba 225a d33a 63f0 91bb e410 953c
00000070: 0c26 10bc 685a 62bb db9e afbb 9bfe 923c
00000080: 13c5 2bbb e8e5 88bc e9a4 97bb 0863 43bb
00000090: 617f dbbb b489 55bb 979d 64bb ca20 a8bb
000000a0: 19c1 7a3c ac23 0fbb 3e22 b2ba 81cf 833b
000000b0: c227 333c 37f9 5b3c 18cf 29bb bb3e 5b3a
000000c0: 0ba5 673b e9a7 143c bc68 eb3b 2c24 043c
000000d0: 4b22 61bb c94c 5dbb 199a f8ba 3a41 06bc
000000e0: 3dc8 9dbc 1569 b13b 041e ef3b 811c 6e3c
000000f0: 0ed6 a9bb 020b 283c f4d3 5cbb 202f 453c
00000100: 92fb d1ba af57 2ebc 6ebb 70bb 3628 a2bb
00000110: 5550 28bc 9ac9 6c3b c3a7 80bb 2246 7ebc
00000120: 1245 abbb 43ca 90bb 82e0 f8bb e54f 8ebc
00000130: 8161 e9b9 d2ca 893b 82af 353b 74c7 a0bb
00000140: a7a1 6bbb 0acb 0f3c d528 8dbc af16 9bbb
00000150: f2ea 8e3b 392f a43b caa1 85bb eed7 103c
00000160: f79b a83c c88f 613b a38d 423c 8c86 4dbb
00000170: 178f a6b9 76fb 5c3c f23a 323b 63bb 543b
00000180: 8b25 86bb 27d1 45bb 3a5f 6a3b 1777 3d3c
00000190: 57db 43bb 19fc 67bb 2dba 77ba 7257 94bb
000001a0: 9f64 ed3b 22ab 28bb af49 8b3a 3c25 6c3b
000001b0: 6909 5fbb 9eb8 be3b a81b 943c cfe5 c6bb
000001c0: 6f73 9b3b b14c e1ba 08a0 6a3b 080a 143b
000001d0: dc84 93bb 3fa0 57bb c09b 26bb d592 9739
000001e0: 17e1 283c cceb 2f3c d00a bdbb 977b 12bc
000001f0: 1740 1ebc 0aae abbb 6011 9fbb 779d 16bc
0.005685739 0.0030389477 -0.0004878601 -0.00620177 -0.0059071262 -0.0152986115 0.016750101 3.689e-05
0.016284376 0.012950959 -0.00032082413 0.0069249533 -0.009277777 -0.0013531095 -0.004297432 0.008810663
-0.004251102 0.010092517 -0.0063569364 -0.0009364086 0.00025885453 -0.003027862 -0.0063871713 0.0030107787
-0.0018398067 0.0016124884 -0.004453705 0.01819653 -0.008798134 -0.003453875 -0.005359513 0.017943671
-0.0026209995 -0.01671119 -0.004627813 -0.0029813666 -0.0066985344 -0.0032583298 -0.003488397 -0.005130862
0.015304827 -0.002184133 -0.0013590527 0.004022539 0.010934772 0.013426117 -0.002591079 0.00083635346
0.0035346176 0.009073236 0.007184116 0.008065265 -0.0034352716 -0.0033767691 -0.0018966823 -0.008194262
-0.01926052 0.005414138 0.0072972793 0.014533163 -0.005182988 0.010256531 -0.003369567 0.012035161
-0.0016020408 -0.010641023 -0.003673281 -0.004948641 -0.010273059 0.0036130906 -0.0039262488 -0.015519651
-0.0052267397 -0.0044186427 -0.007595123 -0.017372081 -0.0004451387 0.0042050863 0.002772302 -0.004906589
-0.0035954507 0.008776436 -0.017231384 -0.0047329287 0.0043615038 0.005010512 -0.0040781246 0.008840544
0.020582182 0.0034417976 0.011874589 -0.0031360714 -0.00031768598 0.013487687 0.0027195779 0.0032460324
-0.004093831 -0.003018448 0.0035762326 0.011564038 -0.0029885375 -0.0035398065 -0.00094500446 -0.004527026
0.007244661 -0.0025736769 0.0010626818 0.0036032936 -0.0034032708 0.005820348 0.018079594 -0.006069876
0.0047439854 -0.0017188994 0.0035800952 0.0022588987 -0.004501922 -0.003290191 -0.0025422424 0.00028910363
0.010307572 0.010737371 -0.005769111 -0.008940599 -0.009658835 -0.005239253 -0.004854366 -0.009192816

action_model._continuous_distribution.mu.weight f4 [1, 128]
00000000: a624 213d b9b1 a5ba fd84 8f3b 00fd bbbc
00000010: 9adf 1cbc a81c 0bbc 52c5 fb3c c797 ec3c
00000020: 5db3 683c 7ad9 6a3c f72f 82bd 816d 933c
00000030: 702a cfbc 3425 b83c 2938 cdbc 1fca 343b
00000040: d96a 8bbc 4da7 be3c 05fe f9bb 1e3d 063c
00000050: 4b6e fabb 3db4 5e3b 0d09 68bc 0b38 bc3c
00000060: ca6c 9f3c 3436 a13c 0a83 08bc f0e8 413b
00000070: 669e 54bc 8a8d cfbc 5cb6 16bb 5790 4b3c
00000080: 98dc 53bc 00e0 15bc b30e 8dbc 9cb5 7b3b
00000090: 5803 02bc 1bae 8cbc 0996 813b e7cc 2bbc
000000a0: 31fc 963c 5c02 10bd 6ae8 a03b af9c 1f3a
000000b0: c06e 3c3d d05d 633d bbd5 1abb 3448 9a3c
000000c0: dbd9 f83c 46f9 9d3c 11a6 a93c 0a61 df3c
000000d0: 601f 4bbc c6f0 47bc 49bb debc 5fa1 9fbb
000000e0: fb10 9739 c65e 033d 02a4 d63c 7adb a33b
000000f0: fc9c b6bc f2be a23c 998f 0dbd 014f 483c
00000100: 6054 2abc a5d2 c0ba 205a b8bc ea59 7cbc
00000110: bb09 9abb b893 683c 7900 e5bc 3023 7abb
00000120: 94ae 88bc 4a1e 9c3b d562 3abb e7d8 a3bb
00000130: 4ea3 fabc bc38 c33c d2ec b43c 5bcc 6dbc
00000140: 18ad c2bc eca1 363c 5ee5 443a 95b8 39bc
00000150: a1df f93c ab99 cd3c e90d 20bc 4bad 163d
00000160: b3d4 433c 5d0f 203c 44cc 8a39 ec87 05bd
00000170: 9de4 993b d1a1 b93b d462 743c 8f50 6f39
00000180: 800f da3b 7766 cfbc 616d a53c 9b24 073d
00000190: e281 9bbc 651e c53a 30a3 0d3c 02d2 babc
000001a0: 2ba1 883c a327 97bc c42f 0b3d 084d 683c
000001b0: e74d e9bc a3fa 043d b6f9 4a3c d078 84bb
000001c0: 09e4 af3c 81bd 5fbc 1354 43bb 26bf 473c
000001d0: 86e3 f4bc 2d83 1abc 4dd8 2bbd b9a7 04ba
000001e0: 8e49 cd3c 2eb3 db3c 847e 80bc 3407 a63a
000001f0: f7be c6bb b7c5 6cbc ad62 63bc 6acb 6dbb
0.03934159 -0.0012641466 0.004379867 -0.022947788 -0.009574795 -0.008490719 0.030733738 0.028880967
0.01420292 0.014334077 -0.06356805 0.017996551 -0.02528879 0.022478677 -0.025051193 0.0027586294
-0.017018722 0.023273135 -0.0076291584 0.008193282 -0.0076425425 0.0033981942 -0.014162314 0.022975942
0.019461054 0.019679166 -0.008332023 0.0029588304 -0.012977218 -0.025336046 -0.0022996878 0.01242455
-0.012931012 -0.009147644 -0.017218923 0.0038407808 -0.0079353675 -0.017172864 0.003954653 -0.010485864
0.018430801 -0.0351585 0.0049105184 0.00060887163 0.046004057 0.05550939 -0.0023625928 0.018833257
0.03037732 0.019283902 0.02070907 0.027267952 -0.012397617 -0.012203401 -0.027188914 -0.004871532
0.00028813616 0.032072805 0.026201252 0.005000529 -0.022291653 0.01986644 -0.034560774 0.012225867
-0.010396093 -0.0014711214 -0.022503912 -0.015402297 -0.004700867 0.014195375 -0.027954327 -0.0038167946
-0.016684808 0.004764353 -0.0028440256 -0.005000222 -0.030595448 0.023830764 0.022085581 -0.014514054
-0.023764178 0.011147004 0.0007510985 -0.011335512 0.030502142 0.025097689 -0.009768941 0.03678636
0.011952567 0.009769288 0.000264736 -0.03260033 0.0046964423 0.005665042 0.014916141 0.00022822827
0.00665468 -0.025317414 0.020193757 0.032993894 -0.018982831 0.0015038966 0.008644864 -0.022805218
0.016678413 -0.018451517 0.0339811 0.014178522 -0.02847953 0.03246559 0.012388637 -0.0040427223
0.02147104 -0.013656021 -0.002980475 0.012191569 -0.029893648 -0.009430689 -0.041954327 -0.0005060393
0.025059488 0.026818838 -0.015685327 0.0012666942 -0.0060652453 -0.014451436 -0.013878507 -0.0036284574

exp_avg f4 [128, 15]
00000000: a302 af37 ee4d 4338 e845 ef38 975e ee38
00000010: 365e 9037 f063 1038 2741 f738 bc4c f538
00000020: c346 e039 1ead e139 2d9b 0739 60be 0639
00000030: a5d2 143a ac9c 143a 0000 0000 d37d 08b6
00000040: 2d96 cbb7 0207 7eb8 6515 7cb8 0e1e 65b8
00000050: b467 72b8 2b65 87b8 b283 85b8 1b7e 00b9
00000060: c759 01b9 2545 89b8 93bd 85b8 82aa 4fb9
00000070: e3e6 4db9 0000 0000 d7c8 08b7 ca18 04b6
00000080: 7c16 1837 5cc6 1a37 faa2 0f37 da5a 3737
00000090: d261 8537 81d8 8237 da66 8c38 d50f 8d38
000000a0: e3a2 b137 4f86 ad37 7ec1 c138 2dbb c038
000000b0: 0000 0000 91d4 1cb7 6d6d b2b7 0c9b 65b8
000000c0: 0e80 63b8 3178 8537 b748 9536 35f6 6cb8
000000d0: 4160 69b8 ce39 87b9 8d43 88b9 5b1b 8fb8
000000e0: be57 8cb8 1528 c6b9 f777 c5b9 0000 0000
000000f0: c0d2 4439 631c 2b3a e07e ce3a 5f17 ce3a
00000100: 8898 8e3a 45b4 973a b632 d13a 577a d03a
00000110: 89ce 333b 7e6e 343b 6c59 d63a eab5 d53a
00000120: ca68 573b 7318 573b 0000 0000 003b 8538
00000130: b128 3039 88e6 c039 773f c039 6b37 3239
00000140: dcc4 5a39 ccae c939 1022 c839 9967 8c3a
00000150: e059 8d3a e651 d839 85f5 d639 0823 bf3a
00000160: 59cd be3a 0000 0000 f678 c5b8 ae11 a8b9
00000170: 10e9 3aba 567a 3aba b029 25ba 870d 29ba
00000180: 2d8d 3bba f3ef 3aba 116c 81ba 22b3 81ba
00000190: 1127 3cba 30ac 3bba b184 93ba 5447 93ba
000001a0: 0000 0000 ee23 2ab8 9a7d 4eb8 a957 75b8
000001b0: f4f1 72b8 268a 30b8 da61 36b8 3ca3 66b8
000001c0: 6e69 64b8 d9bb 9cb8 6646 9db8 e660 57b8
000001d0: 78bb 54b8 faeb d3b8 f093 d2b8 0000 0000
000001e0: b04d 2436 6679 2c38 a0eb e838 a21a e838
000001f0: ee5d c638 f5fa cc38 c17d ed38 f620 ec38
00000200: cd2f 3039 fdaf 3039 e310 ec38 7a62 ea38
00000210: 28f5 5939 8c1f 5939 0000 0000 73e0 ddb8
00000220: d8b0 c3b9 fac8 5fba a06f 5fba b1cc 38ba
00000230: a00d 3fba 08bb 61ba 6d29 61ba b2b2 a3ba
00000240: e843 a4ba c2b4 63ba 5c2c 63ba d287 c3ba
00000250: 6844 c3ba 0000 0000 3b92 4236 2236 83b7
00000260: 6686 75b8 41bf 74b8 c01b ffb7 309e 16b8
00000270: e17c 80b8 8ee9 7eb8 bb58 23b9 34b4 24b9
00000280: 55fb 8cb8 2f59 8bb8 4ba4 73b9 74d4 72b9
00000290: 0000 0000 8a25 60b9 877d 67b9 106d 50b9
000002a0: 287f 4eb9 2f62 81b8 9548 abb8 9da6 48b9
000002b0: f496 46b9 77a8 00ba 44fb 01ba a637 4bb9
000002c0: 8375 47b9 ce84 52ba eb91 51ba 0000 0000
000002d0: 9427 86b7 3ffb 11b8 234b 78b8 16f6 76b8
000002e0: 69c3 7ab8 aef8 80b8 0718 79b8 1e29 77b8
000002f0: 3772 c8b8 d1d7 c9b8 dbbc 80b8 1450 7eb8
00000300: 8a32 16b9 0266 15b9 0000 0000 a26a 9eb6
00000310: f403 32b6 8bd1 5e37 ab42 6437 c606 a037
00000320: 884d 8437 6cf3 3537 8a61 3e37 e64e 72b8
00000330: a320 73b8 ac07 a637 5b48 a537 7ad1 86b8
00000340: da09 87b8 0000 0000 989b f3b8 71b4 92b9
00000350: 1b47 1dba b1e7 1cba dfb5 d7b9 2693 e4b9
00000360: 732e 1eba 78a6 1dba c8c6 81ba d236 82ba
00000370: c5b4 1fba a544 1fba 6095 9aba 915e 9aba
00000380: 0000 0000 1468 5538 713d 7b39 e96c 3f3a
00000390: f8a2 3e3a c9be 8e39 00c9 aa39 98c7 423a
000003a0: ba80 413a e2b9 cd3a b6ab ce3a 7bf8 4a3a
000003b0: c3c8 493a 20e5 023b c69b 023b 0000 0000
000003c0: 897d f4b8 f503 65b9 4cb4 e8b9 0ef6 e7b9
000003d0: 33f0 64b9 ce8c 81b9 5e1c e9b9 ce1a e8b9
000003e0: 1bb0 70ba f04f 71ba e298 edb9 4335 ecb9
000003f0: 5c60 8eba 6008 8eba 0000 0000 77b8 9f37
2.0862853e-05 4.65642e-05 0.00011409429 0.00011366343 1.7210008e-05 3.442535e-05 0.000117900134 0.00011696803
0.0004277733 0.00043044327 0.00012932411 0.00012850156 0.00056771404 0.0005669098 0.0 -2.0338819e-06
-2.4269417e-05 -6.0564846e-05 -6.0101407e-05 -5.4625845e-05 -5.7793877e-05 -6.456146e-05 -6.3664644e-05 -0.00012254009
-0.00012335843 -6.545548e-05 -6.377245e-05 -0.00019804577 -0.00019636335 0.0 -8.152993e-06 -1.9683962e-06
9.065141e-06 9.225299e-06 8.56141e-06 1.0928803e-05 1.5900387e-05 1.5598025e-05 6.694878e-05 6.726353e-05
2.1175894e-05 2.068575e-05 9.238998e-05 9.190138e-05 0.0 -9.347817e-06 -2.1270209e-05 -5.4742253e-05
-5.4240278e-05 1.5910804e-05 4.449011e-06 -5.6496083e-05 -5.5641172e-05 -0.00025792274 -0.0002599027 -6.823867e-05
-6.6920635e-05 -0.00037795366 -0.0003766415 0.0 0.00018770527 0.0006527362 0.0015754364 0.0015723518
0.0010879198 0.001157411 0.0015960548 0.0015905601 0.0027436337 0.0027531679 0.0016353554 0.0016304825
0.0032868856 0.003282097 0.0 6.352924e-05 0.00016799827 0.00036792853 0.0003666838 0.00016996048
0.00020863436 0.0003846794 0.0003817235 0.0010712027 0.0010784231 0.0004125975 0.00041000187 0.0014582584
0.0014557048 0.0 -9.416223e-05 -0.0003205663 -0.0007130066 -0.00071135664 -0.00063004624 -0.0006448854
-0.0007154521 -0.0007131092 -0.0009874125 -0.0009895305 -0.0007177452 -0.0007159142 -0.0011254755 -0.0011236467
0.0 -4.056462e-05 -4.9231203e-05 -5.849419e-05 -5.7922633e-05 -4.209033e-05 -4.3483313e-05 -5.4988297e-05
-5.4457625e-05 -7.473649e-05 -7.499456e-05 -5.135024e-05 -5.0719333e-05 -0.00010105218 -0.00010041136 0.0
2.4483124e-06 4.1121057e-05 0.00011106511 0.00011067583 9.4588715e-05 9.7742224e-05 0.00011324464 0.000112594964
0.00016802475 0.00016850229 0.00011256502 0.00011176332 0.0002078606 0.00020706485 0.0 -0.00010579908
-0.00037325057 -0.0008536723 -0.00085234083 -0.00070495444 -0.0007288102 -0.00086109387 -0.0008589242 -0.0012489168
-0.0012532445 -0.0008686298 -0.0008665973 -0.0014917797 -0.0014897706 0.0 2.899337e-06 -1.5641624e-05
-5.853772e-05 -5.8352252e-05 -3.0411291e-05 -3.591011e-05 -6.126776e-05 -6.0775834e-05 -0.00015577946 -0.0001570739
-6.7225345e-05 -6.644648e-05 -0.0002323549 -0.00023158063 0.0 -0.00021376289 -0.0002207664 -0.00019877055
-0.0001969306 -6.1694875e-05 -8.167435e-05 -0.00019135555 -0.00018938986 -0.0004907916 -0.0004958401 -0.0001938032
-0.00019021895 -0.00080306537 -0.0007994461 0.0 -1.5992475e-05 -3.4804685e-05 -5.9197784e-05 -5.8880156e-05
-5.9786635e-05 -6.149836e-05 -5.9388603e-05 -5.8927682e-05 -9.558017e-05 -9.624626e-05 -6.138693e-05 -6.0632898e-05
-0.00014323942 -0.00014247748 0.0 -4.7211806e-06 -2.6526368e-06 1.3281019e-05 1.3605381e-05 1.907664e-05
1.577173e-05 1.0845117e-05 1.1347593e-05 -5.7770776e-05 -5.796611e-05 1.9792315e-05 1.9703226e-05 -6.428636e-05
-6.4391366e-05 0.0 -0.000116161245 -0.0002798173 -0.000599967 -0.00059854524 -0.000411435 -0.00043597183
-0.0006034143 -0.00060138805 -0.000990116 -0.0009934551 -0.00060923054 -0.00060755975 -0.0011793785 -0.001177745
0.0 5.0880088e-05 0.00023960114 0.00073023007 0.0007272209 0.00027226497 0.00032574683 0.00074302545
0.00073815475 0.0015695656 0.0015767727 0.0007742715 0.00076974573 0.0019972995 0.0019929274 0.0
-0.000116582094 -0.00021840616 -0.0004438482 -0.00044243078 -0.00021833256 -0.00024709705 -0.00044462358 -0.0004427046
-0.0009181515 -0.0009205332 -0.0004531807 -0.0004505311 -0.0010862458 -0.0010836236 0.0 1.9040175e-05

exp_avg_sq f4 [128, 15]
00000000: e221 4a33 41aa 8134 f8d6 d034 2673 d034
00000010: f33e 7f36 70c8 7f36 8d50 f334 9c6d f334
00000020: eb51 a936 374c a936 c556 1135 ae61 1135
00000030: 98d4 b836 86d0 b836 0000 0000 a31e ee2f
00000040: 86c7 3031 8c81 a132 ae46 a132 9802 ea32
00000050: 587f ea32 5e5e dd32 db8d dd32 5980 7733
00000060: ff67 7733 cb23 e932 f566 e932 ba06 5d34
00000070: d2ce 5c34 0000 0000 0476 7232 faf2 a332
00000080: 2181 b132 aabe b232 896f cb33 f165 cb33
00000090: 8618 4d33 1a33 4d33 ff06 0e34 ef0a 0e34
000000a0: 80fc 7133 742f 7233 16a7 1934 85a6 1934
000000b0: 0000 0000 f5b4 e732 bd06 c633 100a 6532
000000c0: ec72 6632 7570 af35 2d68 af35 3b0d 0433
000000d0: 2cb7 0433 7fe3 d035 65d3 d035 acca b833
000000e0: 34fa b833 3dec ff35 93e7 ff35 0000 0000
000000f0: d918 9836 6a83 2337 54a2 5a37 a589 5a37
00000100: 08b7 c738 14d6 c738 b725 8937 fd44 8937
00000110: d554 ef38 dc54 ef38 8da6 9f37 74b0 9f37
00000120: f271 fe38 736b fe38 0000 0000 24be 1d35
00000130: 5949 b035 9e7c f534 9865 f534 62c9 6a37
00000140: 9b6f 6b37 a49e 0b35 4629 0c35 c320 b037
00000150: ce1d b037 5810 9035 5c1b 9035 64c8 d337
00000160: f1bc d337 0000 0000 6dc3 9935 15ec ef35
00000170: 2098 5d36 ac93 5d36 f756 3137 9f69 3137
00000180: 6012 6636 2138 6636 f561 4737 0f63 4737
00000190: 6225 7a36 5f38 7a36 50a0 5037 eb98 5037
000001a0: 0000 0000 ce0a 4234 e73e 8d34 dda4 1334
000001b0: 1d95 1334 55fe dd35 e83d de35 be8d 2d34
000001c0: f59c 2d34 06c3 fc35 a5bf fc35 f014 5234
000001d0: 2c31 5234 e47f 0436 8377 0436 0000 0000
000001e0: d628 cc2f 1527 7732 c8a7 0a34 fe63 0a34
000001f0: 494a 8034 3f61 8034 c55a 2c34 6467 2c34
00000200: 27af ad34 9fa0 ad34 321a 4034 f824 4034
00000210: 5f65 c134 635b c134 0000 0000 5339 1336
00000220: 878d 7036 a04b cc36 6440 cc36 c4fe ce37
00000230: e005 cf37 6615 e836 4738 e836 de2a e437
00000240: f124 e437 0d90 f436 c5a3 f436 73ab f037
00000250: 62a6 f037 0000 0000 86d1 8f32 959b 0133
00000260: 9368 9432 746c 9532 a522 9334 6a43 9334
00000270: 9412 b532 d1b0 b532 2368 b634 8860 b634
00000280: 4583 ed32 95d7 ed32 fc59 f134 b54e f134
00000290: 0000 0000 c4ca 7436 1f4b 9936 41a2 fc33
000002a0: 8c53 0134 300f 9337 0c16 9337 55e3 1834
000002b0: 79e2 1934 0522 9937 4424 9937 a2ee 2134
000002c0: 3790 2234 7030 a537 ee27 a537 0000 0000
000002d0: 8f99 f632 9500 0b33 cf77 9e32 16bb 9e32
000002e0: 8520 ac33 6c41 ac33 75ea b232 1f56 b332
000002f0: ff01 ca33 5d1f ca33 bf6e f232 7bda f232
00000300: 2f3f 5334 872e 5334 0000 0000 5097 0d34
00000310: 2245 5034 dcdd 1334 c0ec 1334 8839 9c35
00000320: b945 9c35 6657 6834 9d72 6834 4a44 c835
00000330: ad43 c835 f3d7 9234 73de 9234 6eed d435
00000340: 79ea d435 0000 0000 db45 5b36 a578 b536
00000350: a4cd 8e36 b1e4 8e36 0086 2c38 7696 2c38
00000360: e13a cd36 9c5e cd36 fc89 3f38 3584 3f38
00000370: 9654 e636 7c65 e636 66e3 4338 58e0 4338
00000380: 0000 0000 e3ac 6734 654a 1336 3658 0336
00000390: 424e 0336 382f 1638 303f 1638 f0c8 0836
000003a0: 010e 0936 ed23 3a38 ff21 3a38 79c5 4c36
000003b0: edcf 4c36 0a5e 4538 0756 4538 0000 0000
000003c0: 55b4 b435 d92b 1e36 bcd3 1d35 b957 1e35
000003d0: d665 9f37 9d75 9f37 b9e9 8335 d20c 8435
000003e0: f645 b537 0244 b537 c1a4 9235 7ab1 9235
000003f0: 5819 b937 a113 b937 0000 0000 d4d2 3033
4.7062606e-08 2.4151998e-07 3.889943e-07 3.88268e-07 3.8034602e-06 3.811463e-06 4.5320886e-07 4.5342028e-07
5.046129e-06 5.045465e-06 5.4142976e-07 5.415885e-07 5.5083765e-06 5.5079026e-06 0.0 4.3313717e-10
2.5724787e-09 1.8801778e-08 1.8775008e-08 2.7242365e-08 2.7299095e-08 2.57707e-08 2.5792295e-08 5.76259e-08
5.7603753e-08 2.7141047e-08 2.717159e-08 2.0584676e-07 2.0564337e-07 0.0 1.4113088e-08 1.908619e-08
2.0664233e-08 2.0808631e-08 9.473212e-08 9.471467e-08 4.7752586e-08 4.777676e-08 1.3227326e-07 1.3228758e-07
5.6341833e-08 5.6388174e-08 1.4310021e-07 1.4309815e-07 0.0 2.6974229e-08 9.221319e-08 1.3331842e-08
1.3413892e-08 1.3071245e-06 1.3068835e-06 3.0745678e-08 3.090024e-08 1.5563418e-06 1.5558732e-06 8.6050335e-08
8.6136794e-08 1.9067735e-06 1.9066377e-06 0.0 4.5328457e-06 9.746154e-06 1.30316075e-05 1.302586e-05
9.523152e-05 9.5289346e-05 1.6349235e-05 1.6363798e-05 0.00011412209 0.000114122144 1.9031833e-05 1.9036444e-05
0.00012132888 0.00012131678 0.0 5.876375e-07 1.3134369e-06 4.5725477e-07 4.5708725e-07 1.3994375e-05
1.4033077e-05 5.201239e-07 5.2214125e-07 2.099609e-05 2.0994714e-05 1.0733593e-06 1.0736799e-06 2.5246474e-05
2.5241143e-05 0.0 1.1456265e-06 1.7875597e-06 3.3020115e-06 3.3017523e-06 1.057027e-05 1.0574614e-05
3.4283366e-06 3.4305342e-06 1.1884132e-05 1.1884388e-05 3.7274663e-06 3.7285715e-06 1.2435092e-05 1.243337e-05
0.0 1.8071589e-07 2.6309064e-07 1.3750419e-07 1.3744689e-07 1.6539803e-06 1.6558306e-06 1.6163446e-07
1.6168981e-07 1.8832222e-06 1.8831239e-06 1.9565391e-07 1.9575663e-07 1.9743975e-06 1.9739098e-06 0.0
3.71364e-10 1.43861785e-08 1.291329e-07 1.2888628e-07 2.3895907e-07 2.3912614e-07 1.605177e-07 1.6056362e-07
3.23512e-07 3.2340628e-07 1.7890923e-07 1.7894843e-07 3.6022809e-07 3.6015544e-07 0.0 2.1938074e-06
3.5845167e-06 6.0884777e-06 6.08717e-06 2.4675748e-05 2.4679059e-05 6.91663e-06 6.9206903e-06 2.719968e-05
2.719692e-05 7.2885364e-06 7.290832e-06 2.8690067e-05 2.8687708e-05 0.0 1.6742671e-08 3.0176654e-08
1.7277022e-08 1.7395202e-08 2.740609e-07 2.7429934e-07 2.1079622e-08 2.115158e-08 3.397591e-07 3.3970377e-07
2.7650126e-08 2.7688467e-08 4.495522e-07 4.4947015e-07 0.0 3.6476858e-06 4.5685006e-06 1.1764178e-07
1.2044455e-07 1.7530838e-05 1.7534032e-05 1.4238806e-07 1.4331626e-07 1.8254863e-05 1.8255909e-05 1.5081108e-07
1.5139891e-07 1.9692088e-05 1.9688126e-05 0.0 2.8708e-08 3.236399e-08 1.8448103e-08 1.8478698e-08
8.0152894e-08 8.021274e-08 2.0828546e-08 2.0877506e-08 9.406721e-08 9.412063e-08 2.822287e-08 2.8271861e-08
1.9673892e-07 1.9667833e-07 0.0 1.3186695e-07 1.939666e-07 1.3771154e-07 1.3776571e-07 1.163965e-06
1.1643198e-06 2.1638479e-07 2.164838e-07 1.4921036e-06 1.4920857e-06 2.7351743e-07 2.7356472e-07 1.5864332e-06
1.5863471e-06 0.0 3.2674204e-06 5.408265e-06 4.2558695e-06 4.258553e-06 4.1132793e-05 4.1148123e-05
6.1163305e-06 6.12049e-06 4.5666457e-05 4.5661076e-05 6.8643812e-06 6.8663485e-06 4.6703404e-05 4.670056e-05
0.0 2.1576447e-07 2.194801e-06 1.9571867e-06 1.9566073e-06 3.5806763e-05 3.5821635e-05 2.038254e-06
2.0422742e-06 4.4379314e-05 4.4377517e-05 3.0513313e-06 3.0519398e-06 4.705604e-05 4.704858e-05 0.0
1.3463529e-06 2.3569357e-06 5.879517e-07 5.898724e-07 1.9001698e-05 1.9009045e-05 9.828283e-07 9.838498e-07
2.160946e-05 2.160855e-05 1.0925797e-06 1.09295e-06 2.206552e-05 2.2062859e-05 0.0 4.116994e-08

exp_avg f4 [128]
00000000: 1610 bc39 c4d6 7a39 991d 11b8 83c2 1ab8
00000010: 33d8 053b 644d 503a 4e6f 2aba 8a57 8938
00000020: 00ec 8c35 4b2d 7eba dd87 02b8 5c47 1039
00000030: bdc9 6538 4412 c0b8 46e1 45ba 7ab7 613a
00000040: 0e35 d4b9 e660 3436 33eb 7439 aa79 d3b9
00000050: 99ff 53ba 3dd4 4439 93aa 13b8 d5c2 7e39
00000060: 1ec1 0fb9 a413 a839 c349 a539 bbf0 9ab9
00000070: e316 3ab9 823e 4ab6 14a6 57b8 fe8a 983a
00000080: 222a b0b8 fd98 0b39 2e5f b339 1905 5c38
00000090: e70c 5bb9 d279 adb9 e83f 9f38 8d90 81b9
000000a0: 1352 7cb8 23d3 4639 9c82 dd37 ee03 23ba
000000b0: 2f25 7ab8 c50b 0ab9 f73d fd38 a9b7 f0b8
000000c0: 18f1 95b9 fb27 82b7 7308 00b8 9fc0 2eb7
000000d0: 190d 1139 4179 e1b8 44df 1939 2a02 eb37
000000e0: 73fd 98b8 4ced e9b9 18d3 aeb9 9ef9 ed38
000000f0: a1b3 18ba edba c639 bc84 2338 e789 4dba
00000100: c00a d3ba 22e2 113a 33f2 ae3a d1d2 0338
00000110: 0243 a939 c11d 7e39 984a a0b9 c7a5 1039
00000120: acc6 e0b8 d3a3 9c39 2128 11b8 bff5 cbb9
00000130: c597 efb9 2afd 3eb9 b6c1 26b9 da35 55b8
00000140: 7a45 d2b8 c29f 70b7 3ef7 01b9 b50b 4c39
00000150: b255 2eba 7e9e 6b3a d018 723a 9a41 a439
00000160: bf04 6f39 e3ae b938 0c06 f639 cae0 0438
00000170: 7052 a3b8 2e4f be38 d445 6db9 fdce 8eb7
00000180: 3e5d eeb8 87f7 3338 6bfe 5ab9 89e2 5039
00000190: d619 0fbb b7b9 c038 4992 c8b9 f2c9 e6ba
000001a0: 1731 8bba 150a 49b9 534d e139 4d52 d136
000001b0: e6f3 bfb8 7a48 0cba af05 ffba 126a 033b
000001c0: 0cf5 e5b9 eac7 823a 8fcf e736 6a2e afb8
000001d0: b974 4639 bee6 1d38 81d0 aab9 f64b 4cba
000001e0: bbeb 16ba 54e9 83b8 284d 2fb6 81e4 75ba
000001f0: 2e12 4439 d593 11b9 2bee 1d39 a8c1 c7b9
0.0003587014 0.00023921864 -3.459826e-05 -3.6897614e-05 0.0020423054 0.00079461024 -0.0006501571 6.5489745e-05
1.0499498e-06 -0.000969608 -3.1120948e-05 0.00013759494 5.4785738e-05 -9.158676e-05 -0.0007548522 0.0008610409
-0.0004047532 2.6878492e-06 0.00023357272 -0.00040335703 -0.0008087098 0.00018771082 -3.520639e-05 0.00024295908
-0.00013709484 0.0003205809 0.0003152621 -0.00029552527 -0.00017746868 -3.013673e-06 -5.1414667e-05 0.0011638103
-8.400182e-05 0.00013313066 0.00034212455 5.2456835e-05 -0.00020890274 -0.00033087895 7.593614e-05 -0.00024712496
-6.015792e-05 0.00018961406 2.6406073e-05 -0.0006218542 -5.9639275e-05 -0.0001316509 0.00012075522 -0.00011478301
-0.00028599123 -1.5515825e-05 -3.0525447e-05 -1.0416056e-05 0.00013833157 -0.00010751421 0.0001467439 2.801519e-05
-7.2951334e-05 -0.00044618023 -0.00033345143 0.000113475355 -0.00058251066 0.00037904773 3.8985847e-05 -0.00078406784
-0.0016101226 0.00055650075 0.0013347327 3.1429172e-05 0.00032284117 0.00024234412 -0.00030573155 0.00013794667
-0.00010718158 0.00029876697 -3.4608067e-05 -0.00038902272 -0.0004569871 -0.00018214123 -0.00015903157 -5.083331e-05
-0.00010026521 -1.4342311e-05 -0.00012394504 0.00019459317 -0.0006650343 0.0008988156 0.0009235265 0.00031329395
0.00022794584 8.8540626e-05 0.00046925282 3.1680604e-05 -7.787801e-05 9.0746544e-05 -0.00022628094 -1.7024106e-05
-0.00011366092 4.2907453e-05 -0.00020884878 0.00019920817 -0.0021835468 9.1898655e-05 -0.00038255964 -0.0017607792
-0.0010619488 -0.0001917261 0.00042972955 6.2382665e-06 -9.153019e-05 -0.0005351376 -0.001945665 0.0020052237
-0.00043860858 0.0009977792 6.9084995e-06 -8.3532956e-05 0.00018926234 3.7646612e-05 -0.00032580274 -0.00077933015
-0.00057571725 -6.2900275e-05 -2.6121943e-06 -0.0009380058 0.00018698789 -0.0001388335 0.00015061411 -0.00038100523

exp_avg_sq f4 [128]
00000000: e5ce ba36 8074 2e35 cde5 3334 955c 1936
00000010: a4b1 0139 8ac3 d537 adec 5637 80d0 0936
00000020: 3d91 0935 5603 f737 c872 ff34 ba1b a937
00000030: 7b1d 9e34 830f d635 2ad9 4638 1c9a 4838
00000040: 937a bd37 b517 2e36 31a2 b734 62b0 ac36
00000050: da3f 8f37 8244 2534 fdc2 a836 8881 0e37
00000060: 2f10 4635 cbc4 a236 0a6a af36 cca1 3137
00000070: fae8 0537 9c83 bf33 0d96 7236 327b b437
00000080: 74dd 3a36 4d4b ca36 5b75 a237 d508 2a35
00000090: 4725 1d36 25bb 8c37 1aa9 c635 6725 3c37
000000a0: c40b 1536 285c 1b36 4cde 1036 60ca b237
000000b0: 4125 a735 6a13 6136 8521 f935 3596 0237
000000c0: a127 e036 47a4 eb33 1f7c c235 7fc6 0535
000000d0: f648 b235 50bd 3236 3516 e135 7a01 7736
000000e0: abc5 1c36 774a 9937 8c0d 8136 8500 4e35
000000f0: 44ec 0338 0a1e 2137 e410 4533 5a78 aa37
00000100: 63e4 a238 b377 af35 e704 5038 4130 ff34
00000110: 723f 1b37 cdb7 2a36 6c37 4237 371d 1236
00000120: 807b 0936 13b6 9736 d619 e436 e390 5c35
00000130: 9cbe 7f37 45d0 c934 b2c8 8835 3f35 a933
00000140: 270a b836 9480 5e37 cdcb b435 9d86 dd35
00000150: 243c 8137 825c f437 2184 4b37 72b3 da35
00000160: 8718 9136 0f24 f035 8414 2d37 c7e3 9535
00000170: 38e5 b434 b771 af34 cba7 5336 3519 9b33
00000180: dd09 7836 0159 6d35 4865 8f36 1cd6 ad35
00000190: 8aa9 3439 4f49 d335 9395 ed36 c968 e138
000001a0: 1208 d237 5759 bb35 b208 a036 2b66 ec34
000001b0: 5f8d 2a33 50ba b436 9c6f cc38 2aff 5238
000001c0: 5b3a 1538 ecc8 a837 c9e3 f434 5a49 9d35
000001d0: cae1 cf35 71f2 ad35 f8e8 8036 fb6d 8f37
000001e0: 5910 2237 380d 4e34 fa42 1a35 6c2f 1d38
000001f0: 18a4 5c35 bc20 3837 f6ec 0736 f111 9d37
5.5673177e-06 6.498958e-07 1.6754275e-07 2.2852666e-06 0.00012368575 2.5482634e-05 1.2810499e-05 2.0535954e-06
5.1247827e-07 2.9446248e-05 4.7580966e-07 2.0159281e-05 2.9451243e-07 1.5948757e-06 4.740913e-05 4.782724e-05
2.2587634e-05 2.594182e-06 3.4204416e-07 5.146533e-06 1.7076662e-05 1.5391745e-07 5.02949e-06 8.494018e-06
7.37843e-07 4.850886e-06 5.227751e-06 1.0587693e-05 7.981662e-06 8.91807e-08 3.6148151e-06 2.151504e-05
2.7845063e-06 6.0288353e-06 1.9366553e-05 6.334279e-07 2.3416521e-06 1.6776447e-05 1.4801365e-06 1.1214382e-05
2.2209579e-06 2.3150442e-06 2.1587066e-06 2.1313492e-05 1.2453312e-06 3.3538913e-06 1.8561701e-06 7.783577e-06
6.6803336e-06 1.0972922e-07 1.449025e-06 4.983521e-07 1.3283268e-06 2.6634261e-06 1.677027e-06 3.6806728e-06
2.336087e-06 1.8273697e-05 3.8460767e-06 7.6741736e-07 3.1452873e-05 9.603342e-06 4.5883e-08 2.0321622e-05
7.767302e-05 1.3073353e-06 4.959563e-05 4.753256e-07 9.253492e-06 2.543896e-06 1.1576205e-05 2.17727e-06
2.0486477e-06 4.521347e-06 6.797937e-06 8.2167224e-07 1.5243564e-05 3.7590704e-07 1.01912e-06 7.879361e-08
5.484809e-06 1.3262168e-05 1.3470359e-06 1.6504961e-06 1.5406004e-05 2.9130144e-05 1.2130507e-05 1.6294491e-06
4.324192e-06 1.7891888e-06 1.031638e-05 1.1167657e-06 3.369439e-07 3.2679029e-07 3.1539118e-06 7.222335e-08
3.696062e-06 8.84189e-07 4.273523e-06 1.2951818e-06 0.00017229296 1.5742061e-06 7.080563e-06 0.00010748354
2.5037709e-05 1.3958587e-06 4.769384e-06 4.4032763e-07 3.9709786e-08 5.3861077e-06 9.748267e-05 5.030554e-05
3.5578716e-05 2.0120722e-05 4.5614277e-07 1.171876e-06 1.5488415e-06 1.2960064e-06 3.8418184e-06 1.7098142e-05
9.659759e-06 1.9190054e-07 5.7466934e-07 3.7475882e-05 8.2195174e-07 1.0974876e-05 2.0254497e-06 1.8724213e-05

exp_avg f4 [128, 128]
00000000: 0ae0 143a 72db e9b9 78c4 c6b7 cc29 bdb8
00000010: 8c55 4a3a d782 c339 2664 c539 d162 28b9
00000020: 1848 4bb9 c1a9 5b3a 449b 96b9 e7b0 c0b9
00000030: fc84 cbb9 d9a0 353a 2b2c 563a b214 a538
00000040: 3dfa fcb7 6092 1eb9 f136 d2b9 ee36 2e3a
00000050: 64b4 7039 93d1 ebb9 db63 bbb9 2907 1839
00000060: 9b6c dbb9 8ed8 5bb9 06c5 493a 7b46 6fb7
00000070: 25f5 3fb9 b9b2 85b9 eea6 a5b9 3b46 4639
00000080: f28e b1b9 eed2 c9b8 91a6 8839 9394 a0b9
00000090: 94bb 1438 a8be 6a3a 9948 ddb9 464d 6eb9
000000a0: 271c 93b9 9286 6c39 c830 84b9 2b6f a63a
000000b0: 6bbd cbb8 2dce eeb7 df68 4b37 1e47 f538
000000c0: d12b 8eb8 e5ac 6fb9 1e55 3939 047b d0b7
000000d0: f2c4 a53a bec1 bb38 7268 8039 77e0 26b8
000000e0: ddca 803a daf1 b03a d5bf 7038 3997 17b8
000000f0: 7373 0838 a6a7 1b38 7b49 f9b9 3af9 6d3a
00000100: 441d 8b3a eb51 d939 3d87 ec39 4047 beb9
00000110: 366c c139 6108 5a39 36b3 c739 e6ed 8039
00000120: d144 1239 97a6 4739 16f8 93b9 46e9 eeb9
00000130: 5bd9 8b39 5d03 bfb9 6518 78b8 f88d ecb9
00000140: 40f1 393a 0fde 96b9 d783 0e39 4977 c1b9
00000150: 9c04 493a d872 733a 2504 ec39 0da5 653a
00000160: 74d1 7b3a a01e 5ab9 baa4 6938 0cac f536
00000170: daf0 8eb9 003c a8b8 20d6 4bb9 3f6e cfb9
00000180: 70ba 3c3a 2d27 acb9 c00c 3339 e74a dfb9
00000190: 4fe7 753a cf82 8f39 4a35 6a39 f9c9 283a
000001a0: 5fdc 523a 8ad5 aeb9 c8dd 1837 9dc4 6e39
000001b0: e024 f2b9 0116 d238 655c 933a 435e d03a
000001c0: 853e 61b8 f0e8 8139 db13 1bb9 a833 a1b9
000001d0: 4d99 5c3a cae1 a239 2bf7 0239 30cc 9539
000001e0: 4e9e 753a c1a7 d9b9 4c8c 84b9 70b1 5d3a
000001f0: 6c9a 0db9 fd79 dc3a 298b e739 14ad 003a
00000200: fd65 7db7 b208 4937 5946 bb35 d1dd 6436
00000210: ffdc a3b7 a348 04b7 bef1 44b7 8301 7336
00000220: ea17 bb36 2ae1 d0b7 a3cc 0337 b7bc 1837
00000230: 2750 2d37 1629 adb7 d101 bdb7 0b53 23b4
00000240: 796a 2234 ac4d a836 f713 3137 caf0 a7b7
00000250: 1ade f0b6 a762 4637 279a 1f37 ea10 a6b6
00000260: b643 3f37 7269 d136 9b9d a6b7 4ed9 5333
00000270: e89c a336 4bd2 0337 6397 1537 f5de a9b6
00000280: 6be6 1037 a479 5436 65b3 8bb6 bd7d 0e37
00000290: cffa 73b5 db35 d6b7 9b4b 3d37 5be4 3b36
000002a0: 668d e536 09b2 dbb6 6ff0 0137 af6c 17b8
000002b0: 9ece e535 1252 cfb5 af61 2535 2071 23b6
000002c0: daf7 adb4 6d5f ce36 e53c 2db6 d8e9 b635
000002d0: ecaf 13b8 07f3 55b6 8a5d 0ab7 b5f7 1236
000002e0: 4a00 dbb7 2f37 26b8 9d22 1fb6 17f5 cdb4
000002f0: d1d5 81b6 ddca e134 150e 5537 f79a e3b7
00000300: fccd 0ab8 b2fb 2cb7 c05b 24b7 93f4 2337
00000310: 90bf dfb6 76e5 b5b6 1a54 40b7 b03d 01b7
00000320: bf6b 61b6 a377 96b6 80ac d336 78eb 4937
00000330: ee89 20b7 00e2 2037 2902 9335 ca39 4f37
00000340: bcd6 b7b7 0991 d336 444c 47b6 1c95 2637
00000350: 3aea bcb7 0e77 ceb7 eab3 2eb7 b4b4 b1b7
00000360: a65d c4b7 5e5d d336 2342 d6b4 7240 7735
00000370: 98b6 ec36 45e7 3f36 6acb 9d36 0853 3437
00000380: 84b0 b8b7 406b 1c37 ed0f d0b6 94ff 3937
00000390: ee2f 02b8 509f ceb6 6487 02b7 1bd3 b5b7
000003a0: 28ab d5b7 2612 2237 c184 53b5 0813 d4b6
000003b0: 33cb 5037 9d35 13b6 d457 10b8 d449 2bb8
000003c0: 5b7b aa35 a1a6 fcb6 bf8a 8036 38b0 0a37
000003d0: 2e80 cfb7 8874 f6b6 f705 a6b6 afb9 1ab7
000003e0: 5d8b e8b7 d5fc 4137 c924 ee36 5562 d5b7
000003f0: 0861 6636 3e89 39b8 3385 65b7 0e95 91b7
0.00056791364 -0.00044604723 -2.3694927e-05 -9.0200076e-05 0.0007718436 0.00037290782 0.00037649384 -0.0001605854
-0.00019386446 0.00083794823 -0.0002872591 -0.00036752896 -0.00038818258 0.000692857 0.00081700337 7.871668e-05
-3.0157267e-05 -0.00015122583 -0.00040095256 0.00066457584 0.00022955384 -0.00044978838 -0.00035741818 0.00014498517
-0.00041851852 -0.0002096614 0.00076969 -1.426192e-05 -0.00018306503 -0.00025500896 -0.00031595625 0.00018908914
-0.00033866573 -9.6237156e-05 0.00026064043 -0.00030628275 3.5460645e-05 0.00089548016 -0.00042206494 -0.00022726235
-0.00028059 0.00022556845 -0.00025213347 0.0012697926 -9.715076e-05 -2.8467819e-05 1.212416e-05 0.00011695757
-6.779249e-05 -0.00022857224 0.00017674683 -2.4852816e-05 0.0012647195 8.952942e-05 0.0002449188 -3.9786533e-05
0.0009826083 0.0013499812 5.7399116e-05 -3.6142043e-05 3.2532447e-05 3.7111015e-05 -0.00047547728 0.000907797
0.001061358 0.000414505 0.00045114188 -0.0003629271 0.00036892452 0.00020793221 0.0003808976 0.0002459131
0.00013949281 0.00019040178 -0.00028222863 -0.000455687 0.00026674088 -0.00036432865 -5.9150527e-05 -0.00045119203
0.0007093139 -0.00028775676 0.0001359129 -0.00036900703 0.00076682284 0.00092868274 0.00045016516 0.0008760251
0.0009606101 -0.00020801509 5.5704942e-05 7.321598e-06 -0.000272638 -8.02204e-05 -0.00019439356 -0.00039564256
0.0007199412 -0.00032835585 0.0001707552 -0.0004258968 0.0009380476 0.00027372545 0.0002233583 0.00064387877
0.0008043702 -0.00033346965 9.1115435e-06 0.00022770693 -0.0004618531 0.00010017679 0.0011242746 0.0015897233
-5.3702406e-05 0.0002477835 -0.00014789349 -0.000307468 0.00084151776 0.00031067274 0.00012489843 0.00028571626
0.00093695975 -0.00041514452 -0.0002528153 0.0008456921 -0.00013504334 0.0016821023 0.00044163436 0.0004908603
-1.5103721e-05 1.1982558e-05 1.395306e-06 3.4103762e-06 -1.9534024e-05 -7.884725e-06 -1.1738795e-05 3.6210702e-06
5.5758182e-06 -2.4900382e-05 7.855854e-06 9.103845e-06 1.03302655e-05 -2.064234e-05 -2.2531402e-05 -1.5210769e-07
1.512616e-07 5.0158324e-06 1.0554671e-05 -2.0020077e-05 -7.1784134e-06 1.1824689e-05 9.51303e-06 -4.9491546e-06
1.1400252e-05 6.240961e-06 -1.9862133e-05 4.9324903e-08 4.876045e-06 7.857171e-06 8.9163395e-06 -5.062548e-06
8.636717e-06 3.1661266e-06 -4.163407e-06 8.493135e-06 -9.088953e-07 -2.5535866e-05 1.1282881e-05 2.7998092e-06
6.8411928e-06 -6.5474346e-06 7.7449795e-06 -3.6102425e-05 1.7121963e-06 -1.5446587e-06 6.160944e-07 -2.435474e-06
-3.2404097e-07 6.1503874e-06 -2.5814454e-06 1.3628114e-06 -3.521137e-05 -3.1880934e-06 -8.24722e-06 2.189988e-06
-2.6106969e-05 -3.9628878e-05 -2.3712994e-06 -3.8362552e-07 -3.869391e-06 4.2057118e-07 1.2699068e-05 -2.713267e-05
-3.30936e-05 -1.0310601e-05 -9.796524e-06 9.7725015e-06 -6.6682187e-06 -5.420933e-06 -1.1463673e-05 -7.703362e-06
-3.359033e-06 -4.484276e-06 6.3083717e-06 1.2035358e-05 -9.568857e-06 9.589363e-06 1.0952982e-06 1.23516165e-05
-2.1915293e-05 6.3051743e-06 -2.9697703e-06 9.929088e-06 -2.2520417e-05 -2.4612553e-05 -1.0413098e-05 -2.118419e-05
-2.340863e-05 6.2991594e-06 -3.9908727e-07 9.210845e-07 7.054605e-06 2.8595834e-06 4.702645e-06 1.0748168e-05
-2.2016706e-05 9.323296e-06 -6.200737e-06 1.1086366e-05 -3.1039053e-05 -6.157825e-06 -7.780127e-06 -2.1675185e-05
-2.547128e-05 9.660178e-06 -7.879681e-07 -6.320308e-06 1.2445077e-05 -2.1935914e-06 -3.441407e-05 -4.0838335e-05
1.2701888e-06 -7.5295834e-06 3.8308494e-06 8.26647e-06 -2.4736011e-05 -7.3449373e-06 -4.94788e-06 -9.222348e-06
-2.7721451e-05 1.15625635e-05 7.097235e-06 -2.5437368e-05 3.432915e-06 -4.4235254e-05 -1.36804765e-05 -1.7354756e-05
