results/Try5/jumper/jumper-100250.onnx (onnx, 76764 bytes, 5 tensors)

action_model._continuous_distribution.mu.weight f4 [1, 128]
000000 86 e4 11 3b c7 7b 8a bc bf 72 d6 bc b5 eb 0a bd
       0.0022261455 -0.016904725 -0.026177762 -0.033916194
000010 53 f0 f7 bc 0f c7 12 bd 7f 62 52 3b 2a 04 d0 bc
       -0.030265963 -0.03583437 0.0032102165 -0.02539261
000020 cd d3 3e bd 5d a7 1d bd ec 10 fa bc 54 e1 5c bd
       -0.046588708 -0.03848969 -0.030525647 -0.053925827
000030 12 4e 7f 3c d7 c2 d7 ba 29 0d 6d bc b6 9e 3c 3a
       0.015582578 -0.0016461265 -0.01446847 0.00071952806
000040 67 cf b8 bc b0 f2 73 bd 8c 25 13 bd 22 7b eb bb
       -0.022559835 -0.059557617 -0.03592448 -0.0071863094
000050 a7 85 85 3d 02 25 52 bd 59 59 b1 3c f4 6c 0f bc
       0.06519633 -0.051304825 0.02164905 -0.008754004
000060 6f d6 43 bd 44 d7 78 bc 6b ae 06 3d 93 13 5d bc
       -0.04781192 -0.015188042 0.03288118 -0.013493436
000070 cd f6 62 3d 60 ff 66 3b 0c d7 a0 bc 5a 92 ef 3b
       0.05541115 0.003524743 -0.019633792 0.0073111476
000080 0d dc 6c bc 88 eb 47 bd cf 2e 84 3d 83 38 a6 bb
       -0.014456761 -0.048808604 0.064542405 -0.0050726547
000090 2b 8d 9a 3c 49 4f 7b bc 25 df 97 3b f7 5c 2b bd
       0.018866142 -0.015338727 0.004634755 -0.041836705
0000a0 f3 e0 f4 3c 93 eb 09 bd d6 ec ee bc f7 8e f4 3c
       0.02989242 -0.033671927 -0.029165667 0.029853327
0000b0 eb c6 22 bc fa fc 13 bd c4 a7 ce bb 80 80 1b 3d
       -0.009935121 -0.03612993 -0.0063066203 0.037964344
0000c0 4c 57 23 3c 40 8c ab 3b 50 3c 11 3c 1f e1 65 bd
       0.009969544 0.005235225 0.008864477 -0.056122895
0000d0 0a 9c 72 bc 87 08 c1 bc 78 cd 14 bc 61 bc 21 bd
       -0.01480771 -0.023563636 -0.009082191 -0.039486293
0000e0 1b 1c c3 bc d2 8d 8a 3d 5b 74 7f bd de e4 71 bd
       -0.023817113 0.06765331 -0.062366825 -0.059056155
0000f0 e0 5b a1 bd 69 c8 ac bd a5 3b 3e bd fd e4 c9 bb
       -0.07878852 -0.08436663 -0.0464436 -0.0061613307
000100 d5 53 1b 3c 49 3f cb 39 50 0b 33 bd bb d7 41 3d
       0.009480436 0.00038766328 -0.04371196 0.047324877
000110 84 b7 5d 3c c5 a0 cf 3c f4 d4 7a bc 38 94 80 3b
       0.013532523 0.025345216 -0.015309561 0.003923919
000120 b1 19 14 3d 77 21 53 bc f1 ba 79 3d 55 77 8e bc
       0.036157314 -0.012886397 0.060969297 -0.017390886
000130 0d d1 da 3c 19 06 fe 38 0e 48 05 bd 8d f0 97 3d
       0.026711011 0.000121127996 -0.03253942 0.07418928
000140 46 2e 85 bd d7 63 5c 3d a1 42 11 3d 39 e8 69 3c
       -0.065029666 0.053806152 0.035463933 0.014276558
000150 bc 11 9d 3c 3f b7 bb bd 23 7f f2 3c 11 2e 66 bd
       0.019173495 -0.09165811 0.02960164 -0.056196276
000160 3c 9d 82 3b 09 23 e9 3c ff 9a fd 3c 1a 26 24 bd
       0.003986029 0.028459089 0.030957697 -0.0400754
000170 0a b1 87 bd 1f df 35 bd 2c ec 22 bb 17 cb 54 bd
       -0.066255644 -0.044402238 -0.0024860008 -0.051951494
000180 2e 25 fc 3c 90 be 41 bd 35 9c 30 3d 87 ef e5 bb
       0.030779447 -0.047300875 0.04311772 -0.0070170793
000190 09 7c f9 3c c5 3b 85 bc 5d 78 8a bd 45 f1 31 bd
       0.030454652 -0.016263852 -0.06761239 -0.043442983
0001a0 fe c6 a5 3d 06 9f 43 3d 65 48 f2 bc d2 b7 9b bd
       0.080945954 0.04775908 -0.029575536 -0.0760342
0001b0 57 e7 81 3c 8f 89 5b bc 61 d7 ac 3c a7 e8 c6 bc
       0.015857382 -0.013399496 0.021098794 -0.02428086
0001c0 29 b6 0d 3b 60 02 91 3d 1a 87 86 3d 32 99 4e 3d
       0.0021623468 0.07080531 0.06568737 0.050439067
0001d0 30 7a 41 3d 34 21 aa bb 7f 6c 4b 3d 1c 54 10 3d
       0.047235668 -0.0051919464 0.049664017 0.035236463
0001e0 17 c1 b1 3b d2 63 4a 3c 3f d4 32 bd db cd e6 bb
       0.0054246294 0.012352901 -0.043659445 -0.007043583
0001f0 2d 37 10 3d 28 80 5d 3d 35 c5 61 bc 7f 15 8e 3c
       0.03520887 0.054077297 -0.013779928 0.017344235

network_body._body_endoder.seq_layers.0.bias f4 [128]
000000 31 cf 7d 3d 58 e1 0f bd 23 7c 3e 3c 1d 40 8e bc
       0.06196517 -0.035127014 0.011626276 -0.017364556
000010 71 31 c8 3c 41 e0 af 3d 7a fa c3 bd d7 b9 04 3d
       0.024437638 0.08587695 -0.09569259 0.032403793
000020 fc 29 6f bc 4c cd e1 3b b7 cb f4 bb 75 9e ef 3c
       -0.014597412 0.0068909284 -0.0074705738 0.029250363
000030 5c 9a f1 3c 7b b1 4f 3d f3 01 30 3c a2 40 92 bd
       0.02949255 0.050706368 0.010742652 -0.07141234
000040 ad 3d 94 bc bc 0c f4 3c 19 62 aa bc 05 c2 72 3d
       -0.018095816 0.029791228 -0.02079873 0.059267063
000050 e5 b8 b8 bd f5 ad 43 bd 8d 1e 1e be 07 b2 d9 bc
       -0.09019641 -0.04777332 -0.15441342 -0.026574148
000060 fb de bd bb f4 76 64 bc be 9a e9 3c f5 3d ac bd
       -0.0057944036 -0.013944376 0.02851617 -0.08410255
000070 2e d1 5f bd dc c4 10 bd 86 f8 00 bd a6 18 e7 3c
       -0.05464285 -0.03534399 -0.03148701 0.028209995
000080 f9 f3 31 3b 69 11 52 3b ab 9e fa 3c be c6 1b 3c
       0.0027153476 0.0032053834 0.030593237 0.009507833
000090 9b 20 90 3d 83 4f c2 3b 28 13 0f bd 7f ed c9 bd
       0.07037469 0.0059298887 -0.03493038 -0.09859752
0000a0 a1 57 1d bd 85 4f 81 3d af d1 bb 3b 08 bc a7 bc
       -0.038413648 0.06313995 0.0057317833 -0.020475402
0000b0 59 0c 42 bb c6 67 77 3d f7 01 70 bd cb be 86 3d
       -0.002960941 0.0604017 -0.058595624 0.065793596
0000c0 e0 71 8b 3d 6d 50 b8 3a 87 88 3c 3d 52 a1 d2 bd
       0.06808829 0.0014062055 0.04602864 -0.10284676
0000d0 ac 96 10 bd ea f4 ba bc 32 99 46 3d 33 a3 a0 bc
       -0.035299942 -0.022821862 0.048485942 -0.01960907
0000e0 7e 11 08 3d bd 1c 77 3b c7 f2 90 bd 5d c1 c3 39
       0.033219807 0.0037706338 -0.07077556 0.00037337365
0000f0 0b 3b 1d bd fe 60 14 bd 8d c3 5a bd 18 4f 3b bc
       -0.038386386 -0.03622531 -0.053409148 -0.011432432
000100 2e 82 3c bb b1 0a 81 3c 97 ea 12 be db 42 45 bd
       -0.0028764117 0.015752168 -0.14347301 -0.04815946
000110 09 df 23 bc 04 ca 82 3c db c5 8f 3b 71 97 ac bc
       -0.010001906 0.01596547 0.0043876 -0.021068307
000120 63 69 4d 3b 39 aa 08 3c 5a c0 dc bb 1e b0 ca bd
       0.0031343333 0.0083413655 -0.0067367973 -0.09896873
000130 2e 6f fe bb 3e 0a 27 bd e2 91 5b 3d ca 32 ab bd
       -0.0077647185 -0.040781252 0.05360592 -0.083592966
000140 ee ac 88 3d 83 84 e6 3c 1e 79 07 be 82 da 85 bb
       0.06673609 0.028139358 -0.13229796 -0.004084886
000150 9f b0 b1 bc 07 7e ce bc b8 e3 65 3b a0 ad 55 bd
       -0.021690665 -0.025206579 0.0035078358 -0.052167535
000160 a9 a3 63 bd 20 d5 0a bd ea a1 1a 3c 29 fd 79 bd
       -0.055576 -0.033894658 0.009438017 -0.061032448
000170 ed 05 a4 3d cf 27 39 bc d0 9e 7f bd ca 7f 97 bd
       0.08008943 -0.011300995 -0.062407315 -0.07397421
000180 d6 1d b9 3c 3f 50 2c bd 34 2b cb ba 47 65 b0 ba
       0.022597235 -0.042068716 -0.0015500546 -0.0013457917
000190 75 81 07 bd 29 dd cf bb 11 99 ab bd a4 22 ab bc
       -0.033082444 -0.006343503 -0.083788045 -0.020890541
0001a0 50 fa 17 3d 78 62 1f bd 5d f3 36 bd ea dc 97 bd
       0.03710395 -0.038912266 -0.044665683 -0.07415183
0001b0 29 b1 c6 3d 72 6b ce 3d e8 26 e1 bd c3 2d 04 bd
       0.09701759 0.10079087 -0.10993749 -0.032270204
0001c0 d1 04 33 ba 24 15 b1 3b 31 3c 63 bc b8 d4 81 3c
       -0.0006829026 0.0054041315 -0.013869331 0.015848503
0001d0 47 07 1e 3d da 48 a8 3b e3 12 af 3c b8 6a 04 bd
       0.03858116 0.0051356377 0.02137131 -0.032328337
0001e0 3b 5b ee bc 10 54 1d 3d de 3c 1c be 34 bd 72 bc
       -0.029096236 0.038410246 -0.15257594 -0.014815617
0001f0 b5 4d a9 bb 5b bf 9e bb d3 54 2c bc 96 53 2c bd
       -0.005166734 -0.0048445887 -0.010518271 -0.0420719

network_body._body_endoder.seq_layers.0.weight f4 [128, 15]
000000 c2 fa d4 be 3b 60 2c bb 5a f1 52 bd 05 41 95 be
       -0.41597563 -0.0026302475 -0.051499702 -0.29151168
000010 8c eb fa 3e d9 f2 2f 3e 51 a1 a7 be 00 48 97 be
       0.49007833 0.17182483 -0.32740262 -0.2954712
000020 b1 1d 49 bd 6e 85 94 be 9b 14 b7 bd 3c 52 a0 3d
       -0.04910058 -0.2900805 -0.08939477 0.07828185
000030 1f 77 9e bd 43 50 f5 3d 57 6f cc 3e 17 f1 b3 3d
       -0.07737564 0.11978199 0.39928696 0.087862186
000040 8d 0a bf bd 84 f4 12 3d 0f 28 ad 3e e2 24 5d 3e
       -0.09328184 0.03587772 0.33819625 0.21596101
000050 e8 eb 57 3e 9c 45 1a 3f d3 9c 24 3e 68 82 e1 be
       0.21086085 0.60262465 0.16075449 -0.44044805
000060 63 3f 54 3d 04 2b 02 3d 99 d0 f7 3e 02 a5 34 3e
       0.051818263 0.031779304 0.48401335 0.1764107
000070 14 0a 51 be c2 06 f2 3e e0 50 4a be a8 18 20 3d
       -0.20414001 0.4727078 -0.19757414 0.039086014
000080 16 a0 b1 be 88 02 4f 3e 85 91 14 3e a4 04 48 3c
       -0.34692448 0.2021581 0.14508636 0.012208138
000090 73 62 54 3e f3 35 45 bc a9 c9 f8 bd 81 6e 9c be
       0.2074068 -0.012036788 -0.121478386 -0.30553058
0000a0 dc 88 02 3e 74 ea 43 be c5 a5 7e 3e 88 39 18 3e
       0.1274752 -0.19132406 0.24867924 0.14865696
0000b0 49 8a 8f be 75 72 19 be 0c f6 39 3e 4f c5 3c 3e
       -0.2803519 -0.14985068 0.18160266 0.18434642
0000c0 ff 0d 7f 3e 65 41 0d be 64 6c 8d 3d aa d3 bc bd
       0.24907683 -0.13794477 0.069054395 -0.09220059
0000d0 d6 40 48 be 26 93 64 3e c7 48 d5 be c9 eb 7a be
       -0.19555983 0.22321758 -0.41657087 -0.24504007
0000e0 9f 59 20 bf c4 07 8f 3e c5 93 38 3e 5f f0 0d 3d
       -0.6263675 0.27935612 0.1802512 0.034653064
0000f0 52 80 a0 3e 96 cc 39 3e fb a2 10 be 0c 8f 85 3e
       0.313479 0.1814445 -0.14124672 0.260857
000100 66 56 ef 3d 22 d5 a0 3d 26 a0 c0 bd df 33 6c 3e
       0.11686401 0.07853152 -0.09405546 0.23066662
000110 3f d1 dd be 11 16 ab be c7 ff 93 be eb f2 22 bc
       -0.43323705 -0.33415273 -0.2890608 -0.0099456115
000120 be 5b 18 3d 7b db 78 3e 26 c7 8a 3d b7 b5 dd 3e
       0.037196867 0.24302475 0.06776266 0.433027
000130 2c 6b 2c bd dc 4c 6a be 9a b8 e5 3d 9a 63 6a be
       -0.042094395 -0.22880882 0.112168506 -0.22889557
000140 89 e8 25 3d 86 f9 03 3e f2 d4 73 3d b1 ad 15 3d
       0.040504966 0.12888154 0.059529252 0.0365426
000150 7d 6c b9 be ef 9a c7 3e 7b 06 1c 3d 9d 6f 28 3c
       -0.36215582 0.38985392 0.038092118 0.010280517
000160 d4 04 02 3e 4e 79 56 3e a3 0e e7 3e a0 7e 80 be
       0.12697154 0.20944712 0.45128354 -0.25096607
000170 88 30 d3 be 8f 54 ab bd fb a9 e2 be 1a d3 f5 3d
       -0.41247964 -0.08365738 -0.4427031 0.12003155
000180 e3 64 31 be e9 85 de 3c 9c 10 af 3d 86 c2 80 3d
       -0.17323641 0.027163463 0.0854809 0.062871024
000190 c5 5d f5 3d e1 b8 6b be eb 69 c5 3e c7 06 2a be
       0.11980776 -0.23019744 0.38557371 -0.16604148
0001a0 e8 34 fb 3d 74 d2 a2 be 09 a5 6f be 15 f4 46 3e
       0.122659504 -0.31801188 -0.234028 0.19429047
0001b0 3f f8 dd bd d8 86 30 be a5 4c f4 3d 84 67 d9 be
       -0.10838365 -0.17238939 0.11928681 -0.4246179
0001c0 76 6d 34 3e 3c 1c 43 3e 9d a5 87 3e 52 29 3b 3f
       0.17619881 0.1905374 0.2649354 0.73109925
0001d0 d6 12 9c 3e 00 c1 73 be 90 86 31 bf 49 c2 91 3e
       0.3048312 -0.23804092 -0.6934595 0.2846854
0001e0 e4 0d 75 be 52 0f 01 3d f5 3e c6 3d 59 72 bb bc
       -0.2393108 0.03150875 0.09679977 -0.022881674
0001f0 fe 81 54 3c 4d f9 10 3e 38 af 92 be 14 8b 68 3e
       0.012970446 0.141576 -0.28649306 0.22709304
000200 77 05 43 be 21 c9 b9 3d e0 72 50 be f6 54 a9 3e
       -0.19045053 0.090715654 -0.20356321 0.33072633
000210 07 3c 0d 3e cf b8 51 be 6b 75 b0 3e 12 75 d5 3e
       0.1379243 -0.20480655 0.34464583 0.4169088
000220 9d a9 57 3e 2c 25 bd be 59 c7 3d be ac cd 5e 3e
       0.21060796 -0.36942422 -0.18533076 0.21758145
000230 cd 4a 9b 3d 17 bd db bd 40 e1 ee be c6 e2 36 3e
       0.075826265 -0.107294254 -0.46656227 0.17859945
000240 03 68 e4 3e 83 f5 21 bd f6 01 be 3c 0a 65 3f bd
       0.44610605 -0.03954078 0.023194294 -0.046727218
000250 e9 80 6e be 72 e9 9f bd d3 5e 2a 3e 36 36 c4 be
       -0.23291363 -0.07808198 0.16637735 -0.3832261
000260 ae 97 d2 3e e6 10 21 3d 6f c3 a0 3e de 92 f7 3e
       0.41131347 0.039322756 0.31399104 0.48354238
000270 38 89 82 bf 63 58 45 bd 66 6f ab be 0d 31 11 bd
       -1.0198126 -0.048179995 -0.33483428 -0.03544717
000280 59 c3 09 3f 86 ea f8 be c2 53 3d 3e 88 67 9d 3d
       0.538137 -0.48616427 0.18488982 0.07685763
000290 c8 b3 a0 3d 72 fe 60 3e 15 b6 d3 be a1 a4 d7 be
       0.078467906 0.21972063 -0.41349855 -0.4211779
0002a0 3b d5 e7 bd 95 aa e2 3e 7c 72 03 bf 91 55 b2 bd
       -0.11319967 0.4427077 -0.51346564 -0.08707727
0002b0 bd bd a8 3e 3a 8e ed 3d 2f ab b5 3c eb 99 28 be
       0.3295726 0.11599393 0.022176353 -0.16464965
0002c0 f0 10 fd bd 02 ac 1b 3e 76 11 fa bd 7a a3 e0 3d
       -0.12356746 0.15202335 -0.12210362 0.10968681
0002d0 b9 de 27 3e 9b 99 6d 3d d4 5b 76 3d a9 56 97 3a
       0.16393556 0.058007818 0.060146168 0.0011546212
0002e0 62 71 b4 3d 01 7e e7 3d 0a 69 b0 bd 52 bb cd 3e
       0.088106886 0.1130333 -0.086137846 0.40181977
0002f0 34 6f d7 be b4 66 79 bc ea 19 f4 3b df 50 16 3f
       -0.4207703 -0.01522224 0.0074493783 0.5871715
000300 cb 6d c3 be 2e 5c 66 be ed a9 db be 97 dc ec 3e
       -0.38169703 -0.22496101 -0.4290308 0.46262047
000310 bf 82 f2 3d 48 78 af 3e fa 92 35 bd af a7 e0 3c
       0.11841344 0.34271455 -0.04432962 0.027423708
000320 1b bb c5 be 31 02 04 3e 50 0d 78 3e c5 10 1b be
       -0.38619313 0.12891461 0.24223828 -0.15143116
000330 46 42 8c be e8 e1 9f 3e 07 ab bc be 52 4b b7 3d
       -0.27394313 0.3122704 -0.36849234 0.08949913
000340 ae 10 71 bd 48 41 21 be 01 10 8e be fe 95 80 3e
       -0.058853798 -0.15747559 -0.27746585 0.25114435
000350 71 92 04 3d 98 68 6b be 49 86 fd 3d c2 d5 47 3d
       0.03236622 -0.22989118 0.123791285 0.04878784
000360 d2 b9 c2 bd 77 d8 6e bd 8b f3 51 3e f5 83 5e 3e
       -0.09508099 -0.058311906 0.2050306 0.21730025
000370 29 3b 99 be b6 d8 2a be 29 62 b7 bc c1 9a ec bd
       -0.29927948 -0.16684231 -0.022385674 -0.115529545
000380 b1 93 ce bd 95 8a 14 3e 6e 79 c2 3e 18 f7 cc bd
       -0.10086764 0.1450599 0.37983268 -0.10008067
000390 f4 90 3d 3e c0 60 bd 3d 87 f6 81 3e 17 d0 ef bd
       0.18512326 0.09246969 0.25383398 -0.11709612
0003a0 e9 f3 63 bc 49 ec 1d be e8 d5 32 3e 7c 8b a9 be
       -0.013913133 -0.15422167 0.17464411 -0.3311423
0003b0 93 79 96 3e 68 10 7a 3b 20 9b ba be 52 ee 40 be
       0.2938963 0.0038156752 -0.36446476 -0.18840912
0003c0 c6 ad ef bc 0c 60 6b be b3 a3 1a 3e 86 61 fe be
       -0.029257666 -0.22985858 0.15101509 -0.4968378
0003d0 97 8e e5 be f0 35 99 3e ab eb c0 be ee 6b e8 bc
       -0.4483535 0.29923964 -0.376798 -0.028371777
0003e0 f2 94 59 3e 90 fd 15 bf cb 0c 8a bd 9f b4 17 3e
       0.21248224 -0.5859003 -0.06740721 0.14814995
0003f0 ed 62 38 3f ea 14 95 3e 2e c8 cb 3c 3d 88 55 bd
       0.7202595 0.2911752 0.024875727 -0.05213188

network_body._body_endoder.seq_layers.2.bias f4 [128]
000000 7a c0 9a bb be ee 8d bb 1d da 08 bd 16 4b cd bc
       -0.004722652 -0.004331439 -0.033411134 -0.025060218
000010 24 d9 17 bd 76 1c b6 bc 26 27 1d 3c 75 79 10 bd
       -0.037072316 -0.022230368 0.009591853 -0.03527208
000020 bf 40 ff bc 01 de 15 be b7 94 8f bc f9 6a e1 bc
       -0.031158803 -0.14635469 -0.017526967 -0.027516829
000030 35 29 96 bc 74 fa e2 b9 1a 9a 12 bc c8 71 92 3a
       -0.018330196 -0.0004329268 -0.0089478735 0.0011172825
000040 9b 8b ee bc aa ac b9 bc 4c 63 1d bd fb cb 18 3b
       -0.029119303 -0.02266534 -0.038424775 0.0023314941
000050 a1 f9 08 3d 28 2a 37 bd cd 26 32 3c c7 3c 1f bd
       0.03344119 -0.044717938 0.010873509 -0.03887632
000060 af 0d 12 be b6 ec 1e bc bf 9d 19 3c 95 56 38 bd
       -0.14263032 -0.009699991 0.0093759885 -0.045004446
000070 72 70 18 3d 0b 91 e8 ba 38 3c 1e bd bb 5c 8e bc
       0.03721661 -0.0017743421 -0.038631648 -0.017378202
000080 da 00 dd bb ba bd 06 bd 0c d8 3b 3d 4a 5a 0a bc
       -0.0067444863 -0.03289578 0.045860335 -0.008444378
000090 a5 02 89 bc 24 b1 2f 3d 5f 8f 91 bb 50 a0 00 bd
       -0.016724894 0.042893544 -0.00444214 -0.031402886
0000a0 63 32 5a ba 28 99 93 bc 7d 07 0c bd cd 75 41 3c
       -0.0008323548 -0.018017367 -0.03418683 0.011807871
0000b0 d9 01 aa bd de 3f 0d be 25 93 36 3c 04 f6 a1 3c
       -0.08301134 -0.13793895 0.01114348 0.01977063
0000c0 ee 7a 67 3c 18 65 8d bc b7 4e 30 3c 55 b3 1b bd
       0.01412843 -0.01726012 0.010760955 -0.03801282
0000d0 ce 02 2c bb 86 54 1e bd 33 1f 40 ba 0e d4 0c be
       -0.002624679 -0.038654827 -0.0007328868 -0.13752767
0000e0 55 6d af bd 16 e1 47 3d cb a9 62 bc 3b ba d5 bc
       -0.08565775 0.048798643 -0.013834427 -0.026089778
0000f0 47 89 38 bc b4 a5 ae bc 4a e8 f6 bd 65 33 6e 3c
       -0.011263198 -0.021319248 -0.120560244 0.014538621
000100 87 5a fd 3c 5e d1 5d 3b 2e ae ac bc b2 72 02 3d
       0.030926956 0.0033846716 -0.02107915 0.031847663
000110 b3 4d a0 3b 66 c7 f6 3b 4e 93 80 bc 15 a1 82 3c
       0.004892075 0.0075310944 -0.01569524 0.01594595
000120 a8 a6 83 3c f6 96 6b 3c f7 c1 0d 3d 4c 44 28 bd
       0.016070679 0.014379254 0.034608807 -0.041080758
000130 4f 60 ac 3c 51 e5 af 3b 7a 87 f9 bc 65 41 25 3d
       0.021042017 0.005367913 -0.030460108 0.04034557
000140 a9 96 0e bd f5 7e 14 3d 7f 48 79 3b 13 3e 53 38
       -0.03481165 0.03625389 0.0038037596 5.036413e-05
000150 5e b0 61 ba 1b 6b 0d bc d3 50 c5 3c 19 d9 c5 bd
       -0.00086093496 -0.008631493 0.024086392 -0.09660549
000160 4a 7b 0a bd 92 61 e3 3c 4b b8 75 3b d8 0c 39 bd
       -0.033808984 0.027756486 0.003749388 -0.045178264
000170 49 81 ec bc 0f 39 ac bd 95 26 eb bc ba b6 e9 bc
       -0.028870242 -0.084093206 -0.02870492 -0.028529514
000180 5b c2 65 3c 22 54 ac bc e9 1d bc 3c ec 70 19 3c
       0.014023389 -0.021036211 0.022963481 0.009365302
000190 a0 dc a1 3b d3 70 2a bc ee 9b 4c bc bd 56 93 bc
       0.0049396306 -0.010402876 -0.012488348 -0.017985696
0001a0 39 f5 58 3d 29 f0 bf 3c 54 8a ee bc 56 87 d4 bc
       0.052968238 0.023429947 -0.029118694 -0.02594344
0001b0 a0 a1 0e 3d 19 99 f0 3b a4 7a 90 ba 94 bc 23 3c
       0.034822106 0.0073424694 -0.0011022878 0.009993691
0001c0 64 39 36 3c df 9d 3d 3d 7b bd 6b 3d 85 68 8a 3c
       0.011122081 0.046293136 0.05755375 0.016895542
0001d0 94 ff ff 3c 58 88 a0 3c 22 ee 13 3d 9b c7 e9 3c
       0.031249799 0.019596264 0.036115773 0.028537562
0001e0 ac 0d 35 3c 16 55 ce 3b c1 68 1c bd ed 49 c4 bb
       0.011050623 0.006296764 -0.03818584 -0.005990258
0001f0 a5 83 d9 3b 9a 0b 28 3d c4 c2 a1 3c da 10 9b 3c
       0.0066380077 0.04102669 0.019746192 0.018928934

network_body._body_endoder.seq_layers.2.weight f4 [128, 128]
000000 0d 5d 22 3d bd 0f a6 bd dd 1d 47 be b4 df b2 3c
       0.03963952 -0.081084706 -0.19444986 0.021835186
000010 0a 0f 45 bc 0f c8 7b bc a6 de 2c be 9d 57 78 be
       -0.012027511 -0.015367522 -0.16881809 -0.24252172
000020 aa d7 91 bd 18 94 9c bc 29 fa be bd c7 7e c4 3d
       -0.07121213 -0.019113585 -0.09325058 0.09594493
000030 96 17 ca bd f6 65 36 be 83 56 75 3d d1 22 38 3d
       -0.0986778 -0.17812333 0.059896957 0.04495508
000040 13 0e 83 3c c2 90 74 be ae 3f 84 bd d2 bd 02 be
       0.015997922 -0.23883346 -0.064574584 -0.12767723
000050 52 1e bf 3d 90 a3 0e be b6 c3 a6 bc 60 08 d1 bd
       0.09331955 -0.13929582 -0.020356994 -0.102066755
000060 e3 ea 42 3d a9 4f ba bc 90 0f 32 bd 77 51 61 be
       0.047587287 -0.022743063 -0.043471873 -0.22003733
000070 6c 46 06 be 62 d1 fa bc b1 b2 fc 3c 59 51 5f bd
       -0.13112801 -0.03061742 0.030846925 -0.05452094
000080 f7 75 6a bd 68 31 a2 3d b5 fd 73 3b aa f3 88 3d
       -0.057241406 0.0791958 0.0037230079 0.066871
000090 94 f0 19 3d f6 5b 50 be c4 d5 8d bc 5f e4 f4 3d
       0.03758295 -0.2034758 -0.017313845 0.11957621
0000a0 c4 84 c8 bc b8 9d 1f bd 64 db b8 3d 8b 97 ad 3d
       -0.02447737 -0.03896877 0.090262204 0.0847617
0000b0 45 f8 ba 3d ff 54 a1 3d 24 d8 93 bd c3 60 3b bd
       0.09129385 0.0787754 -0.0721896 -0.045746576
0000c0 09 d2 e5 bb bc 26 72 bd 3d 07 9f 3d 57 81 d2 3d
       -0.0070135635 -0.05911897 0.077650525 0.10278576
0000d0 c6 2c 37 3d 08 08 ac 3d b1 c1 91 bd c2 66 77 3d
       0.044720434 0.08399969 -0.07117022 0.06040073
0000e0 3a ca 6e 3d 7e 54 05 be b3 03 96 3d d8 8d 1a 3e
       0.058298327 -0.13020512 0.07324924 0.15093172
0000f0 ba e8 f6 3d 95 b3 95 bd 69 a5 dd bd 92 1a 3a bd
       0.12056108 -0.07309643 -0.10822565 -0.045435496
000100 ac 7c 41 3c 1b e8 fe 3c a3 c5 ca bd 87 da 13 3e
       0.011809509 0.031116536 -0.099009775 0.1443883
000110 51 24 c0 bd 3e 22 63 3d 0e 20 48 3e e9 bd 0d be
       -0.09381927 0.055452578 0.19543478 -0.13841976
000120 ca 9b 49 bd 29 3a 35 bd e3 ba c6 3d 09 67 03 be
       -0.049220838 -0.04424492 0.097036146 -0.12832274
000130 f2 ea b3 3d 8d ca 1b 3e 14 a5 65 3d 6f 43 a9 3d
       0.08785047 0.15213986 0.056065634 0.08264815
000140 fd b1 18 be ef e0 5e 3c 16 0e 2d ba 74 f3 15 bd
       -0.14911647 0.013603433 -0.0006601525 -0.036609128
000150 e1 47 aa 3a b7 42 cb 3d de 4e f1 bc 53 b0 18 3e
       0.0012991392 0.09924834 -0.029456552 0.14911012
000160 66 ac 22 3e 0e 38 0e bd 0b 40 41 bc 07 78 c7 bc
       0.15886077 -0.034721427 -0.011795054 -0.024349226
000170 ba ae ce bb b6 e6 76 bc e3 6e ae 3d 8f a3 cb 3d
       -0.00630745 -0.015069654 0.08517244 0.09943306
000180 31 f3 92 3d ff c0 05 be 66 83 01 be 6f c1 f9 3d
       0.07175291 -0.13061903 -0.12647781 0.12195098
000190 96 31 3b 3e c9 26 c7 3d f1 5d 29 3d 46 20 a4 3d
       0.18280634 0.097241946 0.041349355 0.08013968
0001a0 e5 eb 84 3d d8 c1 07 be cd 50 9e 3d 38 e9 85 3d
       0.06490306 -0.1325754 0.07730255 0.065386236
0001b0 72 e3 8a bc 20 9d b6 bc 6b 50 e8 bd f0 2f 84 3d
       -0.016954158 -0.02229172 -0.113434635 0.06454456
0001c0 67 8a d5 3d d9 75 f0 bc 0f dd 36 be f3 1d 02 3e
       0.10426789 -0.02935307 -0.17857765 0.12706737
0001d0 5f b6 89 3d df 60 c9 3c 02 9d 79 3d 95 24 bd 3d
       0.06724238 0.024582325 0.06094075 0.09235493
0001e0 db 72 5b 3d dd 20 16 bd ee 44 24 be 3a 34 2e bd
       0.05357633 -0.036652435 -0.1604192 -0.042530276
0001f0 8b b1 97 bd ad cd bf bd f4 e7 5d 3d 91 57 00 3e
       -0.074069105 -0.093654014 0.054176286 0.12533404
000200 99 d3 00 3d c4 f6 47 bb a6 f9 3a be 96 94 ae 3d
       0.031451795 -0.0030512074 -0.18259296 0.08524434
000210 6d 8a e3 3d be 84 50 3e cf 04 ff 3d e7 86 3e 3d
       0.11110387 0.20363137 0.12452089 0.04651537
000220 16 1e 08 3d b7 55 0c 3e b3 1b bf bd 5a fb 1f 3e
       0.033231817 0.13704573 -0.09331455 0.15623227
000230 f4 97 f6 3d a8 21 e0 bc f1 d2 fe 3d ee bb 98 bd
       0.120407015 -0.027359799 0.12442578 -0.0745772
000240 54 e9 b7 bc 05 64 0e bb a9 19 00 be 09 4b e3 3c
       -0.022450127 -0.0021727097 -0.12509789 0.02774574
000250 fd 10 85 3d 50 d5 21 be 67 28 15 bc 8c b9 9b 3d
       0.06497381 -0.15804029 -0.009103871 0.0760375
000260 2e c5 0a 3d f9 66 23 3e 80 ca 9e bb 83 b8 f2 39
       0.03387945 0.1595725 -0.004845917 0.0004629531
000270 c4 8c 06 3e 4c 28 c1 bd 74 69 78 3c bd 75 0a 3e
       0.13139635 -0.09431514 0.015161861 0.13521476
000280 c4 7d 30 3e 57 c0 47 3e 05 ba f3 3c 79 68 fe bd
       0.17235476 0.19506966 0.029751787 -0.1242227
000290 f5 9d 47 3b 7e c9 08 bd 57 ae 71 bb 05 95 06 be
       0.003045914 -0.033395283 -0.0036877596 -0.13142784
0002a0 c7 4b c0 3d fc 51 ca bd a0 e4 06 3d 54 04 30 be
       0.093894534 -0.098789185 0.032932878 -0.17189151
0002b0 25 7c 4f 3d cf 42 e4 3c 25 78 6f bd 24 bc 2c 3d
       0.050655503 0.027863888 -0.058464188 0.042171612
0002c0 5c c1 72 bd 29 9a 94 bc 85 94 e2 bd 62 0d 57 3d
       -0.059266433 -0.018139916 -0.11063484 0.052502997
0002d0 95 8f ba bd 09 5a 3f 3d 94 fd b7 3d 02 59 3a 3d
       -0.09109417 0.046716724 0.08983913 0.04549504
0002e0 2a 21 31 bd aa 97 3a be 2a de 8c bd 21 19 ed 3a
       -0.04324452 -0.18221918 -0.06878312 0.0018089154
0002f0 95 41 06 bc 55 07 2c 3e 1d 7e ba bc f4 ca dc 3d
       -0.008194347 0.16799672 -0.022765214 0.10780898
000300 ab 9b 1e 3d 80 13 1c 3d fe 6e 0a 3d 0d ed 31 3e
       0.038722675 0.038104534 0.033797257 0.17375584
000310 9c 5f e3 bd e0 91 1b 3e 21 00 b3 bc a1 1f 24 be
       -0.111022204 0.15192366 -0.021850647 -0.1602769
000320 f8 11 09 bb 82 ad 0d be 2d 9c b1 3d 09 f5 02 3c
       -0.0020915251 -0.13835719 0.08672366 0.007992991
000330 62 92 91 bd 1a c4 92 3d bc a0 9c 3d 75 97 78 3b
       -0.071079984 0.0716631 0.07647845 0.0037932072
000340 23 58 0d 3e 0a 94 72 be 60 92 7a be f5 2a d2 bd
       0.13803153 -0.23689285 -0.244699 -0.102621
000350 7b e0 07 be 13 a9 3c 3c 27 ff 31 3e 53 c3 0f bc
       -0.13269226 0.01151492 0.17382489 -0.008774596
000360 cf b2 8a 3d bb b9 1c be c2 63 41 3c 7d fe c6 3d
       0.06772386 -0.15305226 0.011803569 0.097165085
000370 86 22 de 3d aa 9a 39 3e fc 3a 8b 3d ab 1c 06 3e
       0.108464286 0.18125406 0.0679836 0.13096873
000380 a3 79 27 be 12 e1 59 3d f4 97 51 3e fb 66 32 3c
       -0.16354994 0.05319316 0.20468122 0.01088881
000390 d6 75 b0 3d bd 72 2e be d2 ee 97 3c f3 97 36 bc
       0.086162254 -0.17035957 0.018546496 -0.011144626
0003a0 70 3a 2e 3e 3a 39 de 3d 51 60 da bd d7 4a 2b bc
       0.1701448 0.10850759 -0.10662902 -0.010454855
0003b0 ca 4a 14 3e c2 31 ec bd 37 51 d7 3b 19 36 ae bd
       0.14481655 -0.11532928 0.006570961 -0.08506412
0003c0 c9 56 f7 bc 03 fc 68 be d2 a1 b7 3d 88 18 2e bd
       -0.03019275 -0.22752385 0.08966412 -0.042503864
0003d0 8b da b2 bd 80 02 56 bd a5 99 1c 3e 1f 93 0a 3e
       -0.0873309 -0.052248478 0.15292986 0.13532685
0003e0 a2 31 c9 bc 2d 91 34 3d d4 5e f7 3a 2c 7e 85 3d
       -0.0245598 0.044083763 0.0018872865 0.06518206
0003f0 9e d7 39 3d 05 89 85 bc e7 a5 e4 3c bd ec 25 3e
       0.045371644 -0.016300688 0.02791114 0.1620359
