results/Try5/jumper/jumper-100250.pt (torch, 465503 bytes, 30 tensors)

network_body._body_endoder.seq_layers.0.weight f4 [128, 15]
000000 c2 fa d4 be 3b 60 2c bb 5a f1 52 bd 05 41 95 be
       -0.41597563 -0.0026302475 -0.051499702 -0.29151168
000010 8c eb fa 3e d9 f2 2f 3e 51 a1 a7 be 00 48 97 be
       0.49007833 0.17182483 -0.32740262 -0.2954712
000020 b1 1d 49 bd 6e 85 94 be 9b 14 b7 bd 3c 52 a0 3d
       -0.04910058 -0.2900805 -0.08939477 0.07828185
000030 1f 77 9e bd 43 50 f5 3d 57 6f cc 3e 17 f1 b3 3d
       -0.07737564 0.11978199 0.39928696 0.087862186
000040 8d 0a bf bd 84 f4 12 3d 0f 28 ad 3e e2 24 5d 3e
       -0.09328184 0.03587772 0.33819625 0.21596101
000050 e8 eb 57 3e 9c 45 1a 3f d3 9c 24 3e 68 82 e1 be
       0.21086085 0.60262465 0.16075449 -0.44044805
000060 63 3f 54 3d 04 2b 02 3d 99 d0 f7 3e 02 a5 34 3e
       0.051818263 0.031779304 0.48401335 0.1764107
000070 14 0a 51 be c2 06 f2 3e e0 50 4a be a8 18 20 3d
       -0.20414001 0.4727078 -0.19757414 0.039086014
000080 16 a0 b1 be 88 02 4f 3e 85 91 14 3e a4 04 48 3c
       -0.34692448 0.2021581 0.14508636 0.012208138
000090 73 62 54 3e f3 35 45 bc a9 c9 f8 bd 81 6e 9c be
       0.2074068 -0.012036788 -0.121478386 -0.30553058
0000a0 dc 88 02 3e 74 ea 43 be c5 a5 7e 3e 88 39 18 3e
       0.1274752 -0.19132406 0.24867924 0.14865696
0000b0 49 8a 8f be 75 72 19 be 0c f6 39 3e 4f c5 3c 3e
       -0.2803519 -0.14985068 0.18160266 0.18434642
0000c0 ff 0d 7f 3e 65 41 0d be 64 6c 8d 3d aa d3 bc bd
       0.24907683 -0.13794477 0.069054395 -0.09220059
0000d0 d6 40 48 be 26 93 64 3e c7 48 d5 be c9 eb 7a be
       -0.19555983 0.22321758 -0.41657087 -0.24504007
0000e0 9f 59 20 bf c4 07 8f 3e c5 93 38 3e 5f f0 0d 3d
       -0.6263675 0.27935612 0.1802512 0.034653064
0000f0 52 80 a0 3e 96 cc 39 3e fb a2 10 be 0c 8f 85 3e
       0.313479 0.1814445 -0.14124672 0.260857
000100 66 56 ef 3d 22 d5 a0 3d 26 a0 c0 bd df 33 6c 3e
       0.11686401 0.07853152 -0.09405546 0.23066662
000110 3f d1 dd be 11 16 ab be c7 ff 93 be eb f2 22 bc
       -0.43323705 -0.33415273 -0.2890608 -0.0099456115
000120 be 5b 18 3d 7b db 78 3e 26 c7 8a 3d b7 b5 dd 3e
       0.037196867 0.24302475 0.06776266 0.433027
000130 2c 6b 2c bd dc 4c 6a be 9a b8 e5 3d 9a 63 6a be
       -0.042094395 -0.22880882 0.112168506 -0.22889557
000140 89 e8 25 3d 86 f9 03 3e f2 d4 73 3d b1 ad 15 3d
       0.040504966 0.12888154 0.059529252 0.0365426
000150 7d 6c b9 be ef 9a c7 3e 7b 06 1c 3d 9d 6f 28 3c
       -0.36215582 0.38985392 0.038092118 0.010280517
000160 d4 04 02 3e 4e 79 56 3e a3 0e e7 3e a0 7e 80 be
       0.12697154 0.20944712 0.45128354 -0.25096607
000170 88 30 d3 be 8f 54 ab bd fb a9 e2 be 1a d3 f5 3d
       -0.41247964 -0.08365738 -0.4427031 0.12003155
000180 e3 64 31 be e9 85 de 3c 9c 10 af 3d 86 c2 80 3d
       -0.17323641 0.027163463 0.0854809 0.062871024
000190 c5 5d f5 3d e1 b8 6b be eb 69 c5 3e c7 06 2a be
       0.11980776 -0.23019744 0.38557371 -0.16604148
0001a0 e8 34 fb 3d 74 d2 a2 be 09 a5 6f be 15 f4 46 3e
       0.122659504 -0.31801188 -0.234028 0.19429047
0001b0 3f f8 dd bd d8 86 30 be a5 4c f4 3d 84 67 d9 be
       -0.10838365 -0.17238939 0.11928681 -0.4246179
0001c0 76 6d 34 3e 3c 1c 43 3e 9d a5 87 3e 52 29 3b 3f
       0.17619881 0.1905374 0.2649354 0.73109925
0001d0 d6 12 9c 3e 00 c1 73 be 90 86 31 bf 49 c2 91 3e
       0.3048312 -0.23804092 -0.6934595 0.2846854
0001e0 e4 0d 75 be 52 0f 01 3d f5 3e c6 3d 59 72 bb bc
       -0.2393108 0.03150875 0.09679977 -0.022881674
0001f0 fe 81 54 3c 4d f9 10 3e 38 af 92 be 14 8b 68 3e
       0.012970446 0.141576 -0.28649306 0.22709304
000200 77 05 43 be 21 c9 b9 3d e0 72 50 be f6 54 a9 3e
       -0.19045053 0.090715654 -0.20356321 0.33072633
000210 07 3c 0d 3e cf b8 51 be 6b 75 b0 3e 12 75 d5 3e
       0.1379243 -0.20480655 0.34464583 0.4169088
000220 9d a9 57 3e 2c 25 bd be 59 c7 3d be ac cd 5e 3e
       0.21060796 -0.36942422 -0.18533076 0.21758145
000230 cd 4a 9b 3d 17 bd db bd 40 e1 ee be c6 e2 36 3e
       0.075826265 -0.107294254 -0.46656227 0.17859945
000240 03 68 e4 3e 83 f5 21 bd f6 01 be 3c 0a 65 3f bd
       0.44610605 -0.03954078 0.023194294 -0.046727218
000250 e9 80 6e be 72 e9 9f bd d3 5e 2a 3e 36 36 c4 be
       -0.23291363 -0.07808198 0.16637735 -0.3832261
000260 ae 97 d2 3e e6 10 21 3d 6f c3 a0 3e de 92 f7 3e
       0.41131347 0.039322756 0.31399104 0.48354238
000270 38 89 82 bf 63 58 45 bd 66 6f ab be 0d 31 11 bd
       -1.0198126 -0.048179995 -0.33483428 -0.03544717
000280 59 c3 09 3f 86 ea f8 be c2 53 3d 3e 88 67 9d 3d
       0.538137 -0.48616427 0.18488982 0.07685763
000290 c8 b3 a0 3d 72 fe 60 3e 15 b6 d3 be a1 a4 d7 be
       0.078467906 0.21972063 -0.41349855 -0.4211779
0002a0 3b d5 e7 bd 95 aa e2 3e 7c 72 03 bf 91 55 b2 bd
       -0.11319967 0.4427077 -0.51346564 -0.08707727
0002b0 bd bd a8 3e 3a 8e ed 3d 2f ab b5 3c eb 99 28 be
       0.3295726 0.11599393 0.022176353 -0.16464965
0002c0 f0 10 fd bd 02 ac 1b 3e 76 11 fa bd 7a a3 e0 3d
       -0.12356746 0.15202335 -0.12210362 0.10968681
0002d0 b9 de 27 3e 9b 99 6d 3d d4 5b 76 3d a9 56 97 3a
       0.16393556 0.058007818 0.060146168 0.0011546212
0002e0 62 71 b4 3d 01 7e e7 3d 0a 69 b0 bd 52 bb cd 3e
       0.088106886 0.1130333 -0.086137846 0.40181977
0002f0 34 6f d7 be b4 66 79 bc ea 19 f4 3b df 50 16 3f
       -0.4207703 -0.01522224 0.0074493783 0.5871715
000300 cb 6d c3 be 2e 5c 66 be ed a9 db be 97 dc ec 3e
       -0.38169703 -0.22496101 -0.4290308 0.46262047
000310 bf 82 f2 3d 48 78 af 3e fa 92 35 bd af a7 e0 3c
       0.11841344 0.34271455 -0.04432962 0.027423708
000320 1b bb c5 be 31 02 04 3e 50 0d 78 3e c5 10 1b be
       -0.38619313 0.12891461 0.24223828 -0.15143116
000330 46 42 8c be e8 e1 9f 3e 07 ab bc be 52 4b b7 3d
       -0.27394313 0.3122704 -0.36849234 0.08949913
000340 ae 10 71 bd 48 41 21 be 01 10 8e be fe 95 80 3e
       -0.058853798 -0.15747559 -0.27746585 0.25114435
000350 71 92 04 3d 98 68 6b be 49 86 fd 3d c2 d5 47 3d
       0.03236622 -0.22989118 0.123791285 0.04878784
000360 d2 b9 c2 bd 77 d8 6e bd 8b f3 51 3e f5 83 5e 3e
       -0.09508099 -0.058311906 0.2050306 0.21730025
000370 29 3b 99 be b6 d8 2a be 29 62 b7 bc c1 9a ec bd
       -0.29927948 -0.16684231 -0.022385674 -0.115529545
000380 b1 93 ce bd 95 8a 14 3e 6e 79 c2 3e 18 f7 cc bd
       -0.10086764 0.1450599 0.37983268 -0.10008067
000390 f4 90 3d 3e c0 60 bd 3d 87 f6 81 3e 17 d0 ef bd
       0.18512326 0.09246969 0.25383398 -0.11709612
0003a0 e9 f3 63 bc 49 ec 1d be e8 d5 32 3e 7c 8b a9 be
       -0.013913133 -0.15422167 0.17464411 -0.3311423
0003b0 93 79 96 3e 68 10 7a 3b 20 9b ba be 52 ee 40 be
       0.2938963 0.0038156752 -0.36446476 -0.18840912
0003c0 c6 ad ef bc 0c 60 6b be b3 a3 1a 3e 86 61 fe be
       -0.029257666 -0.22985858 0.15101509 -0.4968378
0003d0 97 8e e5 be f0 35 99 3e ab eb c0 be ee 6b e8 bc
       -0.4483535 0.29923964 -0.376798 -0.028371777
0003e0 f2 94 59 3e 90 fd 15 bf cb 0c 8a bd 9f b4 17 3e
       0.21248224 -0.5859003 -0.06740721 0.14814995
0003f0 ed 62 38 3f ea 14 95 3e 2e c8 cb 3c 3d 88 55 bd
       0.7202595 0.2911752 0.024875727 -0.05213188

network_body._body_endoder.seq_layers.0.bias f4 [128]
000000 31 cf 7d 3d 58 e1 0f bd 23 7c 3e 3c 1d 40 8e bc
       0.06196517 -0.035127014 0.011626276 -0.017364556
000010 71 31 c8 3c 41 e0 af 3d 7a fa c3 bd d7 b9 04 3d
       0.024437638 0.08587695 -0.09569259 0.032403793
000020 fc 29 6f bc 4c cd e1 3b b7 cb f4 bb 75 9e ef 3c
       -0.014597412 0.0068909284 -0.0074705738 0.029250363
000030 5c 9a f1 3c 7b b1 4f 3d f3 01 30 3c a2 40 92 bd
       0.02949255 0.050706368 0.010742652 -0.07141234
000040 ad 3d 94 bc bc 0c f4 3c 19 62 aa bc 05 c2 72 3d
       -0.018095816 0.029791228 -0.02079873 0.059267063
000050 e5 b8 b8 bd f5 ad 43 bd 8d 1e 1e be 07 b2 d9 bc
       -0.09019641 -0.04777332 -0.15441342 -0.026574148
000060 fb de bd bb f4 76 64 bc be 9a e9 3c f5 3d ac bd
       -0.0057944036 -0.013944376 0.02851617 -0.08410255
000070 2e d1 5f bd dc c4 10 bd 86 f8 00 bd a6 18 e7 3c
       -0.05464285 -0.03534399 -0.03148701 0.028209995
000080 f9 f3 31 3b 69 11 52 3b ab 9e fa 3c be c6 1b 3c
       0.0027153476 0.0032053834 0.030593237 0.009507833
000090 9b 20 90 3d 83 4f c2 3b 28 13 0f bd 7f ed c9 bd
       0.07037469 0.0059298887 -0.03493038 -0.09859752
0000a0 a1 57 1d bd 85 4f 81 3d af d1 bb 3b 08 bc a7 bc
       -0.038413648 0.06313995 0.0057317833 -0.020475402
0000b0 59 0c 42 bb c6 67 77 3d f7 01 70 bd cb be 86 3d
       -0.002960941 0.0604017 -0.058595624 0.065793596
0000c0 e0 71 8b 3d 6d 50 b8 3a 87 88 3c 3d 52 a1 d2 bd
       0.06808829 0.0014062055 0.04602864 -0.10284676
0000d0 ac 96 10 bd ea f4 ba bc 32 99 46 3d 33 a3 a0 bc
       -0.035299942 -0.022821862 0.048485942 -0.01960907
0000e0 7e 11 08 3d bd 1c 77 3b c7 f2 90 bd 5d c1 c3 39
       0.033219807 0.0037706338 -0.07077556 0.00037337365
0000f0 0b 3b 1d bd fe 60 14 bd 8d c3 5a bd 18 4f 3b bc
       -0.038386386 -0.03622531 -0.053409148 -0.011432432
000100 2e 82 3c bb b1 0a 81 3c 97 ea 12 be db 42 45 bd
       -0.0028764117 0.015752168 -0.14347301 -0.04815946
000110 09 df 23 bc 04 ca 82 3c db c5 8f 3b 71 97 ac bc
       -0.010001906 0.01596547 0.0043876 -0.021068307
000120 63 69 4d 3b 39 aa 08 3c 5a c0 dc bb 1e b0 ca bd
       0.0031343333 0.0083413655 -0.0067367973 -0.09896873
000130 2e 6f fe bb 3e 0a 27 bd e2 91 5b 3d ca 32 ab bd
       -0.0077647185 -0.040781252 0.05360592 -0.083592966
000140 ee ac 88 3d 83 84 e6 3c 1e 79 07 be 82 da 85 bb
       0.06673609 0.028139358 -0.13229796 -0.004084886
000150 9f b0 b1 bc 07 7e ce bc b8 e3 65 3b a0 ad 55 bd
       -0.021690665 -0.025206579 0.0035078358 -0.052167535
000160 a9 a3 63 bd 20 d5 0a bd ea a1 1a 3c 29 fd 79 bd
       -0.055576 -0.033894658 0.009438017 -0.061032448
000170 ed 05 a4 3d cf 27 39 bc d0 9e 7f bd ca 7f 97 bd
       0.08008943 -0.011300995 -0.062407315 -0.07397421
000180 d6 1d b9 3c 3f 50 2c bd 34 2b cb ba 47 65 b0 ba
       0.022597235 -0.042068716 -0.0015500546 -0.0013457917
000190 75 81 07 bd 29 dd cf bb 11 99 ab bd a4 22 ab bc
       -0.033082444 -0.006343503 -0.083788045 -0.020890541
0001a0 50 fa 17 3d 78 62 1f bd 5d f3 36 bd ea dc 97 bd
       0.03710395 -0.038912266 -0.044665683 -0.07415183
0001b0 29 b1 c6 3d 72 6b ce 3d e8 26 e1 bd c3 2d 04 bd
       0.09701759 0.10079087 -0.10993749 -0.032270204
0001c0 d1 04 33 ba 24 15 b1 3b 31 3c 63 bc b8 d4 81 3c
       -0.0006829026 0.0054041315 -0.013869331 0.015848503
0001d0 47 07 1e 3d da 48 a8 3b e3 12 af 3c b8 6a 04 bd
       0.03858116 0.0051356377 0.02137131 -0.032328337
0001e0 3b 5b ee bc 10 54 1d 3d de 3c 1c be 34 bd 72 bc
       -0.029096236 0.038410246 -0.15257594 -0.014815617
0001f0 b5 4d a9 bb 5b bf 9e bb d3 54 2c bc 96 53 2c bd
       -0.005166734 -0.0048445887 -0.010518271 -0.0420719

network_body._body_endoder.seq_layers.2.weight f4 [128, 128]
000000 0d 5d 22 3d bd 0f a6 bd dd 1d 47 be b4 df b2 3c
       0.03963952 -0.081084706 -0.19444986 0.021835186
000010 0a 0f 45 bc 0f c8 7b bc a6 de 2c be 9d 57 78 be
       -0.012027511 -0.015367522 -0.16881809 -0.24252172
000020 aa d7 91 bd 18 94 9c bc 29 fa be bd c7 7e c4 3d
       -0.07121213 -0.019113585 -0.09325058 0.09594493
000030 96 17 ca bd f6 65 36 be 83 56 75 3d d1 22 38 3d
       -0.0986778 -0.17812333 0.059896957 0.04495508
000040 13 0e 83 3c c2 90 74 be ae 3f 84 bd d2 bd 02 be
       0.015997922 -0.23883346 -0.064574584 -0.12767723
000050 52 1e bf 3d 90 a3 0e be b6 c3 a6 bc 60 08 d1 bd
       0.09331955 -0.13929582 -0.020356994 -0.102066755
000060 e3 ea 42 3d a9 4f ba bc 90 0f 32 bd 77 51 61 be
       0.047587287 -0.022743063 -0.043471873 -0.22003733
000070 6c 46 06 be 62 d1 fa bc b1 b2 fc 3c 59 51 5f bd
       -0.13112801 -0.03061742 0.030846925 -0.05452094
000080 f7 75 6a bd 68 31 a2 3d b5 fd 73 3b aa f3 88 3d
       -0.057241406 0.0791958 0.0037230079 0.066871
000090 94 f0 19 3d f6 5b 50 be c4 d5 8d bc 5f e4 f4 3d
       0.03758295 -0.2034758 -0.017313845 0.11957621
0000a0 c4 84 c8 bc b8 9d 1f bd 64 db b8 3d 8b 97 ad 3d
       -0.02447737 -0.03896877 0.090262204 0.0847617
0000b0 45 f8 ba 3d ff 54 a1 3d 24 d8 93 bd c3 60 3b bd
       0.09129385 0.0787754 -0.0721896 -0.045746576
0000c0 09 d2 e5 bb bc 26 72 bd 3d 07 9f 3d 57 81 d2 3d
       -0.0070135635 -0.05911897 0.077650525 0.10278576
0000d0 c6 2c 37 3d 08 08 ac 3d b1 c1 91 bd c2 66 77 3d
       0.044720434 0.08399969 -0.07117022 0.06040073
0000e0 3a ca 6e 3d 7e 54 05 be b3 03 96 3d d8 8d 1a 3e
       0.058298327 -0.13020512 0.07324924 0.15093172
0000f0 ba e8 f6 3d 95 b3 95 bd 69 a5 dd bd 92 1a 3a bd
       0.12056108 -0.07309643 -0.10822565 -0.045435496
000100 ac 7c 41 3c 1b e8 fe 3c a3 c5 ca bd 87 da 13 3e
       0.011809509 0.031116536 -0.099009775 0.1443883
000110 51 24 c0 bd 3e 22 63 3d 0e 20 48 3e e9 bd 0d be
       -0.09381927 0.055452578 0.19543478 -0.13841976
000120 ca 9b 49 bd 29 3a 35 bd e3 ba c6 3d 09 67 03 be
       -0.049220838 -0.04424492 0.097036146 -0.12832274
000130 f2 ea b3 3d 8d ca 1b 3e 14 a5 65 3d 6f 43 a9 3d
       0.08785047 0.15213986 0.056065634 0.08264815
000140 fd b1 18 be ef e0 5e 3c 16 0e 2d ba 74 f3 15 bd
       -0.14911647 0.013603433 -0.0006601525 -0.036609128
000150 e1 47 aa 3a b7 42 cb 3d de 4e f1 bc 53 b0 18 3e
       0.0012991392 0.09924834 -0.029456552 0.14911012
000160 66 ac 22 3e 0e 38 0e bd 0b 40 41 bc 07 78 c7 bc
       0.15886077 -0.034721427 -0.011795054 -0.024349226
000170 ba ae ce bb b6 e6 76 bc e3 6e ae 3d 8f a3 cb 3d
       -0.00630745 -0.015069654 0.08517244 0.09943306
000180 31 f3 92 3d ff c0 05 be 66 83 01 be 6f c1 f9 3d
       0.07175291 -0.13061903 -0.12647781 0.12195098
000190 96 31 3b 3e c9 26 c7 3d f1 5d 29 3d 46 20 a4 3d
       0.18280634 0.097241946 0.041349355 0.08013968
0001a0 e5 eb 84 3d d8 c1 07 be cd 50 9e 3d 38 e9 85 3d
       0.06490306 -0.1325754 0.07730255 0.065386236
0001b0 72 e3 8a bc 20 9d b6 bc 6b 50 e8 bd f0 2f 84 3d
       -0.016954158 -0.02229172 -0.113434635 0.06454456
0001c0 67 8a d5 3d d9 75 f0 bc 0f dd 36 be f3 1d 02 3e
       0.10426789 -0.02935307 -0.17857765 0.12706737
0001d0 5f b6 89 3d df 60 c9 3c 02 9d 79 3d 95 24 bd 3d
       0.06724238 0.024582325 0.06094075 0.09235493
0001e0 db 72 5b 3d dd 20 16 bd ee 44 24 be 3a 34 2e bd
       0.05357633 -0.036652435 -0.1604192 -0.042530276
0001f0 8b b1 97 bd ad cd bf bd f4 e7 5d 3d 91 57 00 3e
       -0.074069105 -0.093654014 0.054176286 0.12533404
000200 99 d3 00 3d c4 f6 47 bb a6 f9 3a be 96 94 ae 3d
       0.031451795 -0.0030512074 -0.18259296 0.08524434
000210 6d 8a e3 3d be 84 50 3e cf 04 ff 3d e7 86 3e 3d
       0.11110387 0.20363137 0.12452089 0.04651537
000220 16 1e 08 3d b7 55 0c 3e b3 1b bf bd 5a fb 1f 3e
       0.033231817 0.13704573 -0.09331455 0.15623227
000230 f4 97 f6 3d a8 21 e0 bc f1 d2 fe 3d ee bb 98 bd
       0.120407015 -0.027359799 0.12442578 -0.0745772
000240 54 e9 b7 bc 05 64 0e bb a9 19 00 be 09 4b e3 3c
       -0.022450127 -0.0021727097 -0.12509789 0.02774574
000250 fd 10 85 3d 50 d5 21 be 67 28 15 bc 8c b9 9b 3d
       0.06497381 -0.15804029 -0.009103871 0.0760375
000260 2e c5 0a 3d f9 66 23 3e 80 ca 9e bb 83 b8 f2 39
       0.03387945 0.1595725 -0.004845917 0.0004629531
000270 c4 8c 06 3e 4c 28 c1 bd 74 69 78 3c bd 75 0a 3e
       0.13139635 -0.09431514 0.015161861 0.13521476
000280 c4 7d 30 3e 57 c0 47 3e 05 ba f3 3c 79 68 fe bd
       0.17235476 0.19506966 0.029751787 -0.1242227
000290 f5 9d 47 3b 7e c9 08 bd 57 ae 71 bb 05 95 06 be
       0.003045914 -0.033395283 -0.0036877596 -0.13142784
0002a0 c7 4b c0 3d fc 51 ca bd a0 e4 06 3d 54 04 30 be
       0.093894534 -0.098789185 0.032932878 -0.17189151
0002b0 25 7c 4f 3d cf 42 e4 3c 25 78 6f bd 24 bc 2c 3d
       0.050655503 0.027863888 -0.058464188 0.042171612
0002c0 5c c1 72 bd 29 9a 94 bc 85 94 e2 bd 62 0d 57 3d
       -0.059266433 -0.018139916 -0.11063484 0.052502997
0002d0 95 8f ba bd 09 5a 3f 3d 94 fd b7 3d 02 59 3a 3d
       -0.09109417 0.046716724 0.08983913 0.04549504
0002e0 2a 21 31 bd aa 97 3a be 2a de 8c bd 21 19 ed 3a
       -0.04324452 -0.18221918 -0.06878312 0.0018089154
0002f0 95 41 06 bc 55 07 2c 3e 1d 7e ba bc f4 ca dc 3d
       -0.008194347 0.16799672 -0.022765214 0.10780898
000300 ab 9b 1e 3d 80 13 1c 3d fe 6e 0a 3d 0d ed 31 3e
       0.038722675 0.038104534 0.033797257 0.17375584
000310 9c 5f e3 bd e0 91 1b 3e 21 00 b3 bc a1 1f 24 be
       -0.111022204 0.15192366 -0.021850647 -0.1602769
000320 f8 11 09 bb 82 ad 0d be 2d 9c b1 3d 09 f5 02 3c
       -0.0020915251 -0.13835719 0.08672366 0.007992991
000330 62 92 91 bd 1a c4 92 3d bc a0 9c 3d 75 97 78 3b
       -0.071079984 0.0716631 0.07647845 0.0037932072
000340 23 58 0d 3e 0a 94 72 be 60 92 7a be f5 2a d2 bd
       0.13803153 -0.23689285 -0.244699 -0.102621
000350 7b e0 07 be 13 a9 3c 3c 27 ff 31 3e 53 c3 0f bc
       -0.13269226 0.01151492 0.17382489 -0.008774596
000360 cf b2 8a 3d bb b9 1c be c2 63 41 3c 7d fe c6 3d
       0.06772386 -0.15305226 0.011803569 0.097165085
000370 86 22 de 3d aa 9a 39 3e fc 3a 8b 3d ab 1c 06 3e
       0.108464286 0.18125406 0.0679836 0.13096873
000380 a3 79 27 be 12 e1 59 3d f4 97 51 3e fb 66 32 3c
       -0.16354994 0.05319316 0.20468122 0.01088881
000390 d6 75 b0 3d bd 72 2e be d2 ee 97 3c f3 97 36 bc
       0.086162254 -0.17035957 0.018546496 -0.011144626
0003a0 70 3a 2e 3e 3a 39 de 3d 51 60 da bd d7 4a 2b bc
       0.1701448 0.10850759 -0.10662902 -0.010454855
0003b0 ca 4a 14 3e c2 31 ec bd 37 51 d7 3b 19 36 ae bd
       0.14481655 -0.11532928 0.006570961 -0.08506412
0003c0 c9 56 f7 bc 03 fc 68 be d2 a1 b7 3d 88 18 2e bd
       -0.03019275 -0.22752385 0.08966412 -0.042503864
0003d0 8b da b2 bd 80 02 56 bd a5 99 1c 3e 1f 93 0a 3e
       -0.0873309 -0.052248478 0.15292986 0.13532685
0003e0 a2 31 c9 bc 2d 91 34 3d d4 5e f7 3a 2c 7e 85 3d
       -0.0245598 0.044083763 0.0018872865 0.06518206
0003f0 9e d7 39 3d 05 89 85 bc e7 a5 e4 3c bd ec 25 3e
       0.045371644 -0.016300688 0.02791114 0.1620359

network_body._body_endoder.seq_layers.2.bias f4 [128]
000000 7a c0 9a bb be ee 8d bb 1d da 08 bd 16 4b cd bc
       -0.004722652 -0.004331439 -0.033411134 -0.025060218
000010 24 d9 17 bd 76 1c b6 bc 26 27 1d 3c 75 79 10 bd
       -0.037072316 -0.022230368 0.009591853 -0.03527208
000020 bf 40 ff bc 01 de 15 be b7 94 8f bc f9 6a e1 bc
       -0.031158803 -0.14635469 -0.017526967 -0.027516829
000030 35 29 96 bc 74 fa e2 b9 1a 9a 12 bc c8 71 92 3a
       -0.018330196 -0.0004329268 -0.0089478735 0.0011172825
000040 9b 8b ee bc aa ac b9 bc 4c 63 1d bd fb cb 18 3b
       -0.029119303 -0.02266534 -0.038424775 0.0023314941
000050 a1 f9 08 3d 28 2a 37 bd cd 26 32 3c c7 3c 1f bd
       0.03344119 -0.044717938 0.010873509 -0.03887632
000060 af 0d 12 be b6 ec 1e bc bf 9d 19 3c 95 56 38 bd
       -0.14263032 -0.009699991 0.0093759885 -0.045004446
000070 72 70 18 3d 0b 91 e8 ba 38 3c 1e bd bb 5c 8e bc
       0.03721661 -0.0017743421 -0.038631648 -0.017378202
000080 da 00 dd bb ba bd 06 bd 0c d8 3b 3d 4a 5a 0a bc
       -0.0067444863 -0.03289578 0.045860335 -0.008444378
000090 a5 02 89 bc 24 b1 2f 3d 5f 8f 91 bb 50 a0 00 bd
       -0.016724894 0.042893544 -0.00444214 -0.031402886
0000a0 63 32 5a ba 28 99 93 bc 7d 07 0c bd cd 75 41 3c
       -0.0008323548 -0.018017367 -0.03418683 0.011807871
0000b0 d9 01 aa bd de 3f 0d be 25 93 36 3c 04 f6 a1 3c
       -0.08301134 -0.13793895 0.01114348 0.01977063
0000c0 ee 7a 67 3c 18 65 8d bc b7 4e 30 3c 55 b3 1b bd
       0.01412843 -0.01726012 0.010760955 -0.03801282
0000d0 ce 02 2c bb 86 54 1e bd 33 1f 40 ba 0e d4 0c be
       -0.002624679 -0.038654827 -0.0007328868 -0.13752767
0000e0 55 6d af bd 16 e1 47 3d cb a9 62 bc 3b ba d5 bc
       -0.08565775 0.048798643 -0.013834427 -0.026089778
0000f0 47 89 38 bc b4 a5 ae bc 4a e8 f6 bd 65 33 6e 3c
       -0.011263198 -0.021319248 -0.120560244 0.014538621
000100 87 5a fd 3c 5e d1 5d 3b 2e ae ac bc b2 72 02 3d
       0.030926956 0.0033846716 -0.02107915 0.031847663
000110 b3 4d a0 3b 66 c7 f6 3b 4e 93 80 bc 15 a1 82 3c
       0.004892075 0.0075310944 -0.01569524 0.01594595
000120 a8 a6 83 3c f6 96 6b 3c f7 c1 0d 3d 4c 44 28 bd
       0.016070679 0.014379254 0.034608807 -0.041080758
000130 4f 60 ac 3c 51 e5 af 3b 7a 87 f9 bc 65 41 25 3d
       0.021042017 0.005367913 -0.030460108 0.04034557
000140 a9 96 0e bd f5 7e 14 3d 7f 48 79 3b 13 3e 53 38
       -0.03481165 0.03625389 0.0038037596 5.036413e-05
000150 5e b0 61 ba 1b 6b 0d bc d3 50 c5 3c 19 d9 c5 bd
       -0.00086093496 -0.008631493 0.024086392 -0.09660549
000160 4a 7b 0a bd 92 61 e3 3c 4b b8 75 3b d8 0c 39 bd
       -0.033808984 0.027756486 0.003749388 -0.045178264
000170 49 81 ec bc 0f 39 ac bd 95 26 eb bc ba b6 e9 bc
       -0.028870242 -0.084093206 -0.02870492 -0.028529514
000180 5b c2 65 3c 22 54 ac bc e9 1d bc 3c ec 70 19 3c
       0.014023389 -0.021036211 0.022963481 0.009365302
000190 a0 dc a1 3b d3 70 2a bc ee 9b 4c bc bd 56 93 bc
       0.0049396306 -0.010402876 -0.012488348 -0.017985696
0001a0 39 f5 58 3d 29 f0 bf 3c 54 8a ee bc 56 87 d4 bc
       0.052968238 0.023429947 -0.029118694 -0.02594344
0001b0 a0 a1 0e 3d 19 99 f0 3b a4 7a 90 ba 94 bc 23 3c
       0.034822106 0.0073424694 -0.0011022878 0.009993691
0001c0 64 39 36 3c df 9d 3d 3d 7b bd 6b 3d 85 68 8a 3c
       0.011122081 0.046293136 0.05755375 0.016895542
0001d0 94 ff ff 3c 58 88 a0 3c 22 ee 13 3d 9b c7 e9 3c
       0.031249799 0.019596264 0.036115773 0.028537562
0001e0 ac 0d 35 3c 16 55 ce 3b c1 68 1c bd ed 49 c4 bb
       0.011050623 0.006296764 -0.03818584 -0.005990258
0001f0 a5 83 d9 3b 9a 0b 28 3d c4 c2 a1 3c da 10 9b 3c
       0.0066380077 0.04102669 0.019746192 0.018928934

action_model._continuous_distribution.mu.weight f4 [1, 128]
000000 86 e4 11 3b c7 7b 8a bc bf 72 d6 bc b5 eb 0a bd
       0.0022261455 -0.016904725 -0.026177762 -0.033916194
000010 53 f0 f7 bc 0f c7 12 bd 7f 62 52 3b 2a 04 d0 bc
       -0.030265963 -0.03583437 0.0032102165 -0.02539261
000020 cd d3 3e bd 5d a7 1d bd ec 10 fa bc 54 e1 5c bd
       -0.046588708 -0.03848969 -0.030525647 -0.053925827
000030 12 4e 7f 3c d7 c2 d7 ba 29 0d 6d bc b6 9e 3c 3a
       0.015582578 -0.0016461265 -0.01446847 0.00071952806
000040 67 cf b8 bc b0 f2 73 bd 8c 25 13 bd 22 7b eb bb
       -0.022559835 -0.059557617 -0.03592448 -0.0071863094
000050 a7 85 85 3d 02 25 52 bd 59 59 b1 3c f4 6c 0f bc
       0.06519633 -0.051304825 0.02164905 -0.008754004
000060 6f d6 43 bd 44 d7 78 bc 6b ae 06 3d 93 13 5d bc
       -0.04781192 -0.015188042 0.03288118 -0.013493436
000070 cd f6 62 3d 60 ff 66 3b 0c d7 a0 bc 5a 92 ef 3b
       0.05541115 0.003524743 -0.019633792 0.0073111476
000080 0d dc 6c bc 88 eb 47 bd cf 2e 84 3d 83 38 a6 bb
       -0.014456761 -0.048808604 0.064542405 -0.0050726547
000090 2b 8d 9a 3c 49 4f 7b bc 25 df 97 3b f7 5c 2b bd
       0.018866142 -0.015338727 0.004634755 -0.041836705
0000a0 f3 e0 f4 3c 93 eb 09 bd d6 ec ee bc f7 8e f4 3c
       0.02989242 -0.033671927 -0.029165667 0.029853327
0000b0 eb c6 22 bc fa fc 13 bd c4 a7 ce bb 80 80 1b 3d
       -0.009935121 -0.03612993 -0.0063066203 0.037964344
0000c0 4c 57 23 3c 40 8c ab 3b 50 3c 11 3c 1f e1 65 bd
       0.009969544 0.005235225 0.008864477 -0.056122895
0000d0 0a 9c 72 bc 87 08 c1 bc 78 cd 14 bc 61 bc 21 bd
       -0.01480771 -0.023563636 -0.009082191 -0.039486293
0000e0 1b 1c c3 bc d2 8d 8a 3d 5b 74 7f bd de e4 71 bd
       -0.023817113 0.06765331 -0.062366825 -0.059056155
0000f0 e0 5b a1 bd 69 c8 ac bd a5 3b 3e bd fd e4 c9 bb
       -0.07878852 -0.08436663 -0.0464436 -0.0061613307
000100 d5 53 1b 3c 49 3f cb 39 50 0b 33 bd bb d7 41 3d
       0.009480436 0.00038766328 -0.04371196 0.047324877
000110 84 b7 5d 3c c5 a0 cf 3c f4 d4 7a bc 38 94 80 3b
       0.013532523 0.025345216 -0.015309561 0.003923919
000120 b1 19 14 3d 77 21 53 bc f1 ba 79 3d 55 77 8e bc
       0.036157314 -0.012886397 0.060969297 -0.017390886
000130 0d d1 da 3c 19 06 fe 38 0e 48 05 bd 8d f0 97 3d
       0.026711011 0.000121127996 -0.03253942 0.07418928
000140 46 2e 85 bd d7 63 5c 3d a1 42 11 3d 39 e8 69 3c
       -0.065029666 0.053806152 0.035463933 0.014276558
000150 bc 11 9d 3c 3f b7 bb bd 23 7f f2 3c 11 2e 66 bd
       0.019173495 -0.09165811 0.02960164 -0.056196276
000160 3c 9d 82 3b 09 23 e9 3c ff 9a fd 3c 1a 26 24 bd
       0.003986029 0.028459089 0.030957697 -0.0400754
000170 0a b1 87 bd 1f df 35 bd 2c ec 22 bb 17 cb 54 bd
       -0.066255644 -0.044402238 -0.0024860008 -0.051951494
000180 2e 25 fc 3c 90 be 41 bd 35 9c 30 3d 87 ef e5 bb
       0.030779447 -0.047300875 0.04311772 -0.0070170793
000190 09 7c f9 3c c5 3b 85 bc 5d 78 8a bd 45 f1 31 bd
       0.030454652 -0.016263852 -0.06761239 -0.043442983
0001a0 fe c6 a5 3d 06 9f 43 3d 65 48 f2 bc d2 b7 9b bd
       0.080945954 0.04775908 -0.029575536 -0.0760342
0001b0 57 e7 81 3c 8f 89 5b bc 61 d7 ac 3c a7 e8 c6 bc
       0.015857382 -0.013399496 0.021098794 -0.02428086
0001c0 29 b6 0d 3b 60 02 91 3d 1a 87 86 3d 32 99 4e 3d
       0.0021623468 0.07080531 0.06568737 0.050439067
0001d0 30 7a 41 3d 34 21 aa bb 7f 6c 4b 3d 1c 54 10 3d
       0.047235668 -0.0051919464 0.049664017 0.035236463
0001e0 17 c1 b1 3b d2 63 4a 3c 3f d4 32 bd db cd e6 bb
       0.0054246294 0.012352901 -0.043659445 -0.007043583
0001f0 2d 37 10 3d 28 80 5d 3d 35 c5 61 bc 7f 15 8e 3c
       0.03520887 0.054077297 -0.013779928 0.017344235

exp_avg f4 [128, 15]
000000 6e 48 1b ba 3d 16 1c ba 78 ab 1d ba d9 69 1d ba
       -0.00059235736 -0.00059542415 -0.00060146255 -0.0006004847
000010 dc 7f 14 ba 69 6f 14 ba 53 76 16 ba 99 7e 16 ba
       -0.00056648045 -0.00056623534 -0.00057396776 -0.00057409104
000020 19 68 13 ba 77 6b 13 ba 28 dd 16 ba b3 e4 16 ba
       -0.0005623117 -0.00056236185 -0.0005755001 -0.0005756125
000030 7c 1e 15 ba 7c 1e 15 ba 00 00 00 00 89 d8 99 3b
       -0.00056884415 -0.00056884415 0.0 0.0046950025
000040 9f 53 9a 3b 07 b1 9a 3b 86 9c 9a 3b d6 16 99 3b
       0.0047096754 0.0047208103 0.004718366 0.0046719117
000050 af 0a 99 3b 16 b6 98 3b 07 b7 98 3b cc 44 98 3b
       0.004670463 0.004660378 0.0046604904 0.004646873
000060 1d 45 98 3b 06 c2 98 3b c6 c2 98 3b 01 6e 98 3b
       0.004646911 0.0046618013 0.0046618907 0.0046517854
000070 01 6e 98 3b 00 00 00 00 c5 a9 d8 b9 3f 9b da b9
       0.0046517854 0.0 -0.0004132522 -0.00041695868
000080 9b dc d9 b9 49 b1 d9 b9 a7 56 dc b9 f1 3f dc b9
       -0.0004155383 -0.00041521553 -0.0004202623 -0.0004200931
000090 2f 3b d6 b9 8d 36 d6 b9 55 e9 da b9 8d e6 da b9
       -0.00040861356 -0.00040857904 -0.00041754046 -0.00041751974
0000a0 a1 2f d6 b9 f1 28 d6 b9 8d 80 d9 b9 8d 80 d9 b9
       -0.00040852747 -0.00040847764 -0.00041485243 -0.00041485243
0000b0 00 00 00 00 a1 58 9c ba db 51 9c ba 24 5b 9d ba
       0.0 -0.0011928269 -0.001192625 -0.0012005311
0000c0 4d 56 9d ba 67 05 9a ba 3a 01 9a ba e9 84 9c ba
       -0.0012003869 -0.0011750878 -0.0011749633 -0.0011941466
0000d0 33 89 9c ba 1a a6 99 ba 9e a8 99 ba 4d 99 9c ba
       -0.0011942744 -0.0011722476 -0.0011723225 -0.0011947543
0000e0 12 9f 9c ba a9 ee 9a ba a9 ee 9a ba 00 00 00 00
       -0.0011949262 -0.0011820394 -0.0011820394 0.0
0000f0 73 35 fd 39 1b 9a fd 39 bb 2a fe 39 9d 19 fe 39
       0.00048295743 0.00048370738 0.00048478492 0.0004846574
000100 a3 16 fc 39 59 0d fc 39 8d 54 fc 39 e1 56 fc 39
       0.0004808205 0.0004807513 0.0004812818 0.00048129915
000110 c7 65 fb 39 5b 67 fb 39 3b 5f fc 39 9f 62 fc 39
       0.0004795028 0.00047951457 0.00048136138 0.00048138664
000120 59 32 fc 39 59 32 fc 39 00 00 00 00 e9 26 c7 3a
       0.00048102697 0.00048102697 0.0 0.0015194091
000130 b9 83 c7 3a 01 f2 c7 3a d9 d4 c7 3a 73 d9 c5 3a
       0.0015221752 0.0015254618 0.0015245929 0.0015094712
000140 77 c5 c5 3a 43 23 c5 3a bd 25 c5 3a 07 81 c4 3a
       0.0015088756 0.0015040416 0.0015041154 0.0014992066
000150 fd 81 c4 3a b5 44 c5 3a c7 46 c5 3a ad fc c4 3a
       0.0014992353 0.0015050384 0.0015051 0.0015028917
000160 ad fc c4 3a 00 00 00 00 19 64 81 b9 d5 f8 81 b9
       0.0015028917 0.0 -0.00024679376 -0.00024790192
000170 6b 9c 81 b9 4c 6b 81 b9 34 5f 81 b9 f5 3d 81 b9
       -0.00024721338 -0.0002468474 -0.0002467573 -0.0002465096
000180 93 b3 7a b9 17 b2 7a b9 97 82 7e b9 6d 7f 7e b9
       -0.00023908755 -0.00023908202 -0.00024271976 -0.00024270797
000190 85 f8 7a b9 73 f1 7a b9 a7 ea 7c b9 a7 ea 7c b9
       -0.00023934439 -0.00023931805 -0.00024120008 -0.00024120008
0001a0 00 00 00 00 ad 9e 73 3a 4f d9 74 3a 4f 74 75 3a
       0.0 0.0009293359 0.0009340243 0.00093633396
0001b0 89 3a 75 3a 51 ff 71 3a cf da 71 3a 35 02 70 3a
       0.0009354731 0.00092314655 0.00092260254 0.00091556023
0001c0 29 05 70 3a ed 9f 6f 3a 2d a0 6f 3a b7 44 70 3a
       0.00091560424 0.0009140957 0.00091409945 0.0009165513
0001d0 61 45 70 3a 69 c0 6f 3a 69 c0 6f 3a 00 00 00 00
       0.00091656117 0.0009145798 0.0009145798 0.0
0001e0 4c 60 d7 b9 6a d4 d7 b9 04 8b d8 b9 42 6d d8 b9
       -0.00041079742 -0.00041166256 -0.00041302305 -0.00041280134
0001f0 1e 56 d5 b9 62 43 d5 b9 9a 90 d5 b9 d4 93 d5 b9
       -0.00040690688 -0.0004067673 -0.00040734262 -0.00040736666
000200 1e 08 d4 b9 c0 09 d4 b9 b4 ac d5 b9 54 b0 d5 b9
       -0.0004044184 -0.00040443055 -0.000407552 -0.000407579
000210 2a da d4 b9 2a da d4 b9 00 00 00 00 c1 b6 f1 ba
       -0.00040598336 -0.00040598336 0.0 -0.0018441306
000220 db 56 f1 ba 1b 75 f2 ba f7 5c f2 ba 31 ab ed ba
       -0.0018412726 -0.0018498035 -0.001849084 -0.0018132684
000230 ab 9d ed ba 0d d2 ef ba f5 d5 ef ba 83 c9 ec ba
       -0.0018128654 -0.0018296853 -0.0018298017 -0.0018065426
000240 93 ca ec ba 7b 02 f0 ba 67 05 f0 ba 43 52 ed ba
       -0.0018065743 -0.0018311286 -0.0018312157 -0.0018106181
000250 43 52 ed ba 00 00 00 00 1e 6f 57 bb 56 12 58 bb
       -0.0018106181 0.0 -0.0032872627 -0.0032969913
000260 6a 72 58 bb 1a 68 58 bb e6 fe 55 bb d2 fe 55 bb
       -0.003302718 -0.0033021034 -0.0032653152 -0.0032653105
000270 54 22 57 bb 14 25 57 bb ca ff 55 bb e6 00 56 bb
       -0.0032826858 -0.0032828497 -0.0032653683 -0.0032654344
000280 d2 43 57 bb 52 46 57 bb 0e 8f 56 bb 0e 8f 56 bb
       -0.003284682 -0.003284831 -0.0032739076 -0.0032739076
000290 00 00 00 00 d5 a9 f7 b9 25 22 fa b9 9f 7c f8 b9
       0.0 -0.00047238046 -0.00047709155 -0.00047395096
0002a0 e9 f3 f7 b9 0b fe f8 b9 cd a7 f8 b9 ef 90 ec b9
       -0.00047293238 -0.00047491523 -0.00047427267 -0.00045121412
0002b0 8b 8e ec b9 b9 63 f3 b9 c7 60 f3 b9 c7 cf ec b9
       -0.0004511963 -0.0004642287 -0.00046420677 -0.00045168234
0002c0 79 c8 ec b9 4b e4 f1 b9 4b e4 f1 b9 00 00 00 00
       -0.00045162792 -0.00046137194 -0.00046137194 0.0
0002d0 a7 72 21 3b ed ee 21 3b 5d 35 22 3b 51 22 22 3b
       0.0024634989 0.0024709061 0.0024751045 0.0024739692
0002e0 f9 f7 20 3b cf ec 20 3b e8 60 20 3b c0 61 20 3b
       0.0024561866 0.0024555211 0.0024471823 0.0024472326
0002f0 8b 37 20 3b db 37 20 3b 75 6d 20 3b 1f 6e 20 3b
       0.0024447169 0.0024447355 0.0024479304 0.00244797
000300 53 5f 20 3b 53 5f 20 3b 00 00 00 00 b2 ea b9 3a
       0.002447088 0.002447088 0.0 0.0014184325
000310 46 54 ba 3a 5e 8b ba 3a 4e 7b ba 3a ea e4 b9 3a
       0.0014215789 0.0014232208 0.0014227421 0.0014182602
000320 88 d8 b9 3a 66 13 b9 3a 60 14 b9 3a 90 0c b9 3a
       0.0014178911 0.0014120161 0.0014120452 0.0014118124
000330 08 0d b9 3a 26 1f b9 3a 1e 20 b9 3a 66 4a b9 3a
       0.0014118263 0.0014123663 0.0014123952 0.0014136552
000340 66 4a b9 3a 00 00 00 00 c8 ec d0 ba 80 60 d1 ba
       0.0014136552 0.0 -0.0015939707 -0.0015974194
000350 04 67 d2 ba d4 41 d2 ba d2 75 ce ba 84 60 ce ba
       -0.001605243 -0.0016041347 -0.0015751666 -0.0015745317
000360 26 ac ce ba 50 af ce ba 12 09 cd ba 22 0a cd ba
       -0.0015767857 -0.00157688 -0.0015642962 -0.0015643279
000370 86 d4 ce ba 0a d7 ce ba ce 92 cd ba ce 92 cd ba
       -0.001577989 -0.0015780639 -0.001568401 -0.001568401
000380 00 00 00 00 f8 a5 84 39 c4 a8 85 39 23 52 85 39
       0.0 0.00025300658 0.00025493477 0.00025428933
000390 31 3e 85 39 5e 90 86 39 9b 84 86 39 94 99 83 39
       0.00025414073 0.00025666034 0.0002565727 0.00025100692
0003a0 c8 98 83 39 86 d0 85 39 fa cf 85 39 75 a5 83 39
       0.00025100098 0.000255231 0.0002552269 0.00025109542
0003b0 d2 a3 83 39 e2 89 85 39 e2 89 85 39 00 00 00 00
       0.00025108323 0.00025470468 0.00025470468 0.0
0003c0 9e 01 84 ba a5 94 84 ba 1f ca 84 ba fa 9a 84 ba
       -0.0010071283 -0.00101151 -0.0010131038 -0.0010116987
0003d0 7c b0 82 ba 5d 91 82 ba c2 71 80 ba 68 74 80 ba
       -0.0009970809 -0.0009961535 -0.0009799527 -0.0009800317
0003e0 38 a4 80 ba d5 a4 80 ba b5 a7 80 ba ea a8 80 ba
       -0.0009814566 -0.0009814749 -0.0009815606 -0.0009815965
0003f0 66 f3 80 ba 66 f3 80 ba 00 00 00 00 37 54 86 ba
       -0.0009838163 -0.0009838163 0.0 -0.0010248487

exp_avg_sq f4 [128, 15]
000000 e9 4a 6c 37 7f d5 04 38 91 31 7d 38 4d 85 80 38
       1.4084138e-05 3.1670086e-05 6.0366063e-05 6.128345e-05
000010 53 6e 3e 39 60 71 3e 39 e9 cb e5 38 90 23 e6 38
       0.00018160911 0.00018162047 0.00010957552 0.00010973879
000020 0a c1 48 39 3d c1 48 39 82 31 d6 38 02 92 d6 38
       0.00019145399 0.00019145473 0.00010213537 0.00010231511
000030 2e 8b 4a 39 ee 89 4a 39 00 00 00 00 e5 b2 2a 3a
       0.0001931607 0.00019315604 0.0 0.0006511643
000040 2c e0 41 3a 3a 3f 8c 3a a5 9f 8c 3a 98 53 ac 3a
       0.000739577 0.0010699995 0.001072873 0.0013147471
000050 2c 5c ac 3a c5 4d 9e 3a 35 6e 9e 3a 28 81 b0 3a
       0.0013150028 0.001207762 0.0012087288 0.0013466226
000060 f1 80 b0 3a 2c a1 74 3a 53 d6 74 3a 4d 75 b0 3a
       0.0013466162 0.0009331878 0.0009339798 0.0013462693
000070 95 75 b0 3a 00 00 00 00 85 c4 bd 36 f3 27 37 37
       0.0013462777 0.0 5.655517e-06 1.0916951e-05
000080 f4 4b 1b 37 13 a5 1e 37 44 72 3b 38 eb 9d 3b 38
       9.256404e-06 9.455968e-06 4.4690692e-05 4.4731347e-05
000090 98 7a 05 37 d5 0d 07 37 41 8d 3d 38 a4 8b 3d 38
       7.955961e-06 8.049848e-06 4.5192664e-05 4.5191162e-05
0000a0 78 aa 02 37 34 b5 03 37 2c 13 3e 38 b8 12 3e 38
       7.788294e-06 7.850398e-06 4.5317385e-05 4.5316963e-05
0000b0 00 00 00 00 ab 5b 0d 39 70 72 39 39 dc e3 78 39
       0.0 0.00013480957 0.00017685606 0.00023736007
0000c0 2b 8c 7a 39 d1 70 ec 39 b4 a8 ec 39 10 db 41 39
       0.00023894075 0.00045097483 0.0004513912 0.00018487521
0000d0 ea 43 43 39 4a d6 f0 39 c5 d1 f0 39 57 a0 63 38
       0.00018621949 0.00045936025 0.00045932658 5.4270346e-05
0000e0 0b 99 67 38 11 e8 f0 39 d8 e7 f0 39 00 00 00 00
       5.5217224e-05 0.0004594927 0.00045949104 0.0
0000f0 96 44 ff 36 64 fb 08 37 ad b2 21 37 f8 34 22 37
       7.6075767e-06 8.164763e-06 9.637949e-06 9.668285e-06
000100 7b 26 46 37 84 31 46 37 56 e4 2a 37 b0 14 2b 37
       1.1810679e-05 1.1813248e-05 1.0185953e-05 1.0197211e-05
000110 4c 58 48 37 8e 55 48 37 6c cb e5 36 7f 13 e6 36
       1.1941487e-05 1.1940849e-05 6.8484132e-06 6.856804e-06
000120 26 83 48 37 09 84 48 37 00 00 00 00 71 81 8c 38
       1.1951464e-05 1.1951671e-05 0.0 6.6998306e-05
000130 7b b8 98 38 07 f4 b5 38 83 cd b6 38 61 58 f2 38
       7.282287e-05 8.676206e-05 8.716716e-05 0.00011555921
000140 44 77 f2 38 86 0b d5 38 3a 55 d5 38 10 c6 01 39
       0.00011561674 0.00010158778 0.00010172506 0.00012376183
000150 a6 c5 01 39 64 1d b6 38 c0 5d b6 38 b3 09 02 39
       0.00012376028 8.683911e-05 8.6958986e-05 0.0001240138
000160 ee 09 02 39 00 00 00 00 8b 35 de 35 c1 87 11 36
       0.00012401465 0.0 1.6555872e-06 2.1685703e-06
000170 ea b0 e4 35 87 78 e9 35 37 d2 f4 36 29 52 f5 36
       1.7038813e-06 1.7394931e-06 7.296239e-06 7.3111337e-06
000180 da 05 81 36 c7 3c 81 36 88 b8 0b 37 10 b7 0b 37
       3.845181e-06 3.851575e-06 8.32801e-06 8.327668e-06
000190 28 f7 84 36 6e 1b 85 36 c4 88 0c 37 72 88 0c 37
       3.9626793e-06 3.966902e-06 8.3764935e-06 8.376419e-06
0001a0 00 00 00 00 66 0f 9b 37 b5 e2 c5 37 26 6d 3a 38
       0.0 1.848461e-05 2.3589799e-05 4.4447508e-05
0001b0 e6 2e 3b 38 43 1e 7a 38 06 33 7a 38 e0 31 7d 38
       4.4627952e-05 5.963283e-05 5.9652164e-05 6.036635e-05
0001c0 57 24 7d 38 bd 25 8a 38 00 26 8a 38 3f c6 83 38
       6.0353745e-05 6.587382e-05 6.587431e-05 6.283493e-05
0001d0 b8 c9 83 38 54 3f 8a 38 6c 3f 8a 38 00 00 00 00
       6.28414e-05 6.5921486e-05 6.592166e-05 0.0
0001e0 b9 ba 93 36 c8 d0 b5 36 5b 3a f6 36 0e 81 f7 36
       4.4026788e-06 5.4185257e-06 7.338165e-06 7.3761976e-06
0001f0 ed d5 4c 37 5b ec 4c 37 31 25 05 37 f8 6b 05 37
       1.2209156e-05 1.2214378e-05 7.936077e-06 7.952556e-06
000200 71 9a 53 37 4c 9a 53 37 4f 36 f3 36 8e a8 f3 36
       1.2612539e-05 1.2612505e-05 7.2482867e-06 7.2615867e-06
000210 6e cc 54 37 de cc 54 37 00 00 00 00 62 27 1c 39
       1.2683782e-05 1.2683884e-05 0.0 0.0001489199
000220 e7 24 41 39 96 e6 14 39 2f ba 17 39 1a 66 dd 39
       0.00018419662 0.0001420028 0.00014469841 0.00042228476
000230 fc 99 dd 39 d0 2e 14 39 4c 90 15 39 3f db e4 39
       0.00042267132 0.00014131819 0.00014263502 0.000436509
000240 52 da e4 39 b6 df e3 38 91 d0 e5 38 ef c5 e4 39
       0.0004365021 0.00010865873 0.000109584194 0.0004363502
000250 f0 c5 e4 39 00 00 00 00 87 d1 9d 39 73 c1 b7 39
       0.00043635024 0.0 0.00030101484 0.0003504861
000260 66 fe 07 3a 78 7b 08 3a fb 36 38 3a f1 42 38 3a
       0.00051877496 0.00052063866 0.00070272357 0.0007029018
000270 0f da 06 3a ca 2e 07 3a a1 56 3d 3a c8 55 3d 3a
       0.00051441876 0.00051568134 0.00072226865 0.000722256
000280 fd ea e7 39 0b 70 e8 39 b2 9c 3d 3a 4c 9d 3d 3a
       0.00044234833 0.00044333967 0.0007233127 0.0007233217
000290 00 00 00 00 d0 01 0e 37 ba 51 87 37 9b 00 3a 37
       0.0 8.464282e-06 1.6131311e-05 1.1086605e-05
0002a0 48 64 40 37 dd 95 af 38 67 b7 af 38 c8 fd ed 37
       1.146744e-05 8.3725645e-05 8.3788116e-05 2.8370778e-05
0002b0 42 c0 ee 37 bc a0 b9 38 9f 9f b9 38 34 d7 e5 37
       2.8461338e-05 8.8514265e-05 8.851219e-05 2.7399139e-05
0002c0 19 52 e6 37 59 d6 b9 38 f3 d5 b9 38 00 00 00 00
       2.7456366e-05 8.861413e-05 8.8613386e-05 0.0
0002d0 3f 09 1a 39 20 d1 28 39 c5 58 5e 39 3a e2 5e 39
       0.00014690029 0.00016099634 0.00021204639 0.00021255846
0002e0 46 f2 81 39 c4 f8 81 39 1e 17 81 39 58 20 81 39
       0.00024785305 0.00024790142 0.0002462202 0.00024628895
0002f0 ca 8e 85 39 23 8f 85 39 f8 fa 6c 39 01 0f 6d 39
       0.00025474123 0.00025474382 0.00022600207 0.0002260767
000300 02 a2 85 39 d5 a2 85 39 00 00 00 00 e1 15 59 38
       0.00025488442 0.00025489056 0.0 5.1757208e-05
000310 77 09 63 38 00 23 85 38 80 3b 85 38 8d 42 8b 38
       5.4129832e-05 6.3484535e-05 6.353017e-05 6.6404325e-05
000320 02 49 8b 38 e4 6b 8d 38 aa 6f 8d 38 e8 aa 8f 38
       6.641635e-05 6.7435e-05 6.744203e-05 6.850605e-05
000330 a3 aa 8f 38 70 5b 6d 38 eb 64 6d 38 6b ac 8f 38
       6.850555e-05 5.659036e-05 5.659919e-05 6.850887e-05
000340 51 ad 8f 38 00 00 00 00 82 48 d0 38 ca 0a 01 39
       6.851054e-05 0.0 9.9317185e-05 0.00012306418
000350 b1 53 33 39 45 58 34 39 c3 3a 94 39 2f 4e 94 39
       0.00017101948 0.0001719902 0.0002827254 0.0002828701
000360 ca b5 54 39 ea 11 55 39 85 5d 9b 39 b6 5c 9b 39
       0.00020285617 0.00020319936 0.0002963358 0.0002963298
000370 e1 49 10 39 14 93 10 39 c8 5b 9b 39 cc 5b 9b 39
       0.00013760432 0.00013787701 0.00029632286 0.00029632298
000380 00 00 00 00 a4 1f 41 36 6b 62 8d 36 70 cb 56 36
       0.0 2.8777658e-06 4.213585e-06 3.2006901e-06
000390 55 d8 5c 36 7f 31 4c 37 dd 57 4c 37 97 40 38 36
       3.2908476e-06 1.2170872e-05 1.2179805e-05 2.7455733e-06
0003a0 e3 ab 3b 36 62 12 4e 37 5d 11 4e 37 b3 bb 35 36
       2.7965223e-06 1.2282837e-05 1.22825995e-05 2.7080357e-06
0003b0 7a f0 37 36 b3 18 4e 37 3f 17 4e 37 00 00 00 00
       2.74091e-06 1.2284308e-05 1.2283969e-05 0.0
0003c0 40 fe cb 37 f7 87 f2 37 d0 a3 55 38 54 f5 56 38
       2.431788e-05 2.8911962e-05 5.093572e-05 5.1250056e-05
0003d0 5a 7c a6 38 ca 95 a6 38 ec a4 b9 38 5b 95 b9 38
       7.938659e-05 7.943397e-05 8.8522065e-05 8.849307e-05
0003e0 8e 54 cd 38 45 55 cd 38 63 6c ba 38 88 75 ba 38
       9.790911e-05 9.7910444e-05 8.88936e-05 8.891063e-05
0003f0 95 1b ce 38 4b 1b ce 38 00 00 00 00 55 17 37 38
       9.827983e-05 9.827929e-05 0.0 4.365233e-05

exp_avg f4 [128]
000000 7c 1e 15 ba 00 6e 98 3b 8a 80 d9 b9 af ee 9a ba
       -0.00056884415 0.004651785 -0.00041485234 -0.0011820401
000010 59 32 fc 39 b0 fc c4 3a a9 ea 7c b9 6d c0 6f 3a
       0.00048102697 0.001502892 -0.0002412001 0.00091458
000020 33 da d4 b9 3d 52 ed ba 0e 8f 56 bb 50 e4 f1 b9
       -0.00040598362 -0.0018106174 -0.0032739076 -0.00046137208
000030 54 5f 20 3b 6c 4a b9 3a cf 92 cd ba e4 89 85 39
       0.0024470882 0.0014136559 -0.0015684011 0.00025470473
000040 63 f3 80 ba 84 20 81 ba f9 ce 8a b8 cc 88 6f b9
       -0.000983816 -0.0009851609 -6.6189044e-05 -0.00022843777
000050 8d 62 67 b9 02 c2 00 39 05 9d a4 b9 bc 0b e0 3a
       -0.0002206659 0.00012279305 -0.00031397506 0.0017093341
000060 c5 9c f3 37 f6 fc c0 39 8e 93 e1 3a 55 6e f9 b7
       2.9040859e-05 0.00036809564 0.0017210112 -2.973449e-05
000070 88 50 0e ba 60 6c a2 3a b2 e6 6f 39 05 8a fa 3a
       -0.000542887 0.0012391917 0.00022878757 0.0019114619
000080 ce 06 c0 3b 9b ab 52 b9 96 26 5e 39 68 c4 a4 3b
       0.005860186 -0.00020091089 0.00021185944 0.0050282963
000090 83 8b c0 b9 3b 33 8c bb 44 78 59 3b 56 5f cf b9
       -0.00036725038 -0.004278568 0.0033183256 -0.00039553148
0000a0 74 4a 9c 3a d1 e4 f2 ba f2 51 76 3b 31 38 6c 3a
       0.0011924044 -0.0018531327 0.0037585464 0.0009011059
0000b0 8e e1 1f 3b e7 e3 ac b9 fb 67 1e ba 1f 66 39 39
       0.0024395916 -0.00032976197 -0.0006042716 0.00017681018
0000c0 27 0e f6 39 c5 18 65 ba 52 2d 4d ba 36 62 b1 39
       0.0004693132 -0.00087393477 -0.00078268826 0.00033833244
0000d0 f1 8f 8d ba d2 14 76 b8 41 8f f5 3a 88 a5 de ba
       -0.0010800344 -5.867036e-05 0.001873471 -0.0016986588
0000e0 de 4d ef 3a 7a 94 2e b9 17 a3 ff b9 27 ec 6e 3a
       0.0018257459 -0.00016649245 -0.00048758902 0.0009114169
0000f0 4e 73 a7 3b af f9 f6 3a e2 a6 81 3b 9b 3e 80 ba
       0.005110181 0.0018842722 0.0039566616 -0.0009784283
000100 3c c2 b5 ba c7 77 82 bb 3b f7 b0 b8 5d e3 1b ba
       -0.001386709 -0.0039815637 -8.438384e-05 -0.00059466605
000110 b3 a9 d2 b9 cf c1 30 3b 0e 7e 74 bb 08 28 38 3b
       -0.00040180757 0.0026970988 -0.003730658 0.0028100032
000120 13 8d c0 3a ba c4 b6 3b 65 ad a1 3b 17 d1 8f 3a
       0.0014690481 0.005577651 0.0049340003 0.0010972348
000130 27 fe b9 39 69 ce 79 3a dc d8 b3 ba f0 46 c3 b9
       0.00035475308 0.00095293537 -0.0013721245 -0.0003724615
000140 f2 76 44 b9 95 d5 21 ba a0 89 99 39 d9 f9 1b bb
       -0.00018736327 -0.0006173489 0.00029284973 -0.0023800044
000150 25 c0 9b 3b 4d db 9b ba 5d f2 c4 3a e7 53 01 3b
       0.00475313 -0.0011890918 0.0015025843 0.0019733848
000160 61 f8 7a b9 09 b1 94 3a 01 75 0f 3b 3c 1a c4 3b
       -0.00023934386 0.0011344264 0.0021889808 0.0059845727
000170 98 19 fb ba 72 d5 87 3b ab 65 c6 3a 05 45 ec b8
       -0.0019157408 0.0041453177 0.0015136501 -0.00011266213
000180 4f 1b 99 3b 6c df 6d 3a d5 8b 7e ba c0 24 87 3b
       0.004672445 0.0009074125 -0.00097101677 0.004124254
000190 86 b2 87 b9 3b 48 a1 3b aa 43 3c ba a4 d5 86 3a
       -0.00025882217 0.0049219406 -0.00071817136 0.0010287059
0001a0 a7 64 b3 3b d8 17 f1 ba 0d b3 ed ba 50 c7 56 3b
       0.005474645 -0.0018393947 -0.0018135026 0.0032772608
0001b0 e2 77 9f b9 e4 9b 2a ba 52 f7 81 3a 5d d8 36 3a
       -0.00030416163 -0.0006508215 0.0009915626 0.00069749897
0001c0 0e 79 46 3b a0 40 91 b8 75 0e 15 3a 47 77 fd ba
       0.0030284557 -6.926176e-05 0.0005686053 -0.0019337916
0001d0 87 5e 37 39 bc a5 84 3b 34 93 21 bb 20 b1 bc b9
       0.00017487454 0.0040480774 -0.002465439 -0.00035990123
0001e0 23 52 17 3b 98 49 26 bb 20 c0 41 b8 11 02 7b ba
       0.0023089729 -0.0025373455 -4.6193716e-05 -0.0009575198
0001f0 49 46 1d 3b 35 a0 29 bb 1c 2b 46 3a be 69 40 3b
       0.0023998192 -0.0025882844 0.00075595244 0.0029359902

exp_avg_sq f4 [128]
000000 77 92 4d 39 0e c0 b0 3a 4b fc 3d 38 22 33 f2 39
       0.00019604886 0.0013484971 4.5296078e-05 0.00046195934
000010 05 59 49 37 77 9d 02 39 89 a4 0c 37 f2 92 8b 38
       1.200126e-05 0.00012456426 8.382959e-06 6.655407e-05
000020 71 57 56 37 46 9b e5 39 13 ea 3e 3a 49 1c ba 38
       1.2775753e-05 0.0004379397 0.00072828046 8.87444e-05
000030 23 dd 86 39 90 88 90 38 ae 3d 9c 39 79 1d 4f 37
       0.0002572323 6.891892e-05 0.00029800594 1.2345024e-05
000040 85 32 cf 38 4c d4 7e 39 46 12 b9 37 13 b3 81 36
       9.879939e-05 0.00024302414 2.2062228e-05 3.8653466e-06
000050 bf 4f 81 36 d4 dd f5 37 f4 46 d3 36 0f 5c 03 39
       3.8537833e-06 2.9309573e-05 6.29655e-06 0.00012527428
000060 5d 0f 04 37 e1 6a d0 39 12 5b 67 39 7d c5 97 35
       7.87139e-06 0.00039752483 0.00022063803 1.1307853e-06
000070 75 4e 08 38 cc 6b a7 38 77 62 2d 38 fc 4d be 39
       3.2497996e-05 7.983259e-05 4.1338117e-05 0.00036297727
000080 a6 01 e0 3a c3 3d 1f 37 43 a4 63 37 c1 b1 98 3a
       0.0017090335 9.4915185e-06 1.35684995e-05 0.0011649654
000090 91 58 c4 38 99 c0 a5 3a df 33 34 3a 0c e5 35 37
       9.362505e-05 0.00126459 0.00068741845 1.084177e-05
0000a0 f5 7a 0c 39 8a c1 a6 3a 88 6c 22 3a 56 01 8b 38
       0.00013397245 0.0012722474 0.0006195982 6.628285e-05
0000b0 57 f9 90 39 8a dc 8a 37 e7 45 8b 38 95 76 17 37
       0.00027651593 1.6553578e-05 6.641057e-05 9.027911e-06
0000c0 bf 42 87 37 b3 85 3f 39 f5 9f 1c 3a 4c e5 4a 37
       1.6124335e-05 0.00018264986 0.0005974763 1.2093526e-05
0000d0 3b 16 f9 38 35 44 c2 36 48 05 07 39 d0 07 ef 39
       0.00011877386 5.789591e-06 0.0001287657 0.00045591453
0000e0 49 66 1a 39 de ff 2b 39 78 70 be 37 bf 73 28 38
       0.00014724689 0.00016403149 2.2702137e-05 4.016212e-05
0000f0 6e 1c 8c 3a 3a ba 9e 39 ae be 32 3a d7 2d f2 38
       0.0010689625 0.00030274858 0.00068185746 0.000115479976
000100 9f 74 a8 39 28 b6 b7 3a 70 0e 95 35 59 c1 2e 38
       0.00032130347 0.0014016079 1.1105567e-06 4.16649e-05
000110 24 c7 32 38 02 29 2b 3a ee 91 e1 3a 60 4a d6 39
       4.262397e-05 0.0006529243 0.0017209628 0.00040872674
000120 49 02 4e 39 2f 6f e7 3a 50 c7 a1 3a 87 31 c5 38
       0.00019646542 0.0017657037 0.0012342725 9.402917e-05
000130 05 99 c6 38 b5 f9 35 39 0b 6f 45 3a 0c ca f1 37
       9.469878e-05 0.00017354528 0.00075315003 2.8823524e-05
000140 10 8e c3 37 60 b3 c1 38 41 53 d6 36 a9 b5 07 3a
       2.3311964e-05 9.236368e-05 6.387389e-06 0.0005176911
000150 73 29 9d 3a 79 6a ee 38 15 40 1a 39 2a 9a ac 39
       0.0011990502 0.000113685564 0.00014710457 0.00032921258
000160 e5 d1 b9 36 4c 3d cd 38 87 f8 21 3a af d5 10 3b
       5.5378646e-06 9.786579e-05 0.0006178696 0.0022100022
000170 c6 6e 61 3a 95 f6 7f 3a c5 fd ea 38 1f da 2d 36
       0.00085995754 0.00097642216 0.00011205258 2.5905972e-06
000180 7c c1 92 3a 74 8e 3c 38 f1 17 21 38 2f 39 9e 3a
       0.0011196579 4.4955363e-05 3.840769e-05 0.0012071485
000190 26 d8 bb 38 60 5e c0 3a 98 c6 b3 38 a8 a3 e8 38
       8.957116e-05 0.0014676563 8.572376e-05 0.000110931054
0001a0 1e a6 9b 3a b0 fb 62 39 ca c0 97 39 3f 42 2d 3a
       0.0011875068 0.000216468 0.00028944603 0.00066092977
0001b0 fb 5b 19 38 c1 bb c4 37 22 98 4a 38 26 2d 07 38
       3.6563706e-05 2.345245e-05 4.8302238e-05 3.2228556e-05
0001c0 7d 97 c8 39 33 a8 b9 37 93 3a 04 38 0c c1 62 3a
       0.0003825984 2.2132042e-05 3.1525804e-05 0.0008649982
0001d0 d1 74 fd 35 34 b0 3c 3a cd 38 15 3a 98 4c 75 39
       1.8883967e-06 0.0007197887 0.0005692363 0.00023393554
0001e0 b6 9a 9a 39 be dd 08 3a 0b 40 2b 35 e6 b5 32 39
       0.00029488438 0.00052210304 6.379566e-07 0.00017043165
0001f0 43 dd 4a 3a cb c8 26 3a 0e 62 27 39 ca c1 f9 39
       0.0007738659 0.0006362318 0.0001596289 0.00047637365
