results/Try4/jumper.onnx (onnx, 76764 bytes, 5 tensors)

action_model._continuous_distribution.mu.weight f4 [1, 128]
00000000: 7239 83bc 70da 953c 262a 6cbc e0e1 dfbc
00000010: 625f f0bc 6b0f 24bd 7b78 f33b 785b f7bc
00000020: 0697 d6bc 8a20 43bd d92e fdbc 1ca3 26bd
00000030: 2f79 833a 108d 983b d75e bd3b 1cc8 0d3c
00000040: ec86 4fbc 7bad 19bd c7ed f2bc bd82 863c
00000050: 15cf 793d 22c5 1cbd 1159 f53c 835b 933a
00000060: 6bfa 74bd 9e06 183c 2c07 e8bb 3d12 d0bc
00000070: c741 6a3d 3429 8abb 9fee 09bd 3de8 893b
00000080: 4f11 45ba a058 22bd 499b 823d dd7d 713b
00000090: 5335 50bc 92bb 61ba 8082 943b c12b 01bd
000000a0: d5ac 163d 0732 c1bc aa14 b4bc f49b ffbb
000000b0: 2886 abbc 01d8 53bd c5eb f43b 55b6 163d
000000c0: 8260 e6bb dc02 d43c cd08 b53c b4ad 18bd
000000d0: e07a b13b 8cac f3bc 3aaf 963b a54b 2dbd
000000e0: 1373 e8bc 344c 8d3d 6d72 16bd dcea 4bbd
000000f0: d8ce 6dbd 8877 7abd 91c6 3ebd 94e0 063c
00000100: 7389 2ebc 8afc f53b 9302 e5bc 9f4d 413d
00000110: c766 343b 9def e03c 0a55 9c3c e02e dabb
00000120: 4ea5 323d 0240 6e3b fe87 733d 9128 15bd
00000130: 9686 9dba 13be 30bc d229 b8bc fc13 923d
00000140: a758 3cbd 0ab4 383d e52c 2b3d 1b98 023d
00000150: bb7b aa3c 1801 86bd f729 aabb 3f8f a2bd
00000160: 3a30 82bc 46ba 1cbc fd29 c83c b446 d0bc
00000170: 567b 35bd 9917 b2bd 281b be3b 1b34 f4bc
00000180: d17f b13c 03ac 00bd 594a 353d ff7d 843c
00000190: 642f 233d 7325 9c3b 05d8 63bd 0b91 16bd
000001a0: b123 a33d 8d48 4d3d 3fa1 9bbc bb44 5dbd
000001b0: 948f 06bc 2d71 cd3a ff38 f63c 5b9a e2b9
000001c0: 3026 833c df5c 963d bd66 8a3d ce82 573d
000001d0: 1f0f 4c3d debe d53b a0ef 703d de48 d9bb
000001e0: 8f96 ad3a f3a1 2e3b eb43 f5bc 5581 77ba
000001f0: 127f 5bbb b7d4 7b3d 0d89 063c 0c8f 403b
-0.016018603 0.018292636 -0.014414346 -0.027329385 -0.029342357 -0.040053766 0.007430134 -0.030194983
-0.02619506 -0.047638454 -0.030906128 -0.040682897 0.0010030622 0.004655488 0.005779128 0.008653667
-0.012666445 -0.03751896 -0.029654397 0.016419763 0.060988504 -0.038273938 0.029949697 0.0011242483
-0.05980913 0.009278921 -0.007080933 -0.025399322 0.057191636 -0.0042163376 -0.033674832 0.004208593
-0.0007517533 -0.0396353 0.063772745 0.0036848702 -0.012708026 -0.0008611019 0.0045321584 -0.031535868
0.03678592 -0.023583425 -0.02198251 -0.0078005735 -0.020937994 -0.05171967 0.007474395 0.03679498
-0.0070305476 0.02588027 0.022098923 -0.03727503 0.005416259 -0.029745363 0.0045985254 -0.04230847
-0.028375184 0.068993 -0.03673022 -0.049784526 -0.05805859 -0.06114915 -0.046576086 0.008232255
-0.010652888 0.0075069116 -0.027955329 0.047193166 0.002752708 0.027458007 0.019083519 -0.00665842
0.043614678 0.003635407 0.059455864 -0.03641564 -0.0012018259 -0.010787505 -0.022480879 0.07132718
-0.045982983 0.045093574 0.04179086 0.03188334 0.020810952 -0.06543177 -0.005192991 -0.07937478
-0.015892137 -0.009565895 0.024434084 -0.025424339 -0.044307075 -0.08695907 0.005801577 -0.029810002
0.021667393 -0.031414043 0.044260357 0.01617336 0.039840117 0.0047652065 -0.055625934 -0.036759418
0.07965792 0.050118018 -0.018997787 -0.054020625 -0.008212943 0.0015673988 0.030056475 -0.00043221083
0.01600942 0.073419325 0.06757877 0.05261498 0.049819108 0.0065229973 0.058822274 -0.006631001
0.0013243722 0.0026646822 -0.029939612 -0.0009441574 -0.0033492488 0.061482158 0.008211386 0.0029382138

network_body._body_endoder.seq_layers.0.bias f4 [128]
00000000: 04ea 393d cd24 1ebd 6ad2 953b 44ca d0bc
00000010: 652e 063d a28c 933d 268e 90bd ce60 313d
00000020: 8716 35bc 3cd6 283c b742 5fbc ba70 e43c
00000030: 7b7a 723c b00e 943d 9daf 493b bd1c 8bbd
00000040: 1999 a0bc 53b7 d53c 4e0d ebbc 80ec 8c3d
00000050: ebfb 80bd 62bb cebc 9f61 17be 13ee 01bd
00000060: b2a0 8fbc 3bd0 14bc 762a 863c 1b7d 85bd
00000070: 892a 55bd 0b80 2dbd c1a1 febb df76 6c3c
00000080: 2580 5a39 a2d3 a03c c3b3 163d 7033 133c
00000090: 4023 6b3d 816f cc3b dfcf 3abd 82e7 d0bd
000000a0: adad 23bd 54df 5b3d 5f67 3f3b d0fe febc
000000b0: 855e a63c 7358 a53d c4aa 5fbd cb52 9e3d
000000c0: e354 8c3d db8d cc3a 86ce fd3c 3126 03be
000000d0: 80dc 1ebd e39d 3d3c a0a4 2a3d 9aa4 f8bc
000000e0: b16b 483d 4059 d0b9 d897 91bd 637e 3a3c
000000f0: 4fde e8bc d258 b3bc d0b0 78bd 8ec3 68bc
00000100: d05b 06bc 800e 643c 1a73 e5bd fbe1 4bbd
00000110: 8ec5 b1bc 03b8 863c 1e13 a93a 8374 f2bc
00000120: 4c45 f3b9 36dc 6e3c f06f 85bc 19c8 c5bd
00000130: 6b3d a2bc efc9 2fbd 4c96 333d 068a d7bd
00000140: 4d4d 833d 8f01 2f3c 1abb f2bd df67 49bb
00000150: 3f41 9fbc 89c6 f2bc 606b 8b3c a332 7dbd
00000160: 9326 083c f9a7 97bc edca 653c 68ba 76bd
00000170: 3794 953d 9282 b3bb 0e08 31bd d525 80bd
00000180: 2c7e 2f3c 7d8f 05bd bee1 30bb f0f0 ab3b
00000190: 5f8f ddbc 366a 8d3b 1010 a3bd d93d 67bc
000001a0: 8af7 483d 73c0 20bd 7c13 50bd 7f99 9cbd
000001b0: b231 933d 3491 d33d 73e9 00be d73a 58bc
000001c0: cd55 fa3a 1643 5e3c 148c 6dbc 3b8b d73b
000001d0: e5ef 623d ba40 86bc 829d 733c 1063 1cbd
000001e0: 5ab4 74bc 3cdc 073d 3c02 e2bd 4f99 a0bc
000001f0: 6d3f 3abc 0448 3ebc bc7b 60bc e5b3 69bd
0.04538919 -0.038609315 0.0045722025 -0.025487073 0.03275909 0.07204558 -0.07058363 0.04330521
-0.011052734 0.010304984 -0.013626746 0.027885783 0.014799709 0.07229364 0.003077484 -0.06792591
-0.019604253 0.026088392 -0.028692868 0.06881046 -0.062980495 -0.025235835 -0.14783333 -0.031721186
-0.01753268 -0.009082849 0.016377669 -0.065180026 -0.052042518 -0.04235844 -0.0077707474 0.014432638
0.00020837838 0.019632164 0.036792528 0.008984432 0.057406664 0.0062388782 -0.045608398 -0.102004066
-0.039960552 0.05367978 0.00292059 -0.031127363 0.020308742 0.08073511 -0.054606214 0.07730635
0.06852128 0.0015606241 0.030982267 -0.12807538 -0.038784504 0.011573288 0.041660905 -0.030351926
0.048930828 -0.00039739348 -0.0710904 0.011382672 -0.028426317 -0.021892939 -0.060715497 -0.01420678
-0.008200601 0.013919473 -0.112035945 -0.04977606 -0.021700647 0.016445166 0.0012899374 -0.029596573
-0.00046400202 0.01457887 -0.016288728 -0.09657306 -0.019804677 -0.04291719 0.043844506 -0.10524373
0.06411228 0.010681524 -0.11852093 -0.0030732078 -0.019440291 -0.029635685 0.017018974 -0.06181587
0.008309978 -0.018512713 0.014025432 -0.060236365 0.0730366 -0.0054782117 -0.043220572 -0.06257216
0.010711234 -0.032607544 -0.0026990022 0.005247228 -0.027045904 0.00431564 -0.07962048 -0.014113867
0.049064197 -0.039246034 -0.05079983 -0.076464646 0.07187213 0.1033043 -0.12589054 -0.013197622
0.0019099057 0.013565799 -0.014498729 0.006577877 0.055404563 -0.016388286 0.014869096 -0.03818041
-0.014935577 0.033169016 -0.110355824 -0.019604353 -0.011367661 -0.01161385 -0.013701376 -0.057056326

network_body._body_endoder.seq_layers.0.weight f4 [128, 15]
00000000: 2b48 cfbe e3d2 36bb 6e6c d7bd 5ec2 a8be
00000010: 2b6a fb3e a318 313e 40c9 a4be 2133 94be
00000020: 133a 7bbd 4ff6 9abe 544b cabd c471 8f3d
00000030: 3ba9 a4bd 1914 ef3d 576f cc3e 92dd 9a3d
00000040: c763 bebd fe01 503d bc0b b33e 244e 5e3e
00000050: bbb7 563e 155f 153f ebaa 123e d67c e2be
00000060: 7828 4d3d 59fc 10bc 6e2d e43e 797a 2e3e
00000070: 4a34 57be c206 f23e 49dc 5abe 819f b33c
00000080: a700 a5be 6c4c 5a3e 9402 133e a332 353c
00000090: 1fa4 353e 65c3 3bbd 4095 0bbe adc7 a3be
000000a0: 417b ac3d de2a 71be f571 6a3e 410f 043e
000000b0: 498a 8fbe 02e8 0dbe e3c3 3c3e c358 003e
000000c0: cba4 4e3e 65a3 10be ab94 873d aa94 c3bd
000000d0: be91 48be 914d 5a3e d889 dabe 0616 5dbe
000000e0: fc3f 1abf bc38 8e3e c1f3 363e 5ff0 0d3d
000000f0: 8edd af3e 63cd 543e a791 0ebe 284d 883e
00000100: aa25 0e3e b9b9 cc3d 0747 44bd be5c 8c3e
00000110: 8726 d9be 65a6 a6be 6000 89be 6580 303c
00000120: 7c3f 463d 5d29 823e 26c7 8a3d 2d25 dd3e
00000130: 93db 32bd 5533 4ebe 81ef 003e 7fcd 68be
00000140: e811 1f3d aa34 fa3d b190 563d ed67 9d3c
00000150: 844c c2be b0d5 b53e e3e1 9e3b e63c 9ebc
00000160: cb7b c73d 4e79 563e d4d5 f43e b207 6fbe
00000170: 933b c8be b60d 7fbd cda2 e2be f34b 003e
00000180: b1ba 08be 4741 913d 4b14 e23d 0340 b43d
00000190: 45c8 263e 6e49 3cbe a8dc d13e 9421 11be
000001a0: e834 fb3d 1a36 adbe 0acb 75be 8de9 3f3e
000001b0: 6e15 f3bd 2f2a 3dbe c679 d33d 0315 e9be
000001c0: f904 163e 51a6 4f3e c6ee 8d3e f1f9 3a3f
000001d0: 477e 9b3e a10f 6bbe 5d5b 2fbf 49c2 913e
000001e0: 6aaf 7ebe ce97 183d bb6a c23d d3a5 9dbc
000001f0: cd57 a93c ff59 173e 6fb3 9cbe 67d6 553e
00000200: 8087 39be b85d cb3d 09a6 5ebe 3bd2 a03e
00000210: 552e 193e d5c5 45be 6b75 b03e d248 e03e
00000220: 157e 693e 0558 d1be cda3 53be 52c9 6c3e
00000230: 3db3 b73d ee65 a4bd b2c5 e0be e5d4 3d3e
00000240: 23b4 e73e 95c7 b6bc 4b0f 2b3d df9d 18bd
00000250: 2bd1 64be 72e9 9fbd 4b68 383e f60b c2be
00000260: b99f ca3e c389 f13c 039f a43e 6ad0 fb3e
00000270: 2f90 7ebf 8c64 ccbc 80de aebe 83c4 2dbd
00000280: 3b8a 0f3f 627e eebe 850a 3e3e d5d3 9e3d
00000290: c8b3 a03d 5713 563e 8f8c dbbe 35dd b3be
000002a0: ff8f a6bd e31f da3e 4f60 07bf 9cd0 87bd
000002b0: f2f9 ad3e c4cb eb3d 7fb0 b13c c7a3 fabd
000002c0: ff51 b9bd da72 153e 3741 03be 7aa3 e03d
000002d0: 74af 1f3e 29be 6e3d 7a7c 853d edc7 763b
000002e0: 19d1 a33d b3f9 d03d c3cc f2bd 3eb0 bd3e
000002f0: f8db dabe 49cd b3bc a17f f0bc a5f3 0c3f
00000300: ae48 ccbe db18 78be eda9 dbbe db64 f53e
00000310: 74e7 133e 5c07 c13e 2616 43bc 08b5 363d
00000320: eb45 bebe e25f 103e 9cbd 833e 53e8 04be
00000330: 8b40 81be de53 9f3e 6e63 bcbe e554 d33d
00000340: e3f7 38bd 4841 21be efa5 86be 8669 833e
00000350: 6f9f 39bc 8970 86be 042f 013e 34b8 563d
00000360: bbf5 bbbd 390b 59bd 5152 4d3e 5ba7 593e
00000370: ac3c 92be 7ef9 1abe 583e b7bc c795 ecbd
00000380: b193 cebd ad0c 303e a1c2 ce3e dc04 0fbe
00000390: 7531 283e e9ef e23d 11ff 8a3e fc73 a3bd
000003a0: ed94 ae3c 0227 15be e617 3b3e 5c94 a0be
000003b0: 0949 9e3e a24f 653c cc65 b5be 52ee 40be
000003c0: b5b0 5bbc b94b 61be ba72 1b3e e1a3 fcbe
000003d0: fce3 debe 04dd a23e 078a b1be bea1 f5b9
000003e0: 6d32 563e 35c9 16bf 96d3 3ebd 36e4 2c3e
000003f0: 0c39 3a3f c7bf 983e 2ec8 cb3c 82e7 14bd
-0.40484747 -0.0027896694 -0.10518728 -0.3296079 0.49104437 0.17294554 -0.32184792 -0.28945258
-0.06133468 -0.30266044 -0.09877649 0.07004121 -0.08040091 0.11673755 0.39928696 0.075617924
-0.09296375 0.05078315 0.3496989 0.21709496 0.20968525 0.5834821 0.14323013 -0.44235867
0.050087422 -0.008849227 0.4456591 0.17038907 -0.2101604 0.4727078 -0.21373095 0.021926643
-0.3222706 0.21318215 0.14356452 0.011059436 0.17738388 -0.04584064 -0.13631153 -0.31988278
0.08421946 -0.23551509 0.22895034 0.12896444 -0.2803519 -0.13858035 0.184341 0.1253386
0.20180051 -0.1412483 0.06620153 -0.0954984 -0.19586846 0.21318652 -0.4268329 -0.21590433
-0.6025388 0.2777766 0.17866422 0.034653064 0.3434872 0.20781474 -0.1392275 0.26621366
0.13881555 0.09996361 -0.0479193 0.27414507 -0.42412207 -0.32548824 -0.267581 0.010772799
0.048400387 0.25422183 0.06776266 0.43192425 -0.043666434 -0.20136769 0.12591363 -0.2273464
0.038835436 0.12217076 0.052384082 0.019214595 -0.37949002 0.35514593 0.004848705 -0.019316148
0.097404085 0.20944712 0.47819388 -0.2334278 -0.39107952 -0.062268935 -0.44264832 0.12528972
-0.13352467 0.07092529 0.11039027 0.08801272 0.16287334 -0.18387386 0.4098866 -0.14172965
0.122659504 -0.3383034 -0.24003235 0.18741436 -0.11869322 -0.18473123 0.10325961 -0.45523843
0.14650334 0.20278288 0.27721232 0.7303763 0.3036978 -0.2295518 -0.68498784 0.2846854
-0.24871603 0.037254147 0.094930135 -0.01924411 0.02067175 0.14780425 -0.30605647 0.20882569
-0.18118095 0.09929985 -0.21743025 0.31410393 0.1495908 -0.19313748 0.34464583 0.43805557
0.22802003 -0.40887466 -0.20667954 0.23123673 0.08969734 -0.08027254 -0.4390083 0.18538244
0.4525462 -0.022311965 0.04176263 -0.037259933 -0.22345416 -0.07808198 0.18008535 -0.3789975
0.39574984 0.029484635 0.32152566 0.49182445 -0.99438757 -0.024950288 -0.3415413 -0.042423736
0.560703 -0.46580797 0.185587 0.077552475 0.078467906 0.20905815 -0.42880675 -0.35129705
-0.08132934 0.42602453 -0.5288133 -0.06631586 0.33979756 0.115134746 0.021690605 -0.12238269
-0.09048843 0.14594594 -0.12817846 0.10968681 0.15594274 0.05828682 0.06517883 0.0037655786
0.079988666 0.10203876 -0.118554614 0.37048525 -0.42745948 -0.021948474 -0.029357733 0.5505927
-0.398992 -0.24228232 -0.4290308 0.4792851 0.14443761 0.37700927 -0.011907136 0.04460624
-0.37162718 0.14099076 0.25730598 -0.1297925 -0.25244555 0.31118673 -0.3679461 0.10318927
-0.04515828 -0.15747559 -0.26298472 0.25666445 -0.011329516 -0.26257733 0.12615591 0.052421764
-0.09177729 -0.05298922 0.20050932 0.21255247 -0.28561914 -0.15134236 -0.022368595 -0.11552005
-0.10086764 0.17192335 0.40382865 -0.13966697 0.16425116 0.110809155 0.27147725 -0.07981107
0.021311248 -0.14565662 0.18270835 -0.3136319 0.30915096 0.013996037 -0.35429227 -0.18840912
-0.013408829 -0.22001542 0.15180483 -0.4934378 -0.43533313 0.31809247 -0.3467562 -0.0004685055
0.20917673 -0.5890077 -0.046588503 0.1688393 0.72743297 0.29833815 0.024875727 -0.036353596

network_body._body_endoder.seq_layers.2.bias f4 [128]
00000000: e8b2 a0bc 6104 223c 7cf3 d6bc ae14 69bc
00000010: b3fa bcbc 8896 1bbc 5632 3a3b bfd5 b5bc
00000020: 70ef 06bd 89b4 5abd 4c93 5fbb 5a6e b6bc
00000030: 0bd5 a1bb 32e0 6cbc b506 62bc 1437 caba
00000040: e9f9 ccbc 11ef c4bc 050a e0bc 05d1 b03a
00000050: bb76 da3c 699e 15bd 8a73 263c f185 18bd
00000060: 58c7 40bd 8890 f0bb ccca 8bbc 1f68 bbbc
00000070: 2b36 073d b2e1 66b9 7606 94bc 206c a4bc
00000080: 175f 34bc 1cc8 d7bc f206 243d c322 efbc
00000090: 5f1b 9abc b0c9 0a3d 01a1 ce3a 5b9c e6bc
000000a0: f71e 173a a14f 21bc 979e c7bc cab5 8dbc
000000b0: fb4c 77bd 6190 3cbd e052 6c3a 6c87 8a3c
000000c0: 0aa1 2d3c b6e6 2bbc a00d 3c3c 074f 15bd
000000d0: ea04 0abc 4cc2 afbc 04c6 eaba 6bb5 8bbd
000000e0: 0bcb 68bd 448d 223d caad 9dbc 9c74 8bbc
000000f0: 4172 33bc 6a7d c8bc 6583 88bd 436a 8e3b
00000100: 6e26 253c e05a d53a b69c a5bc d0a8 d93c
00000110: 39e0 03bc aca3 113c 6275 133a b21b 3dba
00000120: a13b 923c 9a70 97bb 362e ea3c 1d28 80bc
00000130: 567b 953b c6ce 15bc 24c9 cabc a42b d53c
00000140: ee84 0bbd 3d12 ee3c 298d 3b3b 8834 973b
00000150: 9345 64b8 fd73 2bbc 0408 c73b 2d85 4bbc
00000160: fb51 0abd f492 d53c d7aa 023a 4c65 24bd
00000170: c6f8 00bd 5da7 173b a3b4 a8bc d0f2 08bd
00000180: 63fd ef3b 27b8 a4bc 2ecf 9d3c be9e 173c
00000190: 553b bc3b d315 56bc 285a e6bb 001b 43bc
000001a0: 0263 2b3d 9767 a43c 1970 b3bc 0a1e cfbc
000001b0: 14f7 5f3b 7b02 25ba 7363 9039 59b0 cbbb
000001c0: d34b 4d3c 98e2 143d 0703 513d cf82 543c
000001d0: f030 df3c 897a 583c 0a7e 073d f148 233c
000001e0: 3669 a43b 2751 85bc 72ec f9bc 6a37 413c
000001f0: 2582 b9bc 8583 1c3d b241 263c 1e72 abbb
-0.01961656 0.009888739 -0.02623915 -0.014226122 -0.023068761 -0.009496339 0.002841135 -0.022196649
-0.03294319 -0.053394828 -0.0034114895 -0.022269417 -0.004938727 -0.014457749 -0.013795544 -0.0015427792
-0.02502151 -0.024039777 -0.027348528 0.0013490027 0.026667943 -0.036528025 0.010159383 -0.03723711
-0.04706511 -0.007341448 -0.017064475 -0.022876797 0.033010643 -0.00022018587 -0.018069487 -0.02007109
-0.011008999 -0.026340537 0.040045686 -0.02919138 -0.01881188 0.03388375 0.0015764536 -0.028150728
0.0005764807 -0.009845645 -0.024367614 -0.017298598 -0.06037615 -0.046036128 0.0009015035 0.016910277
0.010597477 -0.0104920175 0.011477858 -0.03645232 -0.008424023 -0.021454953 -0.0017911796 -0.06821712
-0.056834262 0.039685503 -0.019247908 -0.017023377 -0.010952533 -0.024473865 -0.066656865 0.0043461635
0.010079963 0.0016277693 -0.020216327 0.026569754 -0.008049064 0.00888912 0.00056250964 -0.0007213905
0.017850699 -0.0046215774 0.028586488 -0.015644128 0.004561822 -0.009143537 -0.024754114 0.026021786
-0.03406232 0.029061431 0.0028618074 0.0046144165 -5.4424232e-05 -0.0104646655 0.0060739536 -0.012421888
-0.03376959 0.02607105 0.00049845636 -0.040135667 -0.03148725 0.0023140528 -0.020593947 -0.03343469
0.007323907 -0.020107342 0.01926383 0.009254156 0.0057443776 -0.013066727 -0.0070297904 -0.011908293
0.041842468 0.020068927 -0.021904038 -0.025282878 0.003417437 -0.000629462 0.00027539916 -0.0062160906
0.012530285 0.03634891 0.051028278 0.01297064 0.027245015 0.013212808 0.033079185 0.009966121
0.005017425 -0.016274048 -0.030508254 0.011792997 -0.022645066 0.038211364 0.010147499 -0.0052321097

network_body._body_endoder.seq_layers.2.weight f4 [128, 128]
00000000: 3141 5a3c 2c69 a2bd 71e7 44be 1427 77bc
00000010: fcbc 29bd a2f4 3a3a f231 21be 1d59 4dbe
00000020: 8a71 6cbd 106a 85bd 6f81 15be e5a5 d03d
00000030: 3b77 95bd 1080 30be c7a6 933c 02bb 953b
00000040: afbc d1ba 5c25 84be ec12 40bd 6925 10be
00000050: 8fd6 ea3d 2f6f ecbd 989f 8a3b 4244 06be
00000060: 00c3 5f3d df3f ebbb bd9b 59bd 4640 4dbe
00000070: 0b15 24be e31f 3fbd 92ff 8c3d 3d9f 66bd
00000080: f96d 57bd d85a dd3d 7a4a b83c 1379 a13d
00000090: af9a bf3c a4e2 82be 205f 07bc 4864 bf3d
000000a0: 7e9f 96bb 899c abbd 8ef5 e43d 2f06 b93d
000000b0: 2826 ff3d 4122 953d 97c7 c7bd e4e9 13bd
000000c0: fac4 06bd ed9b 82bd cae6 483d 8549 ff3d
000000d0: b529 023c 68cf dc3d 4427 0cbd 9435 f23c
000000e0: b9fe e53d 88ab 0cbe 7ff7 123d 234a 2a3e
000000f0: d041 fe3d 08cb 24bd d15d 03be 6386 c4bd
00000100: e8e4 e7bc 82ba e4bb d891 a4bd 97b1 bd3d
00000110: 8b7e 5fbd c0c5 983d 24ec 203e dda9 08be
00000120: 4c0e 60bc e084 ebbc 3a55 c73d 7ce6 2abe
00000130: 358f b63d dfa8 083e 41f4 833c 3f76 903d
00000140: ab6b 19be 5525 84bc 5764 02bc 2ad2 90bd
00000150: a2c3 433c 14a1 5c3d e59b 8fbb 278d 0f3e
00000160: ee44 393e 3922 af3c 3f9b 973c 4228 8cbc
00000170: dcf1 38bd 37cd 61bc 0547 ad3d 281f f83d
00000180: eb5f 873d 1562 c5bd ca53 24be 9e08 0c3e
00000190: 32c1 1a3e efcb f23d ee16 d439 d115 ab3d
000001a0: 9eb3 b23d fd3f 3bbe 11b5 0e3d 321b 9b3d
000001b0: 6fe9 fbbc ee44 88bd 119f cfbd 115c ae3d
000001c0: 4495 e63d 1d07 3a3c 7758 4fbe 6254 973d
000001d0: 9162 a53d 319c 0d3d a508 983c f845 213d
000001e0: 10fe 933d 4710 8fbd fcd6 16be 6c5e 93bd
000001f0: 8e76 a5bd 67b7 0cbe c9c7 653d 5eba 083e
00000200: 3ba6 703d 8d06 0e3c dc70 38be 4db8 ae3d
00000210: 6455 fd3d 2a8a 503e 561e e03d 1a86 e83c
00000220: 9c30 ae3c 9410 143e 4501 a7bd 6bfa 153e
00000230: 90a9 013e 5158 e0bc 664f 123e 7154 81bd
00000240: 2e2f a8bc 4843 593c 883a 16be 6562 6e3d
00000250: f1b3 813d 3356 28be eb10 7cbc a102 b33d
00000260: de0e 233d 964b 0b3e 12cf 933c bbe0 4dbb
00000270: 34f4 0b3e c4f8 8ebd 1350 5bbc 2fa8 283e
00000280: 914a 303e 64e1 0c3e ae8b ec3c aee4 fbbd
00000290: 509a 843c 25c1 b3bc 4871 6739 1e76 f7bd
000002a0: dcb7 bb3d fce7 afbd 4860 db3c d206 21be
000002b0: 862f 583b 0609 573d 7571 02bd f13f 0e3d
000002c0: 4773 25bd 996d 30bc a8be c7bd fd43 4d3d
000002d0: d05a a4bd aeeb 053d 648e a03d 7060 2d3d
000002e0: 977d a4bd 5345 28be ba32 2cbd d20d 11bd
000002f0: c6d6 80bc 47d6 133e 2f5c 23bc 07b8 f83d
00000300: 74af 6a3d 97e1 383d bf70 f63c 91b8 3e3e
00000310: 7bdb fdbd 3e97 173e b480 cebb 68a5 1dbe
00000320: 6924 22bc 60c7 16be d49d c63d 23c2 023d
00000330: e3f0 70bd ac95 883d d48b be3d 9ad5 8cbc
00000340: de8c 3a3e cce0 5ebe 13cd 5bbe e1dd bebd
00000350: ced5 08be eb90 d33c 154d 0e3e 1955 5237
00000360: 2bc0 843d a3db 39be 3513 c1bc d55a ce3d
00000370: 5c7c 013e 501e 353e 2dc0 4e3d 1733 083e
00000380: 0928 0ebe 6549 343c c4c2 5a3e 90fe caba
00000390: 07c2 bb3d cfa3 50be b746 b23c 16a8 60bd
000003a0: e634 123e 454e f93d 1104 d9bd 5169 13bc
000003b0: 4be3 153e 7bfa 79bd bbd9 e5bc a347 0ebe
000003c0: 992d 17bd e293 75be a0f4 d43d 3879 cabc
000003d0: e9ed 8fbd 3bdf 52bd 7bac 293e 7891 0d3e
000003e0: 4347 abbd 60cd 853d b956 55b9 a11d 963d
000003f0: b537 593d 0881 9d3a dbf5 013d f70f 2a3e
0.013321207 -0.07930216 -0.19228913 -0.015085001 -0.041439995 0.000713179 -0.15741709 -0.20053525
-0.057725467 -0.065143704 -0.14600156 0.10187892 -0.07298132 -0.17236352 0.018023862 0.004569412
-0.0016001667 -0.25809753 -0.046893045 -0.14076771 0.11466705 -0.11544644 0.004230451 -0.13111976
0.054629326 -0.007179245 -0.05312704 -0.2004405 -0.16023652 -0.04666127 0.06884684 -0.056304205
-0.052595112 0.10808343 0.02249645 0.07884421 0.023389189 -0.25563538 -0.008262426 0.09345299
-0.0045966497 -0.08379466 0.11179648 0.090343826 0.124584496 0.07281924 -0.097548656 -0.036111727
-0.032902695 -0.06377397 0.049048223 0.124651946 0.007944514 0.10781747 -0.034217134 0.029566564
0.11230225 -0.13737309 0.035880562 0.16629843 0.124148965 -0.04023269 -0.12828757 -0.09595945
-0.028307393 -0.0069802413 -0.0803563 0.09262388 -0.05456404 0.07459593 0.1571508 -0.13346048
-0.013675284 -0.028749883 0.097330526 -0.16689485 0.08914033 0.13345669 0.01610768 0.07053804
-0.14982478 -0.016131083 -0.007958493 -0.070713356 0.011948498 0.053864554 -0.0043825977 0.14018689
0.18092701 0.021378623 0.018506644 -0.01710904 -0.04515253 -0.013781837 0.084608115 0.121153176
0.06610092 -0.09637848 -0.16047588 0.13675162 0.1511276 0.118553035 0.00040452875 0.083537705
0.087256655 -0.18286128 0.034840647 0.075735465 -0.030750958 -0.06653772 -0.101377614 0.08513654
0.11258939 0.011354235 -0.2024859 0.073891416 0.08075441 0.034572784 0.01855881 0.039373368
0.07226193 -0.069855265 -0.14730448 -0.07195744 -0.08079253 -0.13741837 0.056098733 0.13352343
0.05875228 0.008668554 -0.18011802 0.08531246 0.123698026 0.20365205 0.10943286 0.028384257
0.021263413 0.14459449 -0.08154539 0.14646308 0.12662339 -0.027385863 0.142881 -0.06314934
-0.02053031 0.01326067 -0.14670765 0.058199305 0.06333149 -0.16439132 -0.015384893 0.08740736
0.0398091 0.13603052 0.018043075 -0.0031414467 0.13667375 -0.06981042 -0.01338579 0.16470407
0.17215945 0.13757855 0.028875198 -0.122994766 0.016186863 -0.021942684 0.00022072077 -0.12083076
0.09165928 -0.085891694 0.026779309 -0.15725258 0.003298731 0.05249884 -0.031846482 0.034728948
-0.04039314 -0.010768318 -0.09753162 0.050113667 -0.080251336 0.032695465 0.07839659 0.042328298
-0.08031767 -0.16432695 -0.042040564 -0.03541357 -0.015727412 0.14437209 -0.009970709 0.121444754
0.05729623 0.045137014 0.030083058 0.18625094 -0.12395378 0.14803788 -0.0063019637 -0.15395129
-0.009896376 -0.14724493 0.09698072 0.031923424 -0.058823477 0.06669173 0.09304014 -0.017191697
0.18217799 -0.2176544 -0.21464948 -0.09319664 -0.1336281 0.025825938 0.13896592 1.2536789e-05
0.06481966 -0.18150191 -0.023568729 0.100759186 0.12645096 0.17687345 0.05047624 0.13300739
-0.1388246 0.011003827 0.2136336 -0.0015487242 0.09167867 -0.20374988 0.021762235 -0.0548478
0.14277992 0.12173132 -0.10596479 -0.008997277 0.14637487 -0.061029892 -0.028057924 -0.13894515
-0.03690872 -0.23982194 0.10398221 -0.024716005 -0.070278 -0.05148242 0.16569702 0.13825023
-0.083632015 0.06533313 -0.0002034557 0.0732987 0.053031642 0.0012016604 0.031728607 0.16607653
