results/Try1/jumper.onnx (onnx, 76764 bytes, 5 tensors)

action_model._continuous_distribution.mu.weight f4 [1, 128]
0.03934159 -0.0012641466 0.004379867 -0.022947788 -0.009574795 -0.008490719 0.030733738 0.028880967
0.01420292 0.014334077 -0.06356805 0.017996551 -0.02528879 0.022478677 -0.025051193 0.0027586294
-0.017018722 0.023273135 -0.0076291584 0.008193282 -0.0076425425 0.0033981942 -0.014162314 0.022975942
0.019461054 0.019679166 -0.008332023 0.0029588304 -0.012977218 -0.025336046 -0.0022996878 0.01242455
-0.012931012 -0.009147644 -0.017218923 0.0038407808 -0.0079353675 -0.017172864 0.003954653 -0.010485864
0.018430801 -0.0351585 0.0049105184 0.00060887163 0.046004057 0.05550939 -0.0023625928 0.018833257
0.03037732 0.019283902 0.02070907 0.027267952 -0.012397617 -0.012203401 -0.027188914 -0.004871532
0.00028813616 0.032072805 0.026201252 0.005000529 -0.022291653 0.01986644 -0.034560774 0.012225867
-0.010396093 -0.0014711214 -0.022503912 -0.015402297 -0.004700867 0.014195375 -0.027954327 -0.0038167946
-0.016684808 0.004764353 -0.0028440256 -0.005000222 -0.030595448 0.023830764 0.022085581 -0.014514054
-0.023764178 0.011147004 0.0007510985 -0.011335512 0.030502142 0.025097689 -0.009768941 0.03678636
0.011952567 0.009769288 0.000264736 -0.03260033 0.0046964423 0.005665042 0.014916141 0.00022822827
0.00665468 -0.025317414 0.020193757 0.032993894 -0.018982831 0.0015038966 0.008644864 -0.022805218
0.016678413 -0.018451517 0.0339811 0.014178522 -0.02847953 0.03246559 0.012388637 -0.0040427223
0.02147104 -0.013656021 -0.002980475 0.012191569 -0.029893648 -0.009430689 -0.041954327 -0.0005060393
0.025059488 0.026818838 -0.015685327 0.0012666942 -0.0060652453 -0.014451436 -0.013878507 -0.0036284574
00000000: a624 213d b9b1 a5ba fd84 8f3b 00fd bbbc
00000010: 9adf 1cbc a81c 0bbc 52c5 fb3c c797 ec3c
00000020: 5db3 683c 7ad9 6a3c f72f 82bd 816d 933c
00000030: 702a cfbc 3425 b83c 2938 cdbc 1fca 343b
00000040: d96a 8bbc 4da7 be3c 05fe f9bb 1e3d 063c
00000050: 4b6e fabb 3db4 5e3b 0d09 68bc 0b38 bc3c
00000060: ca6c 9f3c 3436 a13c 0a83 08bc f0e8 413b
00000070: 669e 54bc 8a8d cfbc 5cb6 16bb 5790 4b3c
00000080: 98dc 53bc 00e0 15bc b30e 8dbc 9cb5 7b3b
00000090: 5803 02bc 1bae 8cbc 0996 813b e7cc 2bbc
000000a0: 31fc 963c 5c02 10bd 6ae8 a03b af9c 1f3a
000000b0: c06e 3c3d d05d 633d bbd5 1abb 3448 9a3c
000000c0: dbd9 f83c 46f9 9d3c 11a6 a93c 0a61 df3c
000000d0: 601f 4bbc c6f0 47bc 49bb debc 5fa1 9fbb
000000e0: fb10 9739 c65e 033d 02a4 d63c 7adb a33b
000000f0: fc9c b6bc f2be a23c 998f 0dbd 014f 483c
00000100: 6054 2abc a5d2 c0ba 205a b8bc ea59 7cbc
00000110: bb09 9abb b893 683c 7900 e5bc 3023 7abb
00000120: 94ae 88bc 4a1e 9c3b d562 3abb e7d8 a3bb
00000130: 4ea3 fabc bc38 c33c d2ec b43c 5bcc 6dbc
00000140: 18ad c2bc eca1 363c 5ee5 443a 95b8 39bc
00000150: a1df f93c ab99 cd3c e90d 20bc 4bad 163d
00000160: b3d4 433c 5d0f 203c 44cc 8a39 ec87 05bd
00000170: 9de4 993b d1a1 b93b d462 743c 8f50 6f39
00000180: 800f da3b 7766 cfbc 616d a53c 9b24 073d
00000190: e281 9bbc 651e c53a 30a3 0d3c 02d2 babc
000001a0: 2ba1 883c a327 97bc c42f 0b3d 084d 683c
000001b0: e74d e9bc a3fa 043d b6f9 4a3c d078 84bb
000001c0: 09e4 af3c 81bd 5fbc 1354 43bb 26bf 473c
000001d0: 86e3 f4bc 2d83 1abc 4dd8 2bbd b9a7 04ba
000001e0: 8e49 cd3c 2eb3 db3c 847e 80bc 3407 a63a
000001f0: f7be c6bb b7c5 6cbc ad62 63bc 6acb 6dbb

network_body._body_endoder.seq_layers.0.bias f4 [128]
-0.006982898 -0.011253999 0.008217424 -0.010212903 0.005811787 0.008137137 -0.006619931 -0.002756884
0.033168044 -0.00383228 0.005924275 -0.00035883763 -5.5744484e-05 -0.023415156 -0.0039675976 0.01856475
-0.011817043 0.010026172 -0.014643874 -0.018183228 -0.014769423 -0.010726716 0.0078344075 -0.0026603383
0.0164082 0.011282339 -0.005451782 -0.010573493 -0.007536755 0.016251229 0.009266925 0.010279163
0.015645849 0.003683776 0.0059992834 -0.0023317328 0.0048362915 -0.005671151 -0.0006537582 -0.026833022
-0.0043391366 0.0029520285 0.019962052 -0.0063471785 -0.03411036 -0.02005135 0.027808508 -0.009078389
-0.009963966 0.02285174 -0.03706945 -0.0041381866 -0.00905407 -0.01149344 -0.0053151483 -0.0061354185
-0.013085644 -0.002493911 -0.00017936145 0.0069385986 -0.0040948577 0.005737242 0.012113289 -0.024928005
-0.004809282 0.013980006 0.008659929 0.0075601037 -0.0043138047 0.00016427538 -0.0019573453 -0.0064765257
-0.008484168 0.011182678 0.0039199516 0.014399587 -0.011743439 0.021202262 0.009398755 0.024061415
-0.0053155366 -0.0058635124 -0.031417377 0.0155988205 -0.0011079906 -0.0043558506 0.007326611 -0.008673691
-0.0013653935 -0.00390384 0.010669599 0.01793599 0.020594034 0.017773619 -0.0079588415 0.022589637
-0.010825626 -0.010537333 -0.0015054693 -0.009501052 0.00044349502 0.009664994 0.0057743215 -0.0014322237
-0.011333567 0.027398836 0.0058129965 0.007050139 0.016799157 -0.008912685 -0.0040100226 6.609337e-05
-0.008618412 0.009223154 0.005749737 0.00341784 -0.009180204 -0.0062001916 0.0003059861 -0.0052246847
-0.015271541 0.023206033 0.02120533 -0.010478636 0.0038559015 -0.007913203 -0.0055501945 -0.0070589418
00000000: cbd0 e4bb b162 38bc 60a2 063c 0554 27bc
00000010: ce70 be3b a051 053c 02ec d8bb d7ac 34bb
00000020: 37db 073d fd26 7bbb 6c20 c23b 5f22 bcb9
00000030: 2fcf 69b8 24d1 bfbc 9f02 82bb 1a15 983c
00000040: 459c 41bc d044 243c dcec 6fbc fef4 94bc
00000050: 73fb 71bc 1cbf 2fbc e35b 003c 1259 2ebb
00000060: 7d6a 863c 8fd9 383c dda4 b2bb 723c 2dbc
00000070: e2f6 f6bb 4c21 853c 4dd4 173c ef69 283c
00000080: b92b 803c 816b 713b a395 c43b fccf 18bb
00000090: c179 9e3b 10d5 b9bb f860 2bba edd0 dbbc
000000a0: 512f 8ebb d276 413b 7587 a33c fefb cfbb
000000b0: 4eb7 0bbd bb42 a4bc abce e33c 86bd 14bc
000000c0: e73f 23bc 9233 bb3c 23d6 17bd a099 87bb
000000d0: 8657 14bc fb4e 3cbc b22a aebb 9f0b c9bb
000000e0: 2b65 56bc e270 23bb f912 3cb9 2f5d e33b
000000f0: 282e 86bb 79ff bb3b d176 463c d135 ccbc
00000100: 2e97 9dbb 650c 653c 60e2 0d3c bfba f73b
00000110: d15a 8dbb 5641 2c39 ce46 00bb 0939 d4bb
00000120: 2e01 0bbc 8d37 373c f072 803b 3fec 6b3c
00000130: 8e67 40bc 5eb0 ad3c 3cfd 193c 721c c53c
00000140: f42d aebb b522 c0bb 82af 00bd 3292 7f3c
00000150: ff39 91ba 86bb 8ebb 1114 f03b 191c 0ebc
00000160: 01f7 b2ba 91d7 7fbb 8bcf 2e3c 7fee 923c
00000170: d2b4 a83c fb99 913c cd65 02bc e70d b93c
00000180: f75d 31bc c7a4 2cbc 2b53 c5ba 4daa 1bbc
00000190: e584 e839 ec59 1e3c 8536 bd3b 74b9 bbba
000001a0: 6db0 39bc 8673 e03c f37a be3b da04 e73b
000001b0: 639e 893c 8306 12bc 8266 83bb 9c9b 8a38
000001c0: 3d34 0dbc b61c 173c 4a68 bc3b d7fd 5f3b
000001d0: 9168 16bc fa2a cbbb c26c a039 d533 abbb
000001e0: 7c35 7abc 941a be3c cdb6 ad3c 96ae 2bbc
000001f0: 4bb3 7c3b 61a6 01bc 68de b5bb b24e e7bb

network_body._body_endoder.seq_layers.0.weight f4 [128, 15]
-0.534446 0.085523754 0.18478061 0.30466405 -0.06701354 0.23736243 -0.4644735 -0.13693947
-0.062225964 -0.14278173 -0.07747578 -0.06103042 0.4534426 0.28841108 0.053115647 -0.04143598
0.0678786 -0.023396159 0.05310082 -0.013703548 -0.23873374 0.34682366 -0.016948057 -0.028153526
-0.35113135 -0.17369696 -0.009106571 0.013162841 -0.523482 0.29959023 -0.00038634843 -0.039113194
0.25107017 -0.1520727 -0.5872764 -0.07912703 0.29648608 -0.06502847 -0.1780221 0.2368736
-0.030075055 0.3266695 -0.070093945 -0.07014999 0.3112717 0.21515751 -0.1885348 -0.15587686
0.0406061 -0.017181467 0.06646866 -0.27899936 -0.22753698 -0.19568035 -0.077581935 0.10899712
-0.48347294 0.5242874 -0.13843684 0.37533852 -0.0746568 -0.6900052 -0.08590136 -0.34824675
0.3236478 -0.29053214 -0.010600105 0.36909387 0.59128606 -0.13869326 0.069109604 0.0034831294
0.20059875 0.17641035 0.17132081 -0.11941163 -0.26724753 -0.23369075 -0.39890626 0.04478829
-0.22356783 -0.089294344 -0.0989978 -0.24685942 -0.029315528 -0.038748648 0.31653738 0.69235235
0.11857149 -0.3140567 0.42934093 -0.06479921 0.224542 -0.013641359 -0.026166167 0.10936904
0.10699619 -0.23423076 0.24493714 -0.2388076 0.27561852 0.21225522 0.024621733 0.013858592
0.15973805 -0.02767618 0.029696016 0.13595282 -0.09262023 -0.17558293 0.39868796 -0.0002975552
-0.44288808 0.45374402 -0.36434096 -0.0700984 0.44098628 -0.058860656 -0.2732899 -0.44828033
-0.106360875 -0.5387061 0.19190858 0.1474872 -0.0035898446 -0.08541191 0.100433044 -0.26236907
0.14114417 -0.27970013 -0.20638302 0.30809295 0.12559104 -0.281834 -0.101996206 0.12238499
-0.065601945 0.3667289 0.33042058 0.014888609 0.14069079 0.2334698 0.00057128695 -0.21619739
0.007606578 0.043095212 -0.10495059 0.21376948 0.1899994 0.08057572 -0.1242053 0.11915041
0.025151862 -0.08256411 0.09882287 -0.054818243 0.1734653 -0.24074139 -0.045664072 -0.2360979
0.0063478085 -0.17858002 0.34982848 -0.4289884 0.074088864 0.14195791 0.47096777 0.051653747
-0.6525442 0.22157903 0.2216781 -0.024324883 0.18294448 -0.52764523 0.06583385 -0.08522212
-0.4073656 -0.115297355 0.053475358 -0.2930832 0.33286196 -0.05979693 0.25585523 -0.17683253
-0.040565018 -0.07571882 -0.10287328 0.013430692 -0.43259913 -0.14812197 0.12159092 0.2256207
-0.32300296 0.04671108 0.6600885 -0.0349307 -0.08343354 -0.18237321 -0.2780568 -0.12515533
0.374295 0.36011267 -0.017312767 -0.2010741 0.18742627 0.27191183 0.2663852 -0.00043214965
0.34391966 -0.58786863 -0.37079942 0.20078401 -0.2870813 0.26212397 0.1258569 0.021454982
-0.107697465 0.24673557 0.12587543 0.31643727 -0.13288641 -0.09041604 -0.02766806 0.34450674
0.16878814 -0.69509953 -0.44234335 -0.018760256 0.0076687043 0.027309785 -0.15772066 -0.284836
-0.3251838 0.13101685 0.1864349 0.15091056 -0.042830404 -0.14525706 0.24384564 0.02823764
0.16725135 -0.048430257 -0.37019563 0.1761539 0.16497971 0.23926629 0.22979979 0.06525841
-0.0042829104 0.3507637 -0.56503755 -0.069587395 -0.3470697 0.1799739 -0.22537817 -0.20355096
00000000: 74d1 08bf 1427 af3d 2137 3d3e edfc 9b3e
00000010: 653e 89bd 230f 733e 78cf edbe dc39 0cbe
00000020: a7e0 7ebd 6035 12be 9fab 9ebd 09fb 79bd
00000030: a129 e83e 9eaa 933e cb8f 593d c6b8 29bd
00000040: ef03 8b3d 4da9 bfbc 3f80 593d d984 60bc
00000050: 9e76 74be df92 b13e a7d6 8abc 39a2 e6bc
00000060: 7dc7 b3be 9edd 31be ba33 15bc f5a8 573c
00000070: eb02 06bf e463 993e cf8e cab9 2835 20bd
00000080: 458c 803e f2b8 1bbe bf57 16bf 5a0d a2bd
00000090: 06cd 973e a52d 85bd 6d4b 36be fe8e 723e
000000a0: f65f f6bc 3a41 a73e 6a8d 8fbd ccaa 8fbd
000000b0: 015f 9f3e 4052 5c3e 440f 41be 2f9e 1fbe
000000c0: 9552 263d 26c0 8cbc b920 883d 01d9 8ebe
000000d0: 74ff 68be 6e60 48be 47e3 9ebd e239 df3d
000000e0: c489 f7be b337 063f 63c2 0dbe 5f2c c03e
000000f0: aae5 98bd 2ea4 30bf 0ded afbd 664d b2be
00000100: 2ab5 a53e a1c0 94be 10ac 2dbc dff9 bc3e
00000110: 865e 173f 9b05 0ebe 5689 8d3d 3745 643b
00000120: c269 4d3e eaa4 343e b96e 2f3e 168e f4bd
00000130: abd4 88be a14c 6fbe 713d ccbe ed73 373d
00000140: f7ee 64be f4df b6bd 5cbf cabd b7c8 7cbe
00000150: 1e27 f0bc e7b6 1ebd 3011 a23e 013e 313f
00000160: 9cd5 f23d 0acc a0be 93d2 db3e 73b5 84bd
00000170: 57ee 653e 0280 5fbc 6e5a d6bc e0fc df3d
00000180: d220 db3d 30da 6fbe cdd0 7a3e fb89 74be
00000190: df1d 8d3e 6f59 593e 84b3 c93c 260f 633c
000001a0: 5f92 233e 28b9 e2bc 0f45 f33c 3737 0b3e
000001b0: adaf bdbd 03cc 33be d420 cc3e 2f01 9cb9
000001c0: 3ac2 e2be 2351 e83e e68a babe c08f 8fbd
000001d0: f4c8 e13e df17 71bd a7ec 8bbe 0085 e5be
000001e0: bbd3 d9bd a5e8 09bf af83 443e e206 173e
000001f0: 9943 6bbb 71ec aebd d7af cd3d 3d55 86be
00000200: 1988 103e db34 8fbe 1256 53be 5cbe 9d3e
00000210: f09a 003e 8c4c 90be 63e3 d0bd fba4 fa3d
00000220: 505a 86bd e4c3 bb3e e32c a93e 5aef 733c
00000230: 3f11 103e b512 6f3e 6bc2 153a d962 5dbe
00000240: 9a40 f93b 9b84 303d 56f0 d6bd 63e6 5a3e
00000250: 348f 423e e204 a53d 595f febd 2105 f43d
00000260: 470b ce3c 5f17 a9bd a563 ca3d 1889 60bd
00000270: e3a0 313e e984 76be 400a 3bbd a6c3 71be
00000280: 4701 d03b aedd 36be b81c b33e 5ea4 dbbe
00000290: e7bb 973d 6a5d 113e b022 f13e e192 533d
000002a0: 230d 27bf 9de5 623e 95ff 623e fa44 c7bc
000002b0: cc55 3b3e c213 07bf e6d3 863d ef88 aebd
000002c0: 3992 d0be 0521 ecbd fa08 5b3d 000f 96be
000002d0: e26c aa3e a0ed 74bd 75ff 823e 9613 35be
000002e0: 8127 26bd 7812 9bbd 3aaf d2bd 680c 5c3c
000002f0: a27d ddbe 49ad 17be a904 f93d 1d09 673e
00000300: a560 a5be 1e54 3f3d 8ffb 283f 7e13 0fbd
00000310: 34df aabd 0bc0 3abe 765d 8ebe b828 00be
00000320: 98a3 bf3e b060 b83e 81d3 8dbc 5ee6 4dbe
00000330: acec 3f3e 0738 8b3e a463 883e 2592 e2b9
00000340: 3d16 b03e 8f7e 16bf 6cd9 bdbe 539a 4d3e
00000350: 52fc 92be 1d35 863e a2e0 003e 5cc2 af3c
00000360: 7d90 dcbd 40a8 7c3e 7de5 003e 1104 a23e
00000370: 6013 08be 0b2c b9bd 21a8 e2bc 3063 b03e
00000380: ccd6 2c3e 0bf2 31bf d47a e2be 1caf 99bc
00000390: c149 fb3b c5b8 df3c 8681 21be 06d6 91be
000003a0: 7e7e a6be 4829 063e cae8 3e3e 4c88 1a3e
000003b0: ef6e 2fbd 44be 14be acb2 793e a052 e73c
000003c0: f043 2b3e ce5e 46bd 488a bdbe b061 343e
000003d0: 71f0 283e 3902 753e a350 6b3e 34a6 853d
000003e0: a857 8cbb 4d97 b33e 4da6 10bf d683 8ebd
000003f0: 1fb3 b1be 144b 383e 89c9 66be aa6f 50be

network_body._body_endoder.seq_layers.2.bias f4 [128]
0.005685739 0.0030389477 -0.0004878601 -0.00620177 -0.0059071262 -0.0152986115 0.016750101 3.689e-05
0.016284376 0.012950959 -0.00032082413 0.0069249533 -0.009277777 -0.0013531095 -0.004297432 0.008810663
-0.004251102 0.010092517 -0.0063569364 -0.0009364086 0.00025885453 -0.003027862 -0.0063871713 0.0030107787
-0.0018398067 0.0016124884 -0.004453705 0.01819653 -0.008798134 -0.003453875 -0.005359513 0.017943671
-0.0026209995 -0.01671119 -0.004627813 -0.0029813666 -0.0066985344 -0.0032583298 -0.003488397 -0.005130862
0.015304827 -0.002184133 -0.0013590527 0.004022539 0.010934772 0.013426117 -0.002591079 0.00083635346
0.0035346176 0.009073236 0.007184116 0.008065265 -0.0034352716 -0.0033767691 -0.0018966823 -0.008194262
-0.01926052 0.005414138 0.0072972793 0.014533163 -0.005182988 0.010256531 -0.003369567 0.012035161
-0.0016020408 -0.010641023 -0.003673281 -0.004948641 -0.010273059 0.0036130906 -0.0039262488 -0.015519651
-0.0052267397 -0.0044186427 -0.007595123 -0.017372081 -0.0004451387 0.0042050863 0.002772302 -0.004906589
-0.0035954507 0.008776436 -0.017231384 -0.0047329287 0.0043615038 0.005010512 -0.0040781246 0.008840544
0.020582182 0.0034417976 0.011874589 -0.0031360714 -0.00031768598 0.013487687 0.0027195779 0.0032460324
-0.004093831 -0.003018448 0.0035762326 0.011564038 -0.0029885375 -0.0035398065 -0.00094500446 -0.004527026
0.007244661 -0.0025736769 0.0010626818 0.0036032936 -0.0034032708 0.005820348 0.018079594 -0.006069876
0.0047439854 -0.0017188994 0.0035800952 0.0022588987 -0.004501922 -0.003290191 -0.0025422424 0.00028910363
0.010307572 0.010737371 -0.005769111 -0.008940599 -0.009658835 -0.005239253 -0.004854366 -0.009192816
00000000: 704f ba3b 1529 473b 79c7 ffb9 3838 cbbb
00000010: 9190 c1bb 07a7 7abc 8237 893c 56ba 1a38
00000020: d066 853c 4230 543c 4934 a8b9 b8ea e23b
00000030: d101 18bc d25a b1ba 79d1 8cbb 995a 103c
00000040: d44c 8bbb 165b 253c d94d d0bb 5179 75ba
00000050: deb6 8739 186f 46bb 7a4b d1bb 7c50 453b
00000060: ab25 f1ba 225a d33a 63f0 91bb e410 953c
00000070: 0c26 10bc 685a 62bb db9e afbb 9bfe 923c
00000080: 13c5 2bbb e8e5 88bc e9a4 97bb 0863 43bb
00000090: 617f dbbb b489 55bb 979d 64bb ca20 a8bb
000000a0: 19c1 7a3c ac23 0fbb 3e22 b2ba 81cf 833b
000000b0: c227 333c 37f9 5b3c 18cf 29bb bb3e 5b3a
000000c0: 0ba5 673b e9a7 143c bc68 eb3b 2c24 043c
000000d0: 4b22 61bb c94c 5dbb 199a f8ba 3a41 06bc
000000e0: 3dc8 9dbc 1569 b13b 041e ef3b 811c 6e3c
000000f0: 0ed6 a9bb 020b 283c f4d3 5cbb 202f 453c
00000100: 92fb d1ba af57 2ebc 6ebb 70bb 3628 a2bb
00000110: 5550 28bc 9ac9 6c3b c3a7 80bb 2246 7ebc
00000120: 1245 abbb 43ca 90bb 82e0 f8bb e54f 8ebc
00000130: 8161 e9b9 d2ca 893b 82af 353b 74c7 a0bb
00000140: a7a1 6bbb 0acb 0f3c d528 8dbc af16 9bbb
00000150: f2ea 8e3b 392f a43b caa1 85bb eed7 103c
00000160: f79b a83c c88f 613b a38d 423c 8c86 4dbb
00000170: 178f a6b9 76fb 5c3c f23a 323b 63bb 543b
00000180: 8b25 86bb 27d1 45bb 3a5f 6a3b 1777 3d3c
00000190: 57db 43bb 19fc 67bb 2dba 77ba 7257 94bb
000001a0: 9f64 ed3b 22ab 28bb af49 8b3a 3c25 6c3b
000001b0: 6909 5fbb 9eb8 be3b a81b 943c cfe5 c6bb
000001c0: 6f73 9b3b b14c e1ba 08a0 6a3b 080a 143b
000001d0: dc84 93bb 3fa0 57bb c09b 26bb d592 9739
000001e0: 17e1 283c cceb 2f3c d00a bdbb 977b 12bc
000001f0: 1740 1ebc 0aae abbb 6011 9fbb 779d 16bc

network_body._body_endoder.seq_layers.2.weight f4 [128, 128]
0.13294306 -0.11178333 0.026814036 -0.06217193 -0.10239664 0.092325896 -0.023396993 0.08107891
0.1218824 -0.06282357 0.00041676962 -0.039419618 0.054756727 -0.011025845 -0.04124926 0.05392441
0.03131244 0.003930292 -0.10753141 -0.017846664 0.019997062 0.1122343 -0.06815043 -0.017241644
0.07618366 -0.04404265 -0.013750034 0.04917579 -0.108235635 0.09861271 0.019486323 -0.12879781
-0.05687512 -0.040675282 0.08789201 -0.12109379 -0.11537551 0.082512684 -0.17943999 -0.057128754
-0.107115746 0.069647655 -0.031387184 -0.03637007 -0.031772666 0.04739565 -0.030118378 -0.014600874
-0.04736056 -0.056027737 -0.15116706 0.11945206 -0.07069197 0.04737014 0.0009947966 0.08439046
0.04768232 0.11716942 0.0026628436 -0.033014115 -0.03709311 0.0058953594 -0.14262629 0.15292427
0.017730951 0.007113455 0.0953845 -0.035281226 0.082268044 0.019277977 0.087816566 0.01217543
-0.11224778 -0.068651445 -0.054618955 0.04788329 -0.025363404 0.1055059 0.05084383 0.014509908
-0.023921896 -0.1577495 -0.16778536 0.00063592236 0.050366182 0.025598746 0.27900732 -0.045594886
0.02365213 -0.19181643 -0.058663566 -0.040024992 -0.0058821477 0.031112567 -0.10018655 0.09752392
-0.02647705 -0.004728442 -0.14118344 -0.013948939 -0.053322937 -0.021414304 -0.19607724 -0.044510588
0.011939363 0.044798147 0.002133448 -0.07791389 -0.027167019 -0.06844581 -0.026300361 -0.039992973
-0.014584862 -0.03236337 -0.15254612 0.05829842 -0.010437 -0.06904574 -0.10261772 0.08054171
-0.03260562 -0.05688384 0.063505076 -0.05741287 -0.12170988 -0.09461078 -0.06777217 0.0041528493
0.048418377 0.009293845 -0.056414206 0.13249712 -0.18253958 -0.0028623017 -0.040604156 0.017377205
0.10611408 -0.052189566 0.011980152 -0.028845327 0.11166794 0.04325149 -0.11831889 0.0021263019
-0.017382625 -0.062693626 -0.16740207 -0.07255855 0.10167309 0.123537034 -0.10265949 0.04183217
-0.06664165 -0.13227718 0.17555615 -0.10137427 -0.023990462 -0.013935967 0.14432816 0.024615807
-0.059210226 -0.026119806 -0.06342328 0.1670496 -0.009315408 0.13008577 0.100870475 -0.017874435
0.16682562 0.0476585 0.0763288 -0.13196412 -0.065427236 0.047512718 0.11200357 -0.064450845
-0.05502363 0.0768331 -0.005552323 -0.10335015 0.05713118 -0.016841654 0.09643969 -0.0671943
-0.039182104 0.06312355 -0.07449026 0.22300847 0.04401278 -0.14808118 -0.033871368 -0.031706784
-0.11040541 0.10414851 -0.0010235204 0.09896432 0.15131074 0.023993298 -0.12855445 0.023220649
-0.11851066 0.08090643 0.055629835 -0.017948806 -0.116914876 -0.02691238 -0.019798584 -0.025760477
-0.04430668 0.013421606 0.009565493 -0.081293434 -0.1156123 -0.030958466 0.058788873 -0.06176774
0.053868946 0.1368789 0.15464224 0.13664807 -0.12148335 0.07330416 0.06404012 0.02695469
-0.2267376 0.14867347 -0.004384733 -0.047682624 0.15964815 -0.034520302 0.23498055 0.1506988
0.1274508 -0.12939237 -0.08754584 -0.13249537 -0.00554888 0.012524759 -0.08355328 0.022296056
-0.006262547 0.13610321 -0.090697095 0.053249847 0.10923542 -0.008051543 0.034815952 0.019319361
0.01265802 0.20918149 0.032276586 0.15798482 0.1307747 0.005033711 0.0034026129 0.00036505368
00000000: 3a22 083e a9ee e4bd 1ca9 db3c fea7 7ebd
00000010: 54b5 d1bd 5c15 bd3d 0dab bfbc b30c a63d
00000020: 7b9d f93d a5a9 80bd df81 da39 7776 21bd
00000030: 9748 603d bfa5 34bc fcf4 28bd d8df 5c3d
00000040: 7941 003d aec9 803b 6e39 dcbd 2b33 92bc
00000050: e1d0 a33c 19db e53d 7492 8bbd 593e 8dbc
00000060: 2e06 9c3d 1166 34bd d347 61bc 8e6c 493d
00000070: a5aa ddbd 76f5 c93d c8a1 9f3c 93e3 03be
00000080: e3f5 68bd 209b 26bd ba00 b43d 0500 f8bd
00000090: ff49 ecbd 69fc a83d 1ebf 37be d7ff 69bd
000000a0: 805f dbbd 6ea3 8e3d d98f 00bd c8f8 14bd
000000b0: 0e24 02bd f121 423d d1ba f6bc 8138 6fbc
000000c0: 26fd 41bd 577d 65bd 8acb 1abe 48a3 f43d
000000d0: f4c6 90bd 3107 423d d663 823a e8d4 ac3d
000000e0: 894e 433d 85f6 ef3d 1a83 2e3b cf39 07bd
000000f0: f2ee 17bd dc2d c13b a00c 12be 2e98 1c3e
00000100: 8040 913c fc17 e93b f358 c33d 0c83 10bd
00000110: 267c a83d d9ec 9d3c 2cd9 b33d 747b 473c
00000120: 2ae2 e5bd 2199 8cbd 20b8 5fbd 4521 443d
00000130: eac6 cfbc 7a13 d83d 9f41 503d f7ba 6d3c
00000140: daf7 c3bc 1689 21be edcf 2bbe 07b4 263a
00000150: c54c 4e3d 76b4 d13c 0cda 8e3e b4c1 3abd
00000160: 1dc2 c13c 876b 44be 3549 70bd 3ff1 23bd
00000170: 08bf c0bb c8df fe3c 9b2e cdbd 9fba c73d
00000180: 66e6 d8bc 0cf1 9abb 6492 10be 178a 64bc
00000190: 2769 5abd 0d6d afbc 79c8 48be bc50 36bd
000001a0: 519d 433c 437e 373d 51d1 0b3b 5191 9fbd
000001b0: 5e8d debc 512d 8cbd db73 d7bc accf 23bd
000001c0: 58f5 6ebc 748f 04bd 0d35 1cbe 53ca 6e3d
000001d0: f3ff 2abc da67 8dbd 3d29 d2bd 0df3 a43d
000001e0: 788d 05bd 08ff 68bd f30e 823d c229 6bbd
000001f0: 0843 f9bd 4cc3 c1bd 23cc 8abd a014 883b
00000200: 5952 463d 3645 183c 9512 67bd 53ad 073e
00000210: a8eb 3abe 7495 3bbb 8b50 26bd a45a 8e3c
00000220: 5752 d93d bac4 55bd 6648 443c 094d ecbc
00000230: 29b2 e43d 7928 313d 2d51 f2bd 6d59 0b3b
00000240: 0266 8ebc 8465 80bd 736b 2bbe 9499 94bd
00000250: fb39 d03d fc00 fd3d 243f d2bd 3658 2b3d
00000260: 6b7b 88bd ab73 07be fec4 333e 509d cfbd
00000270: a587 c4bc af53 64bc c3ca 133e 17a7 c93c
00000280: 6c86 72bd 34f9 d5bc 11e4 81bd 0d0f 2b3e
00000290: a79f 18bc 3435 053e 2e95 ce3d 686d 92bc
000002a0: 56d4 2a3e 8f35 433d 4652 9c3d 9a21 07be
000002b0: b7fe 85bd b29c 423d 2162 e53d cefe 83bd
000002c0: 7560 61bd ac5a 9d3d 43f0 b5bb 3ea9 d3bd
000002d0: 6202 6a3d 82f7 89bc 2c82 c53d 2a9d 89bd
000002e0: 6a7d 20bd eb46 813d 598e 98bd 555c 643e
000002f0: bf46 343d 98a2 17be b4bc 0abd f9de 01bd
00000300: 3b1c e2bd d04b d53d a527 86ba cead ca3d
00000310: 34f1 1a3e 988d c43c c7a3 03be 3b39 be3c
00000320: b8b5 f2bd 45b2 a53d 1cdc 633d 6009 93bc
00000330: 1171 efbd 5a77 dcbc a430 a2bc a307 d3bc
00000340: ec7a 35bd 4ce6 5b3c 96b8 1c3c 2c7d a6bd
00000350: 24c6 ecbd 9c9c fdbc 9acc 703d 2b00 7dbd
00000360: afa5 5c3d fb29 0c3e 895a 1e3e 79ed 0b3e
00000370: 43cc f8bd 7e20 963d 7727 833d 15d0 dc3c
00000380: e72d 68be dc3d 183e cead 8fbb db4e 43bd
00000390: ce7a 233e 2965 0dbd be9e 703e c950 1a3e
000003a0: 7682 023e 6f7f 04be 3c4b b3bd deac 07be
000003b0: 61d3 b5bb a634 4d3c fb1d abbd 38a6 b63c
000003c0: 0d36 cdbb a45e 0b3e 66bf b9bd 831c 5a3d
000003d0: d2b6 df3d 9eea 03bc 2c9b 0e3d a343 9e3c
000003e0: 9563 4f3c ac33 563e 7434 043d c6c6 213e
000003f0: cee9 053e d4f1 a43b 5ffe 5e3b ad64 bf39
