results/Try4/jumper/jumper-100162.pt (torch, 465503 bytes, 30 tensors)

network_body._body_endoder.seq_layers.0.weight f4 [128, 15]
00000000: 2b48 cfbe e3d2 36bb 6e6c d7bd 5ec2 a8be
00000010: 2b6a fb3e a318 313e 40c9 a4be 2133 94be
00000020: 133a 7bbd 4ff6 9abe 544b cabd c471 8f3d
00000030: 3ba9 a4bd 1914 ef3d 576f cc3e 92dd 9a3d
00000040: c763 bebd fe01 503d bc0b b33e 244e 5e3e
00000050: bbb7 563e 155f 153f ebaa 123e d67c e2be
00000060: 7828 4d3d 59fc 10bc 6e2d e43e 797a 2e3e
00000070: 4a34 57be c206 f23e 49dc 5abe 819f b33c
00000080: a700 a5be 6c4c 5a3e 9402 133e a332 353c
00000090: 1fa4 353e 65c3 3bbd 4095 0bbe adc7 a3be
000000a0: 417b ac3d de2a 71be f571 6a3e 410f 043e
000000b0: 498a 8fbe 02e8 0dbe e3c3 3c3e c358 003e
000000c0: cba4 4e3e 65a3 10be ab94 873d aa94 c3bd
000000d0: be91 48be 914d 5a3e d889 dabe 0616 5dbe
000000e0: fc3f 1abf bc38 8e3e c1f3 363e 5ff0 0d3d
000000f0: 8edd af3e 63cd 543e a791 0ebe 284d 883e
00000100: aa25 0e3e b9b9 cc3d 0747 44bd be5c 8c3e
00000110: 8726 d9be 65a6 a6be 6000 89be 6580 303c
00000120: 7c3f 463d 5d29 823e 26c7 8a3d 2d25 dd3e
00000130: 93db 32bd 5533 4ebe 81ef 003e 7fcd 68be
00000140: e811 1f3d aa34 fa3d b190 563d ed67 9d3c
00000150: 844c c2be b0d5 b53e e3e1 9e3b e63c 9ebc
00000160: cb7b c73d 4e79 563e d4d5 f43e b207 6fbe
00000170: 933b c8be b60d 7fbd cda2 e2be f34b 003e
00000180: b1ba 08be 4741 913d 4b14 e23d 0340 b43d
00000190: 45c8 263e 6e49 3cbe a8dc d13e 9421 11be
000001a0: e834 fb3d 1a36 adbe 0acb 75be 8de9 3f3e
000001b0: 6e15 f3bd 2f2a 3dbe c679 d33d 0315 e9be
000001c0: f904 163e 51a6 4f3e c6ee 8d3e f1f9 3a3f
000001d0: 477e 9b3e a10f 6bbe 5d5b 2fbf 49c2 913e
000001e0: 6aaf 7ebe ce97 183d bb6a c23d d3a5 9dbc
000001f0: cd57 a93c ff59 173e 6fb3 9cbe 67d6 553e
00000200: 8087 39be b85d cb3d 09a6 5ebe 3bd2 a03e
00000210: 552e 193e d5c5 45be 6b75 b03e d248 e03e
00000220: 157e 693e 0558 d1be cda3 53be 52c9 6c3e
00000230: 3db3 b73d ee65 a4bd b2c5 e0be e5d4 3d3e
00000240: 23b4 e73e 95c7 b6bc 4b0f 2b3d df9d 18bd
00000250: 2bd1 64be 72e9 9fbd 4b68 383e f60b c2be
00000260: b99f ca3e c389 f13c 039f a43e 6ad0 fb3e
00000270: 2f90 7ebf 8c64 ccbc 80de aebe 83c4 2dbd
00000280: 3b8a 0f3f 627e eebe 850a 3e3e d5d3 9e3d
00000290: c8b3 a03d 5713 563e 8f8c dbbe 35dd b3be
000002a0: ff8f a6bd e31f da3e 4f60 07bf 9cd0 87bd
000002b0: f2f9 ad3e c4cb eb3d 7fb0 b13c c7a3 fabd
000002c0: ff51 b9bd da72 153e 3741 03be 7aa3 e03d
000002d0: 74af 1f3e 29be 6e3d 7a7c 853d edc7 763b
000002e0: 19d1 a33d b3f9 d03d c3cc f2bd 3eb0 bd3e
000002f0: f8db dabe 49cd b3bc a17f f0bc a5f3 0c3f
00000300: ae48 ccbe db18 78be eda9 dbbe db64 f53e
00000310: 74e7 133e 5c07 c13e 2616 43bc 08b5 363d
00000320: eb45 bebe e25f 103e 9cbd 833e 53e8 04be
00000330: 8b40 81be de53 9f3e 6e63 bcbe e554 d33d
00000340: e3f7 38bd 4841 21be efa5 86be 8669 833e
00000350: 6f9f 39bc 8970 86be 042f 013e 34b8 563d
00000360: bbf5 bbbd 390b 59bd 5152 4d3e 5ba7 593e
00000370: ac3c 92be 7ef9 1abe 583e b7bc c795 ecbd
00000380: b193 cebd ad0c 303e a1c2 ce3e dc04 0fbe
00000390: 7531 283e e9ef e23d 11ff 8a3e fc73 a3bd
000003a0: ed94 ae3c 0227 15be e617 3b3e 5c94 a0be
000003b0: 0949 9e3e a24f 653c cc65 b5be 52ee 40be
000003c0: b5b0 5bbc b94b 61be ba72 1b3e e1a3 fcbe
000003d0: fce3 debe 04dd a23e 078a b1be bea1 f5b9
000003e0: 6d32 563e 35c9 16bf 96d3 3ebd 36e4 2c3e
000003f0: 0c39 3a3f c7bf 983e 2ec8 cb3c 82e7 14bd
-0.40484747 -0.0027896694 -0.10518728 -0.3296079 0.49104437 0.17294554 -0.32184792 -0.28945258
-0.06133468 -0.30266044 -0.09877649 0.07004121 -0.08040091 0.11673755 0.39928696 0.075617924
-0.09296375 0.05078315 0.3496989 0.21709496 0.20968525 0.5834821 0.14323013 -0.44235867
0.050087422 -0.008849227 0.4456591 0.17038907 -0.2101604 0.4727078 -0.21373095 0.021926643
-0.3222706 0.21318215 0.14356452 0.011059436 0.17738388 -0.04584064 -0.13631153 -0.31988278
0.08421946 -0.23551509 0.22895034 0.12896444 -0.2803519 -0.13858035 0.184341 0.1253386
0.20180051 -0.1412483 0.06620153 -0.0954984 -0.19586846 0.21318652 -0.4268329 -0.21590433
-0.6025388 0.2777766 0.17866422 0.034653064 0.3434872 0.20781474 -0.1392275 0.26621366
0.13881555 0.09996361 -0.0479193 0.27414507 -0.42412207 -0.32548824 -0.267581 0.010772799
0.048400387 0.25422183 0.06776266 0.43192425 -0.043666434 -0.20136769 0.12591363 -0.2273464
0.038835436 0.12217076 0.052384082 0.019214595 -0.37949002 0.35514593 0.004848705 -0.019316148
0.097404085 0.20944712 0.47819388 -0.2334278 -0.39107952 -0.062268935 -0.44264832 0.12528972
-0.13352467 0.07092529 0.11039027 0.08801272 0.16287334 -0.18387386 0.4098866 -0.14172965
0.122659504 -0.3383034 -0.24003235 0.18741436 -0.11869322 -0.18473123 0.10325961 -0.45523843
0.14650334 0.20278288 0.27721232 0.7303763 0.3036978 -0.2295518 -0.68498784 0.2846854
-0.24871603 0.037254147 0.094930135 -0.01924411 0.02067175 0.14780425 -0.30605647 0.20882569
-0.18118095 0.09929985 -0.21743025 0.31410393 0.1495908 -0.19313748 0.34464583 0.43805557
0.22802003 -0.40887466 -0.20667954 0.23123673 0.08969734 -0.08027254 -0.4390083 0.18538244
0.4525462 -0.022311965 0.04176263 -0.037259933 -0.22345416 -0.07808198 0.18008535 -0.3789975
0.39574984 0.029484635 0.32152566 0.49182445 -0.99438757 -0.024950288 -0.3415413 -0.042423736
0.560703 -0.46580797 0.185587 0.077552475 0.078467906 0.20905815 -0.42880675 -0.35129705
-0.08132934 0.42602453 -0.5288133 -0.06631586 0.33979756 0.115134746 0.021690605 -0.12238269
-0.09048843 0.14594594 -0.12817846 0.10968681 0.15594274 0.05828682 0.06517883 0.0037655786
0.079988666 0.10203876 -0.118554614 0.37048525 -0.42745948 -0.021948474 -0.029357733 0.5505927
-0.398992 -0.24228232 -0.4290308 0.4792851 0.14443761 0.37700927 -0.011907136 0.04460624
-0.37162718 0.14099076 0.25730598 -0.1297925 -0.25244555 0.31118673 -0.3679461 0.10318927
-0.04515828 -0.15747559 -0.26298472 0.25666445 -0.011329516 -0.26257733 0.12615591 0.052421764
-0.09177729 -0.05298922 0.20050932 0.21255247 -0.28561914 -0.15134236 -0.022368595 -0.11552005
-0.10086764 0.17192335 0.40382865 -0.13966697 0.16425116 0.110809155 0.27147725 -0.07981107
0.021311248 -0.14565662 0.18270835 -0.3136319 0.30915096 0.013996037 -0.35429227 -0.18840912
-0.013408829 -0.22001542 0.15180483 -0.4934378 -0.43533313 0.31809247 -0.3467562 -0.0004685055
0.20917673 -0.5890077 -0.046588503 0.1688393 0.72743297 0.29833815 0.024875727 -0.036353596

network_body._body_endoder.seq_layers.0.bias f4 [128]
00000000: 04ea 393d cd24 1ebd 6ad2 953b 44ca d0bc
00000010: 652e 063d a28c 933d 268e 90bd ce60 313d
00000020: 8716 35bc 3cd6 283c b742 5fbc ba70 e43c
00000030: 7b7a 723c b00e 943d 9daf 493b bd1c 8bbd
00000040: 1999 a0bc 53b7 d53c 4e0d ebbc 80ec 8c3d
00000050: ebfb 80bd 62bb cebc 9f61 17be 13ee 01bd
00000060: b2a0 8fbc 3bd0 14bc 762a 863c 1b7d 85bd
00000070: 892a 55bd 0b80 2dbd c1a1 febb df76 6c3c
00000080: 2580 5a39 a2d3 a03c c3b3 163d 7033 133c
00000090: 4023 6b3d 816f cc3b dfcf 3abd 82e7 d0bd
000000a0: adad 23bd 54df 5b3d 5f67 3f3b d0fe febc
000000b0: 855e a63c 7358 a53d c4aa 5fbd cb52 9e3d
000000c0: e354 8c3d db8d cc3a 86ce fd3c 3126 03be
000000d0: 80dc 1ebd e39d 3d3c a0a4 2a3d 9aa4 f8bc
000000e0: b16b 483d 4059 d0b9 d897 91bd 637e 3a3c
000000f0: 4fde e8bc d258 b3bc d0b0 78bd 8ec3 68bc
00000100: d05b 06bc 800e 643c 1a73 e5bd fbe1 4bbd
00000110: 8ec5 b1bc 03b8 863c 1e13 a93a 8374 f2bc
00000120: 4c45 f3b9 36dc 6e3c f06f 85bc 19c8 c5bd
00000130: 6b3d a2bc efc9 2fbd 4c96 333d 068a d7bd
00000140: 4d4d 833d 8f01 2f3c 1abb f2bd df67 49bb
00000150: 3f41 9fbc 89c6 f2bc 606b 8b3c a332 7dbd
00000160: 9326 083c f9a7 97bc edca 653c 68ba 76bd
00000170: 3794 953d 9282 b3bb 0e08 31bd d525 80bd
00000180: 2c7e 2f3c 7d8f 05bd bee1 30bb f0f0 ab3b
00000190: 5f8f ddbc 366a 8d3b 1010 a3bd d93d 67bc
000001a0: 8af7 483d 73c0 20bd 7c13 50bd 7f99 9cbd
000001b0: b231 933d 3491 d33d 73e9 00be d73a 58bc
000001c0: cd55 fa3a 1643 5e3c 148c 6dbc 3b8b d73b
000001d0: e5ef 623d ba40 86bc 829d 733c 1063 1cbd
000001e0: 5ab4 74bc 3cdc 073d 3c02 e2bd 4f99 a0bc
000001f0: 6d3f 3abc 0448 3ebc bc7b 60bc e5b3 69bd
0.04538919 -0.038609315 0.0045722025 -0.025487073 0.03275909 0.07204558 -0.07058363 0.04330521
-0.011052734 0.010304984 -0.013626746 0.027885783 0.014799709 0.07229364 0.003077484 -0.06792591
-0.019604253 0.026088392 -0.028692868 0.06881046 -0.062980495 -0.025235835 -0.14783333 -0.031721186
-0.01753268 -0.009082849 0.016377669 -0.065180026 -0.052042518 -0.04235844 -0.0077707474 0.014432638
0.00020837838 0.019632164 0.036792528 0.008984432 0.057406664 0.0062388782 -0.045608398 -0.102004066
-0.039960552 0.05367978 0.00292059 -0.031127363 0.020308742 0.08073511 -0.054606214 0.07730635
0.06852128 0.0015606241 0.030982267 -0.12807538 -0.038784504 0.011573288 0.041660905 -0.030351926
0.048930828 -0.00039739348 -0.0710904 0.011382672 -0.028426317 -0.021892939 -0.060715497 -0.01420678
-0.008200601 0.013919473 -0.112035945 -0.04977606 -0.021700647 0.016445166 0.0012899374 -0.029596573
-0.00046400202 0.01457887 -0.016288728 -0.09657306 -0.019804677 -0.04291719 0.043844506 -0.10524373
0.06411228 0.010681524 -0.11852093 -0.0030732078 -0.019440291 -0.029635685 0.017018974 -0.06181587
0.008309978 -0.018512713 0.014025432 -0.060236365 0.0730366 -0.0054782117 -0.043220572 -0.06257216
0.010711234 -0.032607544 -0.0026990022 0.005247228 -0.027045904 0.00431564 -0.07962048 -0.014113867
0.049064197 -0.039246034 -0.05079983 -0.076464646 0.07187213 0.1033043 -0.12589054 -0.013197622
0.0019099057 0.013565799 -0.014498729 0.006577877 0.055404563 -0.016388286 0.014869096 -0.03818041
-0.014935577 0.033169016 -0.110355824 -0.019604353 -0.011367661 -0.01161385 -0.013701376 -0.057056326

network_body._body_endoder.seq_layers.2.weight f4 [128, 128]
00000000: 3141 5a3c 2c69 a2bd 71e7 44be 1427 77bc
00000010: fcbc 29bd a2f4 3a3a f231 21be 1d59 4dbe
00000020: 8a71 6cbd 106a 85bd 6f81 15be e5a5 d03d
00000030: 3b77 95bd 1080 30be c7a6 933c 02bb 953b
00000040: afbc d1ba 5c25 84be ec12 40bd 6925 10be
00000050: 8fd6 ea3d 2f6f ecbd 989f 8a3b 4244 06be
00000060: 00c3 5f3d df3f ebbb bd9b 59bd 4640 4dbe
00000070: 0b15 24be e31f 3fbd 92ff 8c3d 3d9f 66bd
00000080: f96d 57bd d85a dd3d 7a4a b83c 1379 a13d
00000090: af9a bf3c a4e2 82be 205f 07bc 4864 bf3d
000000a0: 7e9f 96bb 899c abbd 8ef5 e43d 2f06 b93d
000000b0: 2826 ff3d 4122 953d 97c7 c7bd e4e9 13bd
000000c0: fac4 06bd ed9b 82bd cae6 483d 8549 ff3d
000000d0: b529 023c 68cf dc3d 4427 0cbd 9435 f23c
000000e0: b9fe e53d 88ab 0cbe 7ff7 123d 234a 2a3e
000000f0: d041 fe3d 08cb 24bd d15d 03be 6386 c4bd
00000100: e8e4 e7bc 82ba e4bb d891 a4bd 97b1 bd3d
00000110: 8b7e 5fbd c0c5 983d 24ec 203e dda9 08be
00000120: 4c0e 60bc e084 ebbc 3a55 c73d 7ce6 2abe
00000130: 358f b63d dfa8 083e 41f4 833c 3f76 903d
00000140: ab6b 19be 5525 84bc 5764 02bc 2ad2 90bd
00000150: a2c3 433c 14a1 5c3d e59b 8fbb 278d 0f3e
00000160: ee44 393e 3922 af3c 3f9b 973c 4228 8cbc
00000170: dcf1 38bd 37cd 61bc 0547 ad3d 281f f83d
00000180: eb5f 873d 1562 c5bd ca53 24be 9e08 0c3e
00000190: 32c1 1a3e efcb f23d ee16 d439 d115 ab3d
000001a0: 9eb3 b23d fd3f 3bbe 11b5 0e3d 321b 9b3d
000001b0: 6fe9 fbbc ee44 88bd 119f cfbd 115c ae3d
000001c0: 4495 e63d 1d07 3a3c 7758 4fbe 6254 973d
000001d0: 9162 a53d 319c 0d3d a508 983c f845 213d
000001e0: 10fe 933d 4710 8fbd fcd6 16be 6c5e 93bd
000001f0: 8e76 a5bd 67b7 0cbe c9c7 653d 5eba 083e
00000200: 3ba6 703d 8d06 0e3c dc70 38be 4db8 ae3d
00000210: 6455 fd3d 2a8a 503e 561e e03d 1a86 e83c
00000220: 9c30 ae3c 9410 143e 4501 a7bd 6bfa 153e
00000230: 90a9 013e 5158 e0bc 664f 123e 7154 81bd
00000240: 2e2f a8bc 4843 593c 883a 16be 6562 6e3d
00000250: f1b3 813d 3356 28be eb10 7cbc a102 b33d
00000260: de0e 233d 964b 0b3e 12cf 933c bbe0 4dbb
00000270: 34f4 0b3e c4f8 8ebd 1350 5bbc 2fa8 283e
00000280: 914a 303e 64e1 0c3e ae8b ec3c aee4 fbbd
00000290: 509a 843c 25c1 b3bc 4871 6739 1e76 f7bd
000002a0: dcb7 bb3d fce7 afbd 4860 db3c d206 21be
000002b0: 862f 583b 0609 573d 7571 02bd f13f 0e3d
000002c0: 4773 25bd 996d 30bc a8be c7bd fd43 4d3d
000002d0: d05a a4bd aeeb 053d 648e a03d 7060 2d3d
000002e0: 977d a4bd 5345 28be ba32 2cbd d20d 11bd
000002f0: c6d6 80bc 47d6 133e 2f5c 23bc 07b8 f83d
00000300: 74af 6a3d 97e1 383d bf70 f63c 91b8 3e3e
00000310: 7bdb fdbd 3e97 173e b480 cebb 68a5 1dbe
00000320: 6924 22bc 60c7 16be d49d c63d 23c2 023d
00000330: e3f0 70bd ac95 883d d48b be3d 9ad5 8cbc
00000340: de8c 3a3e cce0 5ebe 13cd 5bbe e1dd bebd
00000350: ced5 08be eb90 d33c 154d 0e3e 1955 5237
00000360: 2bc0 843d a3db 39be 3513 c1bc d55a ce3d
00000370: 5c7c 013e 501e 353e 2dc0 4e3d 1733 083e
00000380: 0928 0ebe 6549 343c c4c2 5a3e 90fe caba
00000390: 07c2 bb3d cfa3 50be b746 b23c 16a8 60bd
000003a0: e634 123e 454e f93d 1104 d9bd 5169 13bc
000003b0: 4be3 153e 7bfa 79bd bbd9 e5bc a347 0ebe
000003c0: 992d 17bd e293 75be a0f4 d43d 3879 cabc
000003d0: e9ed 8fbd 3bdf 52bd 7bac 293e 7891 0d3e
000003e0: 4347 abbd 60cd 853d b956 55b9 a11d 963d
000003f0: b537 593d 0881 9d3a dbf5 013d f70f 2a3e
0.013321207 -0.07930216 -0.19228913 -0.015085001 -0.041439995 0.000713179 -0.15741709 -0.20053525
-0.057725467 -0.065143704 -0.14600156 0.10187892 -0.07298132 -0.17236352 0.018023862 0.004569412
-0.0016001667 -0.25809753 -0.046893045 -0.14076771 0.11466705 -0.11544644 0.004230451 -0.13111976
0.054629326 -0.007179245 -0.05312704 -0.2004405 -0.16023652 -0.04666127 0.06884684 -0.056304205
-0.052595112 0.10808343 0.02249645 0.07884421 0.023389189 -0.25563538 -0.008262426 0.09345299
-0.0045966497 -0.08379466 0.11179648 0.090343826 0.124584496 0.07281924 -0.097548656 -0.036111727
-0.032902695 -0.06377397 0.049048223 0.124651946 0.007944514 0.10781747 -0.034217134 0.029566564
0.11230225 -0.13737309 0.035880562 0.16629843 0.124148965 -0.04023269 -0.12828757 -0.09595945
-0.028307393 -0.0069802413 -0.0803563 0.09262388 -0.05456404 0.07459593 0.1571508 -0.13346048
-0.013675284 -0.028749883 0.097330526 -0.16689485 0.08914033 0.13345669 0.01610768 0.07053804
-0.14982478 -0.016131083 -0.007958493 -0.070713356 0.011948498 0.053864554 -0.0043825977 0.14018689
0.18092701 0.021378623 0.018506644 -0.01710904 -0.04515253 -0.013781837 0.084608115 0.121153176
0.06610092 -0.09637848 -0.16047588 0.13675162 0.1511276 0.118553035 0.00040452875 0.083537705
0.087256655 -0.18286128 0.034840647 0.075735465 -0.030750958 -0.06653772 -0.101377614 0.08513654
0.11258939 0.011354235 -0.2024859 0.073891416 0.08075441 0.034572784 0.01855881 0.039373368
0.07226193 -0.069855265 -0.14730448 -0.07195744 -0.08079253 -0.13741837 0.056098733 0.13352343
0.05875228 0.008668554 -0.18011802 0.08531246 0.123698026 0.20365205 0.10943286 0.028384257
0.021263413 0.14459449 -0.08154539 0.14646308 0.12662339 -0.027385863 0.142881 -0.06314934
-0.02053031 0.01326067 -0.14670765 0.058199305 0.06333149 -0.16439132 -0.015384893 0.08740736
0.0398091 0.13603052 0.018043075 -0.0031414467 0.13667375 -0.06981042 -0.01338579 0.16470407
0.17215945 0.13757855 0.028875198 -0.122994766 0.016186863 -0.021942684 0.00022072077 -0.12083076
0.09165928 -0.085891694 0.026779309 -0.15725258 0.003298731 0.05249884 -0.031846482 0.034728948
-0.04039314 -0.010768318 -0.09753162 0.050113667 -0.080251336 0.032695465 0.07839659 0.042328298
-0.08031767 -0.16432695 -0.042040564 -0.03541357 -0.015727412 0.14437209 -0.009970709 0.121444754
0.05729623 0.045137014 0.030083058 0.18625094 -0.12395378 0.14803788 -0.0063019637 -0.15395129
-0.009896376 -0.14724493 0.09698072 0.031923424 -0.058823477 0.06669173 0.09304014 -0.017191697
0.18217799 -0.2176544 -0.21464948 -0.09319664 -0.1336281 0.025825938 0.13896592 1.2536789e-05
0.06481966 -0.18150191 -0.023568729 0.100759186 0.12645096 0.17687345 0.05047624 0.13300739
-0.1388246 0.011003827 0.2136336 -0.0015487242 0.09167867 -0.20374988 0.021762235 -0.0548478
0.14277992 0.12173132 -0.10596479 -0.008997277 0.14637487 -0.061029892 -0.028057924 -0.13894515
-0.03690872 -0.23982194 0.10398221 -0.024716005 -0.070278 -0.05148242 0.16569702 0.13825023
-0.083632015 0.06533313 -0.0002034557 0.0732987 0.053031642 0.0012016604 0.031728607 0.16607653

network_body._body_endoder.seq_layers.2.bias f4 [128]
00000000: e8b2 a0bc 6104 223c 7cf3 d6bc ae14 69bc
00000010: b3fa bcbc 8896 1bbc 5632 3a3b bfd5 b5bc
00000020: 70ef 06bd 89b4 5abd 4c93 5fbb 5a6e b6bc
00000030: 0bd5 a1bb 32e0 6cbc b506 62bc 1437 caba
00000040: e9f9 ccbc 11ef c4bc 050a e0bc 05d1 b03a
00000050: bb76 da3c 699e 15bd 8a73 263c f185 18bd
00000060: 58c7 40bd 8890 f0bb ccca 8bbc 1f68 bbbc
00000070: 2b36 073d b2e1 66b9 7606 94bc 206c a4bc
00000080: 175f 34bc 1cc8 d7bc f206 243d c322 efbc
00000090: 5f1b 9abc b0c9 0a3d 01a1 ce3a 5b9c e6bc
000000a0: f71e 173a a14f 21bc 979e c7bc cab5 8dbc
000000b0: fb4c 77bd 6190 3cbd e052 6c3a 6c87 8a3c
000000c0: 0aa1 2d3c b6e6 2bbc a00d 3c3c 074f 15bd
000000d0: ea04 0abc 4cc2 afbc 04c6 eaba 6bb5 8bbd
000000e0: 0bcb 68bd 448d 223d caad 9dbc 9c74 8bbc
000000f0: 4172 33bc 6a7d c8bc 6583 88bd 436a 8e3b
00000100: 6e26 253c e05a d53a b69c a5bc d0a8 d93c
00000110: 39e0 03bc aca3 113c 6275 133a b21b 3dba
00000120: a13b 923c 9a70 97bb 362e ea3c 1d28 80bc
00000130: 567b 953b c6ce 15bc 24c9 cabc a42b d53c
00000140: ee84 0bbd 3d12 ee3c 298d 3b3b 8834 973b
00000150: 9345 64b8 fd73 2bbc 0408 c73b 2d85 4bbc
00000160: fb51 0abd f492 d53c d7aa 023a 4c65 24bd
00000170: c6f8 00bd 5da7 173b a3b4 a8bc d0f2 08bd
00000180: 63fd ef3b 27b8 a4bc 2ecf 9d3c be9e 173c
00000190: 553b bc3b d315 56bc 285a e6bb 001b 43bc
000001a0: 0263 2b3d 9767 a43c 1970 b3bc 0a1e cfbc
000001b0: 14f7 5f3b 7b02 25ba 7363 9039 59b0 cbbb
000001c0: d34b 4d3c 98e2 143d 0703 513d cf82 543c
000001d0: f030 df3c 897a 583c 0a7e 073d f148 233c
000001e0: 3669 a43b 2751 85bc 72ec f9bc 6a37 413c
000001f0: 2582 b9bc 8583 1c3d b241 263c 1e72 abbb
-0.01961656 0.009888739 -0.02623915 -0.014226122 -0.023068761 -0.009496339 0.002841135 -0.022196649
-0.03294319 -0.053394828 -0.0034114895 -0.022269417 -0.004938727 -0.014457749 -0.013795544 -0.0015427792
-0.02502151 -0.024039777 -0.027348528 0.0013490027 0.026667943 -0.036528025 0.010159383 -0.03723711
-0.04706511 -0.007341448 -0.017064475 -0.022876797 0.033010643 -0.00022018587 -0.018069487 -0.02007109
-0.011008999 -0.026340537 0.040045686 -0.02919138 -0.01881188 0.03388375 0.0015764536 -0.028150728
0.0005764807 -0.009845645 -0.024367614 -0.017298598 -0.06037615 -0.046036128 0.0009015035 0.016910277
0.010597477 -0.0104920175 0.011477858 -0.03645232 -0.008424023 -0.021454953 -0.0017911796 -0.06821712
-0.056834262 0.039685503 -0.019247908 -0.017023377 -0.010952533 -0.024473865 -0.066656865 0.0043461635
0.010079963 0.0016277693 -0.020216327 0.026569754 -0.008049064 0.00888912 0.00056250964 -0.0007213905
0.017850699 -0.0046215774 0.028586488 -0.015644128 0.004561822 -0.009143537 -0.024754114 0.026021786
-0.03406232 0.029061431 0.0028618074 0.0046144165 -5.4424232e-05 -0.0104646655 0.0060739536 -0.012421888
-0.03376959 0.02607105 0.00049845636 -0.040135667 -0.03148725 0.0023140528 -0.020593947 -0.03343469
0.007323907 -0.020107342 0.01926383 0.009254156 0.0057443776 -0.013066727 -0.0070297904 -0.011908293
0.041842468 0.020068927 -0.021904038 -0.025282878 0.003417437 -0.000629462 0.00027539916 -0.0062160906
0.012530285 0.03634891 0.051028278 0.01297064 0.027245015 0.013212808 0.033079185 0.009966121
0.005017425 -0.016274048 -0.030508254 0.011792997 -0.022645066 0.038211364 0.010147499 -0.0052321097

action_model._continuous_distribution.mu.weight f4 [1, 128]
00000000: 7239 83bc 70da 953c 262a 6cbc e0e1 dfbc
00000010: 625f f0bc 6b0f 24bd 7b78 f33b 785b f7bc
00000020: 0697 d6bc 8a20 43bd d92e fdbc 1ca3 26bd
00000030: 2f79 833a 108d 983b d75e bd3b 1cc8 0d3c
00000040: ec86 4fbc 7bad 19bd c7ed f2bc bd82 863c
00000050: 15cf 793d 22c5 1cbd 1159 f53c 835b 933a
00000060: 6bfa 74bd 9e06 183c 2c07 e8bb 3d12 d0bc
00000070: c741 6a3d 3429 8abb 9fee 09bd 3de8 893b
00000080: 4f11 45ba a058 22bd 499b 823d dd7d 713b
00000090: 5335 50bc 92bb 61ba 8082 943b c12b 01bd
000000a0: d5ac 163d 0732 c1bc aa14 b4bc f49b ffbb
000000b0: 2886 abbc 01d8 53bd c5eb f43b 55b6 163d
000000c0: 8260 e6bb dc02 d43c cd08 b53c b4ad 18bd
000000d0: e07a b13b 8cac f3bc 3aaf 963b a54b 2dbd
000000e0: 1373 e8bc 344c 8d3d 6d72 16bd dcea 4bbd
000000f0: d8ce 6dbd 8877 7abd 91c6 3ebd 94e0 063c
00000100: 7389 2ebc 8afc f53b 9302 e5bc 9f4d 413d
00000110: c766 343b 9def e03c 0a55 9c3c e02e dabb
00000120: 4ea5 323d 0240 6e3b fe87 733d 9128 15bd
00000130: 9686 9dba 13be 30bc d229 b8bc fc13 923d
00000140: a758 3cbd 0ab4 383d e52c 2b3d 1b98 023d
00000150: bb7b aa3c 1801 86bd f729 aabb 3f8f a2bd
00000160: 3a30 82bc 46ba 1cbc fd29 c83c b446 d0bc
00000170: 567b 35bd 9917 b2bd 281b be3b 1b34 f4bc
00000180: d17f b13c 03ac 00bd 594a 353d ff7d 843c
00000190: 642f 233d 7325 9c3b 05d8 63bd 0b91 16bd
000001a0: b123 a33d 8d48 4d3d 3fa1 9bbc bb44 5dbd
000001b0: 948f 06bc 2d71 cd3a ff38 f63c 5b9a e2b9
000001c0: 3026 833c df5c 963d bd66 8a3d ce82 573d
000001d0: 1f0f 4c3d debe d53b a0ef 703d de48 d9bb
000001e0: 8f96 ad3a f3a1 2e3b eb43 f5bc 5581 77ba
000001f0: 127f 5bbb b7d4 7b3d 0d89 063c 0c8f 403b
-0.016018603 0.018292636 -0.014414346 -0.027329385 -0.029342357 -0.040053766 0.007430134 -0.030194983
-0.02619506 -0.047638454 -0.030906128 -0.040682897 0.0010030622 0.004655488 0.005779128 0.008653667
-0.012666445 -0.03751896 -0.029654397 0.016419763 0.060988504 -0.038273938 0.029949697 0.0011242483
-0.05980913 0.009278921 -0.007080933 -0.025399322 0.057191636 -0.0042163376 -0.033674832 0.004208593
-0.0007517533 -0.0396353 0.063772745 0.0036848702 -0.012708026 -0.0008611019 0.0045321584 -0.031535868
0.03678592 -0.023583425 -0.02198251 -0.0078005735 -0.020937994 -0.05171967 0.007474395 0.03679498
-0.0070305476 0.02588027 0.022098923 -0.03727503 0.005416259 -0.029745363 0.0045985254 -0.04230847
-0.028375184 0.068993 -0.03673022 -0.049784526 -0.05805859 -0.06114915 -0.046576086 0.008232255
-0.010652888 0.0075069116 -0.027955329 0.047193166 0.002752708 0.027458007 0.019083519 -0.00665842
0.043614678 0.003635407 0.059455864 -0.03641564 -0.0012018259 -0.010787505 -0.022480879 0.07132718
-0.045982983 0.045093574 0.04179086 0.03188334 0.020810952 -0.06543177 -0.005192991 -0.07937478
-0.015892137 -0.009565895 0.024434084 -0.025424339 -0.044307075 -0.08695907 0.005801577 -0.029810002
0.021667393 -0.031414043 0.044260357 0.01617336 0.039840117 0.0047652065 -0.055625934 -0.036759418
0.07965792 0.050118018 -0.018997787 -0.054020625 -0.008212943 0.0015673988 0.030056475 -0.00043221083
0.01600942 0.073419325 0.06757877 0.05261498 0.049819108 0.0065229973 0.058822274 -0.006631001
0.0013243722 0.0026646822 -0.029939612 -0.0009441574 -0.0033492488 0.061482158 0.008211386 0.0029382138

exp_avg f4 [128, 15]
00000000: 123c da39 f0e5 8f3a fd0c a63a c6e7 a63a
00000010: 5213 9f3a 2e2c 9f3a e6e9 9d3a 79ab 9e3a
00000020: 9028 a03a ef28 a03a 5497 9b3a b237 9c3a
00000030: 280a a03a 190c a03a 0000 0000 893a aebb
00000040: 66c9 ebbb a3c3 ffbb 89d5 ffbb ad14 febb
00000050: c115 febb 3756 fdbb ab78 fdbb eb34 febb
00000060: f134 febb a75e fdbb 2b79 fdbb 4f32 febb
00000070: 7132 febb 0000 0000 294d 8539 c25e de39
00000080: 3a9a ff39 6acb fe39 fe93 f639 bcb4 f639
00000090: e47e fa39 7239 fa39 70da f739 a8da f739
000000a0: dc51 f739 8c2a f739 28c4 f739 84c5 f739
000000b0: 0000 0000 61a8 373a d8a8 833a 3b43 8b3a
000000c0: 492f 8c3a 6619 8d3a 7d2b 8d3a 0abb 8a3a
000000d0: bb3f 8b3a dba3 8e3a 1ba4 8e3a d162 8a3a
000000e0: 17cb 8a3a f59b 8e3a c89c 8e3a 0000 0000
000000f0: e14b c63a 199d f93a f329 043b 0154 043b
00000100: b47b 033b bb82 033b d125 033b 0f46 033b
00000110: 2bf4 033b 42f4 033b 6dcb 023b fae5 023b
00000120: ceec 033b 45ed 033b 0000 0000 65fb 413a
00000130: 5007 723a 0882 813a 8962 813a 10d7 7f3a
00000140: fede 7f3a 9f54 803a 8f4d 803a 26c0 7f3a
00000150: 34c0 7f3a 7c3b 7f3a 0a37 7f3a a6b6 7f3a
00000160: 24b7 7f3a 0000 0000 a7bc 5d39 1778 8739
00000170: d892 8b39 391e 8c39 df15 8b39 f6f6 8a39
00000180: 89f1 8739 de69 8839 c2b4 8939 bab4 8939
00000190: 34a4 8a39 03f5 8a39 93b6 8939 6fb6 8939
000001a0: 0000 0000 40f6 85ba c427 cfba 4e2f e7ba
000001b0: 3615 e7ba 78c7 e2ba becd e2ba ca39 e3ba
000001c0: 264d e3ba d213 e2ba 0a14 e2ba f003 e1ba
000001d0: fa1c e1ba 7808 e2ba 5a09 e2ba 0000 0000
000001e0: 4260 f838 f500 2039 d32b 3439 18a1 3239
000001f0: 2b7d 2c39 3587 2c39 daf6 3139 2031 3139
00000200: bc3b 2c39 a53b 2c39 2be6 2f39 8556 2f39
00000210: 912e 2c39 e62e 2c39 0000 0000 9d94 303b
00000220: af9b 593b 9517 613b c5fa 613b 07ef 603b
00000230: dffd 603b b98b 5e3b 071f 5f3b 4ffb 613b
00000240: 81fb 613b c9e4 5d3b c359 5e3b ebf5 613b
00000250: 85f6 613b 0000 0000 64a5 963b baad cb3b
00000260: d882 dc3b 8696 dc3b f28f da3b 0a94 da3b
00000270: be88 da3b 38a5 da3b 5298 da3b 5898 da3b
00000280: 64e2 d93b 60fb d93b ce90 da3b 2491 da3b
00000290: 0000 0000 89a8 c839 9adb fe39 8b03 103a
000002a0: dd8e 0e3a 0f19 0d3a 9ef4 0c3a 97fe 0b3a
000002b0: 2661 0b3a 0d52 0a3a 7f51 0a3a 8842 0d3a
000002c0: e5c2 0c3a cf5c 0a3a 425b 0a3a 0000 0000
000002d0: ae9e 1c39 49a6 6239 6456 7f39 6a60 7e39
000002e0: aa68 7939 cc67 7939 c4a1 7c39 8836 7c39
000002f0: d0e9 7839 3ae9 7839 f8f3 7b39 0ea4 7b39
00000300: 7ceb 7839 3eea 7839 0000 0000 f019 97ba
00000310: 5c5d bfba 7f11 cdba cb04 cdba 8dea cbba
00000320: f4ed cbba 51e3 cbba fce7 cbba fc1c ccba
00000330: 071d ccba 0eae cbba 9cb2 cbba 761a ccba
00000340: a71a ccba 0000 0000 d4b0 393a a26b 8b3a
00000350: 4231 963a 3be4 963a afd6 953a 74e5 953a
00000360: cffe 933a c074 943a 8eef 963a c3ef 963a
00000370: 6473 933a 2ad1 933a 7beb 963a 0fec 963a
00000380: 0000 0000 8346 8f3a dcc6 bf3a 89bd ca3a
00000390: 3981 cb3a b1b8 ca3a fec8 ca3a 28dd c83a
000003a0: 0557 c93a 4596 cb3a 9f96 cb3a 16ae c73a
000003b0: d011 c83a 828d cb3a 908e cb3a 0000 0000
000003c0: 9369 d23a 14c1 143b bbc1 223b 9eb9 223b
000003d0: e118 203b 991e 203b 77f7 1f3b 830d 203b
000003e0: 3d43 203b 3943 203b f84c 1f3b 0b61 1f3b
000003f0: 863b 203b c83b 203b 0000 0000 22b4 b13a
0.00041624956 0.0010978561 0.0012668666 0.0012733869 0.0012136495 0.0012143904 0.0012047857 0.0012105546
0.001221912 0.001221923 0.0011870661 0.0011918454 0.0012210058 0.0012210637 0.0 -0.0053170365
-0.0071956394 -0.007805304 -0.007807438 -0.0077539296 -0.007754058 -0.007731225 -0.007735332 -0.007757773
-0.007757776 -0.0077322307 -0.0077353916 -0.007757462 -0.007757478 0.0 0.00025425226 0.0004241374
0.00048752298 0.0004859821 0.0004703104 0.00047055434 0.00047778257 0.00047726516 0.0004727426 0.00047274423
0.000471725 0.0004714321 0.0004725766 0.00047258672 0.0 0.00070059864 0.0010044826 0.0010624895
0.0010695244 0.0010765016 0.0010770407 0.0010584306 0.0010623852 0.0010882573 0.0010882647 0.0010558014
0.001058909 0.0010880219 0.0010880465 0.0 0.0015128815 0.0019044011 0.0020166605 0.0020191672
0.0020062746 0.0020066935 0.0020011554 0.0020030772 0.002013455 0.0020134603 0.0019957677 0.0019973502
0.002013016 0.0020130437 0.0 0.00073998264 0.0009232657 0.0009880671 0.0009871285 0.0009759525
0.00097607065 0.0009790844 0.0009788739 0.00097561104 0.00097561185 0.0009736342 0.00097356795 0.0009754695
0.0009754768 0.0 0.00021146481 0.0002583868 0.00026621553 0.00026725398 0.0002652844 0.0002650541
0.00025929164 0.0002601882 0.0002626535 0.00026265328 0.00026443752 0.0002650396 0.00026266705 0.000262666
0.0 -0.0010220483 -0.0015804698 -0.0017637999 -0.0017630223 -0.0017301878 -0.0017303748 -0.0017335948
-0.0017341718 -0.0017248339 -0.0017248404 -0.0017167311 -0.0017174773 -0.0017244956 -0.0017245219 0.0
0.00011843491 0.00015259146 0.00017182463 0.00017035415 0.00016449827 0.00016453567 0.00016971995 0.00016898336
0.00016425451 0.00016425418 0.00016775045 0.00016721532 0.00016420546 0.00016420669 0.0 0.002694405
0.0033204367 0.0034346331 0.0034481746 0.003432216 0.0034331006 0.0033957793 0.0034045593 0.0034482067
0.0034482183 0.003385829 0.0033928014 0.0034478854 0.0034479212 0.0 0.004597353 0.006215778
0.006729465 0.006731811 0.0066699916 0.0066704797 0.006669133 0.0066725276 0.00667099 0.006670993
0.0066493023 0.0066522807 0.006670094 0.006670134 0.0 0.0003827254 0.0004861027 0.0005493692
0.00054381584 0.0005382457 0.0005377027 0.0005340366 0.00053169054 0.0005276509 0.0005276426 0.0005388637
0.0005369618 0.0005278112 0.00052778807 0.0 0.00014936432 0.00021614986 0.00024350878 0.00024259245
0.00023785481 0.00023785158 0.00024092855 0.00024052907 0.00023738225 0.00023738007 0.00024028111 0.0002399834
0.00023738848 0.00023738385 0.0 -0.0011528116 -0.0014599967 -0.0015645473 -0.0015641687 -0.0015557572
-0.0015558586 -0.0015555416 -0.0015556808 -0.0015572603 -0.0015572616 -0.0015539543 -0.0015540901 -0.0015571851
-0.0015571908 0.0 0.00070835394 0.0010636935 0.0011458772 0.001151211 0.0011431779 0.001143618
0.0011291149 0.0011326298 0.0011515485 0.0011515546 0.0011249599 0.0011277546 0.001151427 0.0011514443
0.0 0.0010931048 0.0014631408 0.0015467863 0.0015526182 0.0015466419 0.0015471277 0.0015324699
0.0015361017 0.0015532455 0.001553256 0.0015234377 0.0015264098 0.0015529844 0.0015530158 0.0
0.0016053192 0.0022698091 0.002483471 0.0024829875 0.0024428891 0.00244323 0.0024408975 0.0024422116
0.002445414 0.002445413 0.0024307352 0.0024319317 0.0024449541 0.0024449695 0.0 0.0013557712

exp_avg_sq f4 [128, 15]
00000000: 77d2 ab37 05e9 6b38 5826 6037 6d53 7537
00000010: ad27 c739 d3a9 c739 8fcf c437 fd0f cb37
00000020: cd24 d239 cf26 d239 8326 be37 97e4 c137
00000030: 0da1 d939 22a1 d939 0000 0000 b9d2 d938
00000040: 3126 0839 537d 1739 8eb2 1839 39fd 9e39
00000050: bf89 a039 c6d4 1a39 6374 1d39 1363 a139
00000060: 9464 a139 3efd ef38 908a f338 ebe1 a239
00000070: f0e1 a239 0000 0000 6fe3 1d35 5944 7735
00000080: 8791 b535 dafb b935 87a7 1d36 3948 2b36
00000090: c73b 2336 0084 2436 c4ae ac36 9fc2 ac36
000000a0: 9b73 4236 461c 4336 446e b836 f26f b836
000000b0: 0000 0000 0124 c537 4835 2038 7fa6 5837
000000c0: 3089 6637 93ed 2239 44ad 2339 cfda e736
000000d0: 10f0 0437 d4c3 2839 2bc3 2839 8f08 1936
000000e0: 2654 4236 cd89 2d39 c189 2d39 0000 0000
000000f0: 4f32 8237 4fa8 a837 ccb6 5137 e5c6 5737
00000100: 10fd 6538 6a31 6938 c003 4637 8942 4e37
00000110: e733 7c38 5d38 7c38 cca0 2537 33ab 2a37
00000120: a105 8938 be05 8938 0000 0000 6afb ab35
00000130: cf23 ce35 14ce 0936 cbc1 0a36 58d5 0d36
00000140: 978c 1c36 9e96 4836 0949 4936 1b3f 8736
00000150: 3c49 8736 c726 6c36 ce6a 6c36 d951 8e36
00000160: b152 8e36 0000 0000 75e4 0b36 fc78 2c36
00000170: 783c 8e34 caba c034 b379 da36 c7f2 da36
00000180: b9df 3135 f526 3f35 3989 0a37 618a 0a37
00000190: e8a0 8c35 f784 9035 51eb 0a37 65eb 0a37
000001a0: 0000 0000 26ac 2136 4ce7 b336 a784 2a37
000001b0: fa66 2b37 0732 a937 18ee b537 df29 7737
000001c0: 0632 7837 1ede 0738 4de1 0738 0f31 af37
000001d0: 9b5b af37 dcbf 0938 b0c0 0938 0000 0000
000001e0: 15d6 1035 8752 8235 4d93 e534 cae3 f434
000001f0: 51a2 8136 b940 8436 9e31 f234 f9f9 fe34
00000200: 5a03 8c36 6e05 8c36 123d 0835 5239 0c35
00000210: 8b8e 8c36 aa8e 8c36 0000 0000 b9ae 3239
00000220: 50c7 7c39 93bb 4138 53e2 5d38 ec3b 593a
00000230: 78bb 593a ba95 0938 6d22 1f38 814f 5e3a
00000240: d84e 5e3a a5c0 d637 418a f137 51f1 5e3a
00000250: 4ef1 5e3a 0000 0000 15ec 9638 f25b ca38
00000260: 75c8 0939 354a 0a39 7c30 9939 1dd3 9a39
00000270: 8ea7 0339 b58d 0539 2bd1 a339 00d4 a339
00000280: 6d00 f838 4727 fa38 1905 a939 6205 a939
00000290: 0000 0000 471a a636 091d 3637 b3c9 ab35
000002a0: 3bd9 d235 45c6 8d38 4bf9 8d38 915a c535
000002b0: 3634 d635 d8eb 9838 e0e9 9838 c1cb e535
000002c0: d11d f035 e934 9d38 e334 9d38 0000 0000
000002d0: 2205 5e35 b209 8535 b4e7 1035 1502 1935
000002e0: d64b 0136 a36a 0436 ae3a ae34 455e ca34
000002f0: 06a7 0936 84a4 0936 c4e7 9f34 6850 b234
00000300: 6f96 0a36 e895 0a36 0000 0000 1c2c 5836
00000310: 336e 7936 5c16 b636 ff2c b636 8a2c c336
00000320: fc79 cb36 1a9c c236 ffa6 c336 4b1b de36
00000330: 9c22 de36 e512 a436 d4d3 a436 dc0c e436
00000340: 330d e436 0000 0000 6604 8037 92f0 e237
00000350: 9c7c ef36 47bd 0237 fad0 0139 2a52 0239
00000360: 55b9 e736 6e4e f936 a48c 0639 e98c 0639
00000370: 7a77 7036 a316 8336 f698 0739 f498 0739
00000380: 0000 0000 21d3 ed37 bbbd 2f38 c49e 6037
00000390: 631e 7137 8900 1d39 7a1b 1e39 8843 1537
000003a0: 3baa 2737 3ff4 2539 f3f3 2539 487c 0337
000003b0: 3194 0e37 a394 2739 af94 2739 0000 0000
000003c0: a34e 1737 5548 7037 8176 a237 c397 a337
000003d0: 94f2 3a38 e63e 4538 a95b db37 c704 dd37
000003e0: 9ec9 6638 5dd5 6638 7dc5 d137 e2ba d237
000003f0: 4ca2 7338 b7a2 7338 0000 0000 79c9 ae38
2.0482794e-05 5.6245382e-05 1.3360368e-05 1.4622562e-05 0.000379858 0.00038082767 2.3461673e-05 2.420693e-05
0.0004008174 0.00040083236 2.2667698e-05 2.3113838e-05 0.00041509458 0.0004150952 0.0 0.000103866165
0.00012984198 0.00014447169 0.00014562366 0.00030324774 0.00030620207 0.00014765849 0.00015016044 0.0003078213
0.0003078325 0.00011443578 0.00011612952 0.0003106737 0.00031067384 0.0 5.8818017e-07 9.211413e-07
1.3527905e-06 1.3856873e-06 2.3492337e-06 2.5523025e-06 2.4323688e-06 2.4514738e-06 5.146345e-06 5.1486563e-06
2.8975544e-06 2.9073722e-06 5.496464e-06 5.4966595e-06 0.0 2.3500996e-05 3.8196595e-05 1.2913369e-05
1.374101e-05 0.00015538027 0.00015609438 6.909809e-06 7.923707e-06 0.0001609468 0.00016094434 2.2803758e-06
2.8957234e-06 0.000165499 0.00016549883 0.0 1.5520634e-05 2.0105535e-05 1.24999315e-05 1.2861307e-05
5.4833537e-05 5.559755e-05 1.1802593e-05 1.2294048e-05 6.012982e-05 6.0133974e-05 9.872205e-06 1.017265e-05
6.5337175e-05 6.5337386e-05 0.0 1.2813664e-06 1.5358618e-06 2.0534544e-06 2.0676405e-06 2.113482e-06
2.3327646e-06 2.9889993e-06 2.9993846e-06 4.03066e-06 4.031839e-06 3.5189312e-06 3.522891e-06 4.241458e-06
4.2415563e-06 0.0 2.0845594e-06 2.570042e-06 2.6493558e-07 3.5898694e-07 6.511074e-06 6.5251693e-06
6.62632e-07 7.1209735e-07 8.257391e-06 8.25766e-06 1.0477643e-06 1.0767534e-06 8.28023e-06 8.280248e-06
0.0 2.4091073e-06 5.361542e-06 1.0163675e-05 1.021637e-05 2.0169666e-05 2.1687752e-05 1.4732096e-05
1.4793599e-05 3.239337e-05 3.2396336e-05 2.088447e-05 2.0904283e-05 3.284203e-05 3.28428e-05 0.0
5.395571e-07 9.709773e-07 4.276175e-07 4.561428e-07 3.8633957e-06 3.9414413e-06 4.5112114e-07 4.7493066e-07
4.1727153e-06 4.1729572e-06 5.0752817e-07 5.2237476e-07 4.1889193e-06 4.1889334e-06 0.0 0.00017040492
0.00024106842 4.6189478e-05 5.2901287e-05 0.0008286822 0.0008305828 3.280279e-05 3.7940616e-05 0.0008480475
0.00084803766 2.5600495e-05 2.8793818e-05 0.0008504587 0.0008504585 0.0 7.196531e-05 9.649237e-05
0.00013140014 0.0001318835 0.00029218558 0.0002953046 0.00012555553 0.00012736658 0.00031245625 0.00031247735
0.00011825641 0.00011928245 0.0003223799 0.00032238202 0.0 4.9502446e-06 1.0854806e-05 1.2799195e-06
1.5709442e-06 6.7603345e-05 6.7698384e-05 1.4704002e-06 1.5959438e-06 7.291854e-05 7.2914874e-05 1.712113e-06
1.7890071e-06 7.496199e-05 7.496194e-05 0.0 8.2708914e-07 9.912094e-07 5.398135e-07 5.699997e-07
1.926664e-06 1.9731604e-06 3.245272e-07 3.7694022e-07 2.0511811e-06 2.0510352e-06 2.978469e-07 3.3213587e-07
2.0651166e-06 2.065086e-06 0.0 3.2212183e-06 3.7168036e-06 5.4266256e-06 5.429261e-06 5.816638e-06
6.0640723e-06 5.799823e-06 5.8308938e-06 6.619293e-06 6.6201446e-06 4.8897805e-06 4.912241e-06 6.7964265e-06
6.796466e-06 0.0 1.5260837e-05 2.7053324e-05 7.1372615e-06 7.792673e-06 0.00012380249 0.00012428375
6.905912e-06 7.4299087e-06 0.00012831629 0.00012831729 3.5832331e-06 3.9067395e-06 0.00012931586 0.00012931583
0.0 2.8350916e-05 4.189995e-05 1.3388406e-05 1.4371794e-05 0.00014972886 0.0001507829 8.896815e-06
9.993611e-06 0.00015826615 0.00015826504 7.837145e-06 8.498363e-06 0.00015981733 0.0001598175 0.0
9.01861e-06 1.4321956e-05 1.9367088e-05 1.9501784e-05 4.4571774e-05 4.702704e-05 2.6149517e-05 2.6347478e-05
5.5024044e-05 5.5034983e-05 2.5006704e-05 2.5120975e-05 5.8086865e-05 5.8087255e-05 0.0 8.334494e-05

exp_avg f4 [128]
00000000: ac0b a13a bc44 febb 8276 f839 7408 8f3a
00000010: cb2a 043b baf7 7f3a 14a4 8939 2e7e e2ba
00000020: 275a 2c39 0545 623b b0be da3b 0b90 093a
00000030: c047 7839 7732 ccba 7937 973a 9019 cc3a
00000040: ca5d 203b 9d9c 023b 7045 953a e932 193a
00000050: 7a22 d639 cfb4 ccba c713 fd39 903c 9739
00000060: 3f69 bd37 60bb 68ba f6ca 8eba fbcc f038
00000070: 3b9a f2b8 8147 16bb e8c4 58bb 0fe5 e138
00000080: f2b2 f8bb 75e1 54ba dafb dcba 9bed c0bb
00000090: dea6 073a 27f2 103c c83f 68bb 081d 2db9
000000a0: b8f3 f7ba 32ec 3d3b 7b78 47bb dcce 26ba
000000b0: 67c5 cbbb bf0d 8339 ddb4 0738 d70c 6038
000000c0: 22dc 84ba 78d7 213b d0d3 9d3a 46a0 e539
000000d0: 9be9 123a 8606 3eb8 e68c aab9 3269 623a
000000e0: d15c 1fbb b2d6 d6b9 c98a e7b8 85eb 94bb
000000f0: ff03 0fbc 969b acbb 8a20 8ebb 8988 913a
00000100: 0aab 023b a59e cf3b b775 7238 d311 bc39
00000110: ae65 f238 55f6 3abb 0e0f ce3b 7964 a1bb
00000120: a7e1 2539 3e4f 1fbc 1265 bfbb 01a9 09b9
00000130: d676 43ba ee89 feba b7db eb3a 9508 73b9
00000140: 9702 e43a fc56 343a ca44 a136 cde6 a93b
00000150: 02a9 f9bb f41f d139 f58b 33bb 1859 52bb
00000160: f424 343a b4a0 54bb 9963 bbbb 34d1 1cbc
00000170: 5116 573b 27a9 02bc 0570 93bb 0486 de38
00000180: 550e c9bb 2e6b 77bb 29a7 1a3b 67e9 ffbb
00000190: 08d2 413a bd1b 22bc 7315 0eba 042c a1bb
000001a0: d930 12bc 4f0a a13a 5a4d 913a 56da a1bb
000001b0: bcad 173a ec47 143a e073 d8ba a0dd 6bbb
000001c0: 386b 90bb 03ff 89ba d440 fe3a 4a1a d43a
000001d0: ecd8 b3b9 fa5c b3bb b2ca 5e3b 55b2 ba39
000001e0: acd6 08bc d8cb ae3b 142e c834 1316 863a
000001f0: 77b7 86bb 74b9 733b 1fe7 f3ba a474 58bb
0.0012286804 -0.0077596586 0.0004739054 0.0010912553 0.0020167108 0.0009764392 0.00026252924 -0.0017280036
0.00016436783 0.0034526002 0.0066755638 0.00052475993 0.00023677852 -0.0015579005 0.0011536918 0.0015571583
0.0024469965 0.0019929775 0.0011388492 0.0005844073 0.00040842948 -0.001561785 0.00048270656 0.00028846087
2.2579565e-05 -0.00088780187 -0.0010894227 0.000114822724 -0.00011568187 -0.0022930803 -0.003307635 0.000107715015
-0.0075896913 -0.0008120754 -0.0016859726 -0.0058877 0.00051747065 0.008846796 -0.0035438407 -0.0001650938
-0.0018917238 0.0028979895 -0.0030436802 -0.0006363222 -0.0062186006 0.0002499651 3.235495e-05 5.341772e-05
-0.0010136405 0.002469508 0.0012041274 0.00043797697 0.0005604268 -4.5305605e-05 -0.00032529904 0.0008636891
-0.0024316797 -0.0004097722 -0.00011040789 -0.0045446777 -0.00872898 -0.0052675707 -0.004337375 0.0011103313
0.0019938373 0.0063360506 5.7806927e-05 0.00035871434 0.000115583985 -0.0028528173 0.0062884158 -0.0049253074
0.00015819688 -0.009723483 -0.005840906 -0.00013128297 -0.00074563676 -0.0019419768 0.0017994557 -0.00023177483
0.0017395791 0.0006879417 4.806182e-06 0.0051849843 -0.0076190243 0.00039887393 -0.0027396653 -0.003209656
0.00068719615 -0.003244442 -0.00571866 -0.009571362 0.0032819698 -0.007974899 -0.0044994378 0.00010610747
-0.0061357417 -0.0037753093 0.002359817 -0.007809806 0.0007393663 -0.009894309 -0.00054200663 -0.004918577
-0.008922779 0.0012286397 0.0011085675 -0.0049393578 0.00057860813 0.0005656469 -0.0016514026 -0.0035990253
-0.0044073127 -0.001052827 0.0019397982 0.0016182151 -0.0003430316 -0.00547373 0.0033995328 0.00035609552
-0.008351963 0.0053343587 3.728643e-07 0.0010229967 -0.004111226 0.0037189396 -0.0018608308 -0.0033028508

exp_avg_sq f4 [128]
00000000: 9125 dc39 c617 a339 8c5a be36 126d 2e39
00000010: d753 8b38 dafb 9036 75fd 0a37 9153 0e38
00000020: 44ae 8c36 d474 5f3a 4f68 aa39 9ec1 9e38
00000030: 8ccb 0c36 6b9e e536 ad0f 0839 cd17 2939
00000040: 9f53 7538 bf33 273a 3686 fb36 6dad 0037
00000050: 662b e135 2af5 6039 7b49 b035 7aa6 7d38
00000060: fa4c f936 7a29 203a d09c ad36 985d 8c35
00000070: ebd3 cf38 fcf4 8637 7817 1b3a 9f12 df36
00000080: 098e 8839 bbe7 4138 bc66 fa37 0b52 e738
00000090: 9b44 2839 4556 a33a 4a31 8738 0866 4d37
000000a0: 1368 4238 c837 c33a d23a e637 0b10 a837
000000b0: 8d5f 8339 6c71 a338 a1b1 2f38 e8fc b634
000000c0: cba3 1836 7ada 1f38 054f 213a 0e1e b935
000000d0: deb3 9b38 885e b037 e435 5636 a515 5a38
000000e0: 89b7 2e38 095c 3639 28ca a537 3d7f f038
000000f0: 95a6 7f39 0765 c439 d9a8 9738 62e2 6c38
00000100: 53e0 3c39 bcc0 943a 2936 a034 11c7 aa37
00000110: f76f cf35 fe32 9639 6fdb b33a 7530 bb38
00000120: adde e737 05ad 3e3a 90f2 d938 fab7 2237
00000130: c4e1 5a38 4969 1638 5de6 293a b3f3 3137
00000140: 7b44 4e37 bcbf ef38 915e 5537 f121 0b3a
00000150: 8dc7 9239 6698 1138 4498 1339 6fdc 0039
00000160: 2e2b 2337 e489 9f38 b4f6 273a 767c 083a
00000170: fafd 993a 88dd 303a 745f a739 39dc 3c36
00000180: 927c be38 5c48 4039 695c 2a38 9987 2b3a
00000190: 6704 7039 0322 783a 339d 3438 2da5 2b39
000001a0: f077 a339 dc18 7d38 dd42 a137 7d1e d838
000001b0: 1f8d 8e36 6f13 7d36 5659 a537 4a48 bf39
000001c0: f05c ab38 ec30 7b38 120f d039 4211 ce39
000001d0: 9cf1 4c35 8832 9038 d066 1d3a b40c b238
000001e0: 5aab 1c3a 6fbb 273a 0156 8a33 dcd8 3939
000001f0: 9fbe c539 1485 bb39 4df9 b138 71ce 1038
0.0004198966 0.00031107495 5.6729823e-06 0.00016634565 6.643653e-05 4.320854e-06 8.2844535e-06 3.3933266e-05
4.1926123e-06 0.00085241836 0.00032502643 7.570091e-05 2.0980106e-06 6.843174e-06 0.0001297581 0.00016125962
5.849043e-05 0.0006378255 7.496007e-06 7.669773e-06 1.6776437e-06 0.00021453635 1.3134407e-06 6.0474944e-05
7.4297395e-06 0.0006109696 5.174057e-06 1.0458052e-06 9.910002e-05 1.6088125e-05 0.0005916278 6.6480857e-06
0.00026045766 4.62306e-05 2.9850162e-05 0.0001103022 0.00016047286 0.0012461623 6.4464824e-05 1.2242708e-05
4.635013e-05 0.0014893943 2.7445527e-05 2.0034631e-05 0.00025057458 7.793572e-05 4.188868e-05 3.4084155e-07
2.2745105e-06 3.8112026e-05 0.00061534374 1.3792321e-06 7.424479e-05 2.1024855e-05 3.1919853e-06 5.199541e-05
4.1655763e-05 0.00017391158 1.976367e-05 0.00011467792 0.00024380752 0.00037459304 7.2316914e-05 5.647762e-05
0.00018012644 0.0011348943 2.984173e-07 2.0358277e-05 1.5455288e-06 0.00028648222 0.0013722013 8.925881e-05
2.7641037e-05 0.0007273707 0.00010392547 9.698788e-06 5.218551e-05 3.586084e-05 0.0006481165 1.0606763e-05
1.2294501e-05 0.000114321214 1.2717807e-05 0.0005307487 0.00027995967 3.4712626e-05 0.00014075736 0.00012289149
9.725611e-06 7.607395e-05 0.0006407306 0.00052065344 0.0011748665 0.0006746878 0.0003192384 2.814237e-06
9.083109e-05 0.00018337503 4.0617222e-05 0.0006543338 0.00022889824 0.00094655174 4.3061747e-05 0.00016369364
0.00031179143 6.0343053e-05 1.9223831e-05 0.000103053615 4.2483584e-06 3.771125e-06 1.9711133e-05 0.00036484218
8.171226e-05 5.9888625e-05 0.0003968408 0.0003930424 7.634751e-07 6.875867e-05 0.0006004395 8.4900676e-05
0.0005976461 0.0006398474 6.44177e-08 0.00017723761 0.00037716792 0.0003576657 8.4864536e-05 3.452454e-05

exp_avg f4 [128, 128]
00000000: 117a 4a39 3210 6cba 3acc 7738 3b64 1c39
00000010: 9a13 18b9 2e17 06b9 b522 e338 cf70 0338
00000020: 9cf1 c835 3dd3 11b8 7df8 9d37 08ef 1e39
00000030: 4409 23b8 1ee2 8eb9 a6c6 d138 5186 56b9
00000040: c443 b738 9ce4 3e39 5af8 61b5 efa5 50b7
00000050: 32c9 e638 29fb 10b7 510c bd38 9b6a c9b9
00000060: 793c 5939 f8c9 26b8 35c7 7fb9 a2c6 1339
00000070: 1eb3 7837 8c9e 9cb9 cf12 f138 5794 0fb9
00000080: d937 0aba 1452 cf38 31cd a536 570b 15ba
00000090: 064a 5339 34b2 9ab9 b61a 0dba 4095 bd38
000000a0: 5e82 b1b9 00f3 2839 d99e 93b9 5222 1b38
000000b0: 0e60 1cb9 0421 3b39 43e5 dc37 cd70 acb5
000000c0: 4c39 22b9 a7c4 2238 9898 4739 9871 21b8
000000d0: ce41 cd38 1aed 5439 c86c 2bb8 222c e0b7
000000e0: 7ede 41b8 ca22 59b7 7d13 23b7 4f59 09b8
000000f0: e26e b1b9 955a adb8 22fe 0fba 6ab5 9738
00000100: 25fa e938 e2ae c8b9 63e0 a738 1c8b 5738
00000110: 648a e438 f143 6db9 63b4 c0b9 7969 2bba
00000120: e8f1 98b8 9441 0fba 2d96 00ba 02f8 35b9
00000130: 4789 fab8 faee 41b9 a716 2639 feac fe38
00000140: a1bd 0a38 8b5f 4f39 381c 1e37 c3d7 22ba
00000150: 3636 feb9 ff43 6238 be6c b4b8 c0f6 6ab9
00000160: c3d5 0939 c824 47b9 3b7a 3bb9 47ea cbba
00000170: 9f04 2839 a812 8fb9 089d 9ab9 d92c 1539
00000180: 22ae f3b9 12e1 00b9 bc80 b638 0266 0fba
00000190: 15b0 adb9 f95c bab9 bc0e 5db9 69ff d0b8
000001a0: 82bb c9b9 6220 48b8 b442 8338 116b 16ba
000001b0: 20e5 4a39 5f91 b238 9f6e 4ab9 0f3c d6b8
000001c0: ceb3 9eb9 c2c0 1437 8212 83ba c999 b838
000001d0: 56ec 25b9 1cdf 43ba 7f22 5e38 1a38 e037
000001e0: be63 01b9 3364 7638 dfac 3738 7f8f 2039
000001f0: d023 70b9 312b a436 9806 e4b8 d85d adb9
00000200: 4a67 8bb9 e23f 9f3a 8b01 c8b8 dc21 55b9
00000210: 7cbd 7c39 6b73 6539 3176 00b9 6a26 a1b8
00000220: 5b8f cab7 4ea9 c738 6b69 90b7 5e65 51b9
00000230: 1745 8f38 57d6 e339 7e6f 18b9 f2ea a239
00000240: 99b5 feb8 45d0 7db9 98ea ab37 13fd d537
00000250: 34ab 1bb9 6754 90b8 dc2e 04b9 06d0 223a
00000260: 8ad9 91b9 f2a4 bc37 5944 bc39 5d70 44b9
00000270: aac9 b2b7 580c de39 b864 44b9 125c 4939
00000280: 3984 4f3a d62f 07b9 3371 5eb7 d0b5 4f3a
00000290: 84ab 8eb9 2f61 ea39 e2a4 3d3a 0b84 11b9
000002a0: 3db7 d639 7dd0 5ab9 d38c d439 9bd7 94b8
000002b0: 10ff 6d39 b5c5 80b9 db20 c1b8 f86f 2238
000002c0: 5edf 7539 30d2 52b8 5b4c 89b9 6c96 6a38
000002d0: 7dec 02b9 df32 90b9 b6a5 bd38 1314 de37
000002e0: 9753 9b38 d454 c3b7 00c0 dcb7 f720 8338
000002f0: 849e 053a 8f15 4c38 6a2b 5b3a bb2c a3b8
00000300: cbab 30b9 2c1d 133a 7c74 e2b8 f048 8bb8
00000310: bef3 40b9 f00b 9d39 db82 e539 878c 633a
00000320: 2331 b438 3518 413a f6bf 413a cd05 9739
00000330: 985d 0c39 f34f 9e39 2a25 5eb9 f6f5 38b9
00000340: 3c3f 58b8 81f0 8ab9 17ee 80b7 55c2 623a
00000350: 8e62 2d3a f403 9bb8 64f0 1939 4e61 9a39
00000360: 3768 36b9 9d63 3239 165b 5239 086f 063b
00000370: 78dc 5bb9 66c8 ce39 8fa5 d539 66ec 48b9
00000380: b674 2d3a dde9 1539 3feb bbb8 2068 423a
00000390: 3403 fb39 998a 023a d664 b239 add6 0c39
000003a0: f3cf 133a c0a2 9238 e428 9eb8 3543 443a
000003b0: 40bf 8ab9 c3e6 ebb8 3dba 8339 4c47 1939
000003c0: 994e e739 feb5 30b8 3dba bb3a 5fd4 0ab9
000003d0: 5b15 6739 7f50 823a f5bd 87b8 b1bc b5b7
000003e0: 3a1f 2839 ac90 87b8 36ea 6cb8 d919 54b9
000003f0: 859b 9b39 9238 96b7 6ea8 0d39 987c ee39
0.00019309694 -0.0009005099 5.907959e-05 0.00014914658 -0.00014503152 -0.00012787871 0.00010830668 3.1337895e-05
1.4971479e-06 -3.4767425e-05 1.883157e-05 0.000151571 -3.8870858e-05 -0.0002725282 0.00010002898 -0.00020458667
8.738742e-05 0.00018204976 -8.418043e-07 -1.24364005e-05 0.0001100473 -8.641547e-06 9.0145164e-05 -0.00038417135
0.0002071726 -3.9765582e-05 -0.00024392905 0.00014093009 1.4823656e-05 -0.00029872765 0.00011495279 -0.00013692804
-0.0005272604 9.8858174e-05 4.9412706e-06 -0.00056855887 0.00020150104 -0.0002950594 -0.00053827034 9.040022e-05
-0.00033857202 0.00016112253 -0.00028156376 3.6986843e-05 -0.00014913102 0.00017846009 2.6332802e-05 -1.2847828e-06
-0.00015470869 3.8806957e-05 0.00019034964 -3.8491184e-05 9.787419e-05 0.00020306223 -4.0870887e-05 -2.6723432e-05
-4.6221998e-05 -1.2942308e-05 -9.720095e-06 -3.274652e-05 -0.00033842685 -8.266155e-05 -0.0005492886 7.234032e-05
0.00011156899 -0.0003827727 8.004976e-05 5.138955e-05 0.000108976645 -0.00022627391 -0.00036755492 -0.0006538849
-7.292983e-05 -0.0005464789 -0.00049051904 -0.00017353895 -0.00011946499 -0.0001849494 0.00015839432 0.00012143886
3.307837e-05 0.00019776651 9.424104e-06 -0.00062119606 -0.00048487046 5.3945925e-05 -8.603324e-05 -0.000224079
0.0001314497 -0.00018991821 -0.00017879244 -0.0015557491 0.0001602345 -0.00027288985 -0.00029490166 0.00014226454
-0.0004647831 -0.00012290876 8.702415e-05 -0.00054702174 -0.00033128323 -0.00035545955 -0.00021081691 -9.965787e-05
-0.00038477412 -4.7713875e-05 6.258991e-05 -0.0005738 0.00019349577 8.514779e-05 -0.00019305431 -0.00010215502
-0.00030270073 8.866367e-06 -0.0010000023 8.8024484e-05 -0.00015823668 -0.00074719056 5.296105e-05 2.6729005e-05
-0.00012339556 5.874429e-05 4.37916e-05 0.00015312246 -0.00022901525 4.892609e-06 -0.000108731154 -0.0003306705
-0.00026589102 0.0012149776 -9.5370306e-05 -0.00020325877 0.00024103181 0.00021882138 -0.00012251061 -7.6842334e-05
-2.4147032e-05 9.520595e-05 -1.7215227e-05 -0.00019969555 6.83164e-05 0.0004345651 -0.00014537384 0.00031074096
-0.00012145489 -0.00024205547 2.049403e-05 2.5509426e-05 -0.0001484573 -6.882176e-05 -0.00012605957 0.00062108075
-0.00027818634 2.2488155e-05 0.00035909077 -0.00018733875 -2.131316e-05 0.00042352336 -0.00018729537 0.00019203153
0.0007916126 -0.00012892424 -1.3258587e-05 0.00079235155 -0.0002721214 0.00044704365 0.0007234347 -0.00013877467
0.00040953784 -0.00020867768 0.00040540713 -7.0973496e-05 0.000226971 -0.00024561366 -9.209077e-05 3.872809e-05
0.00023448232 -5.0263654e-05 -0.00026187566 5.593004e-05 -0.00012485865 -0.00027503722 9.043088e-05 2.647381e-05
7.406546e-05 -2.3285313e-05 -2.631545e-05 6.252707e-05 0.0005097168 4.8657468e-05 0.0008360656 -7.7807774e-05
-0.00016848666 0.0005611952 -0.00010798217 -6.641622e-05 -0.00018401348 0.00029954268 0.0004377578 0.0008680303
8.592221e-05 0.0007365973 0.000739097 0.00028805286 0.00013386307 0.00030195675 -0.00021185415 -0.00017639235
-5.1557305e-05 -0.000265006 -1.5369658e-05 0.00086501735 0.0006614112 -7.391712e-05 0.0001468077 0.00029445667
-0.00017395696 0.00017012512 0.00020061093 0.0020512957 -0.00020967599 0.0003944069 0.00040749877 -0.00019161552
0.00066168176 0.00014296868 -8.960673e-05 0.00074160285 0.00047876837 0.0004979759 0.00034025934 0.00013431413
0.0005638592 6.992137e-05 -7.5416436e-05 0.0007486821 -0.00026463903 -0.00011248656 0.00025125025 0.00014617777
0.00044118313 -4.2131163e-05 0.0014322471 -0.0001323982 0.00022037832 0.0009942203 -6.472684e-05 -2.1664748e-05
0.00016033361 -6.464249e-05 -5.648491e-05 -0.00020227525 0.00029679775 -1.7907736e-05 0.00013509553 0.00045487727
