results/Try3/jumper/jumper-100099.pt (torch, 465503 bytes, 30 tensors)

network_body._body_endoder.seq_layers.0.weight f4 [128, 15]
0	0xbed8e417	-0.4236152
1	0xbcb60e0c	-0.022223495
2	0xbdf983a9	-0.12183315
3	0xbea46c67	-0.32113954
4	0x3ef811c1	0.48451045
5	0x3e2c7942	0.16843131
6	0xbe9e61ed	-0.30934086
7	0xbe8a3afa	-0.2699812
8	0xbd813b12	-0.06310095
9	0xbe9bbafd	-0.30416098
10	0xbdcfa2a0	-0.1013844
11	0x3d97d860	0.07414317
12	0xbdac63a1	-0.0841744
13	0x3de75496	0.1129543
14	0x3ecc6f57	0.39928696
15	0x3db6336e	0.08896528
16	0xbdbf8d26	-0.09353094
17	0x3d4cdcab	0.050015133
18	0x3eb36433	0.35037383
19	0x3e5fb0ec	0.21844834
20	0x3e57bd63	0.21068339
21	0x3f118fc5	0.5686
22	0x3e09e67f	0.13466834
23	0xbee28c64	-0.44247735
24	0x3d4bb253	0.04973061
25	0xbba3dcdd	-0.005000694
26	0x3ee85fe6	0.45385665
27	0x3e301469	0.17195286
28	0xbe55997f	-0.20859335
29	0x3ef206c2	0.4727078
30	0xbe6a9c28	-0.22911131
31	0x3b836e97	0.004010986
32	0xbeb6dc9c	-0.35715187
33	0x3e37c711	0.17947032
34	0x3e11bd97	0.14232479
35	0x3c67ce22	0.014148267
36	0x3e2eef88	0.17083561
37	0xbd60e7f7	-0.05490872
38	0xbe028867	-0.12747346
39	0xbe9f575c	-0.31121337
40	0x3da2d94d	0.07951603
41	0xbe7726cd	-0.24135895
42	0x3e6e8602	0.23293307
43	0x3e081f15	0.13293107
44	0xbe8f8a49	-0.2803519
45	0xbe19f721	-0.15035678
46	0x3e328ae5	0.17435797
47	0x3e01bfba	0.12670794
48	0x3e5c3916	0.21506152
49	0xbe0eaaec	-0.13932389
50	0x3d8f4db4	0.069972426
51	0xbd8fe25c	-0.070255965
52	0xbe2f723a	-0.17133418
53	0x3e5f006f	0.21777509
54	0xbed80f95	-0.42199388
55	0xbe614495	-0.21998818
56	0xbf19f3ee	-0.6013783
57	0x3e908ee9	0.28234032
58	0x3e3b9e48	0.18322098
59	0x3d0df05f	0.034653064
60	0x3eadca0c	0.33943212
61	0x3e4f6500	0.20253372
62	0xbe051a21	-0.12998249
63	0x3e8feaa6	0.2810871
64	0x3e0bab2f	0.1363952
65	0x3dca6f2d	0.09884486
66	0xbcc5d7ee	-0.024150815
67	0x3e970d79	0.29502466
68	0xbed96a05	-0.424637
69	0xbea6d192	-0.32581764
70	0xbe8aa3e1	-0.27078155
71	0x3c10d8e0	0.0088407695
72	0x3d3c1235	0.0459158
73	0x3e80e235	0.25172582
74	0x3d8ac726	0.06776266
75	0x3ee5c9e1	0.44880584
76	0xbd238ba7	-0.039928105
77	0xbe476796	-0.19473109
78	0x3e0b307e	0.13592717
79	0xbe830b6a	-0.25594646
80	0x3c3d66da	0.011560166
81	0x3df25d46	0.11834197
82	0x3d487953	0.04894383
83	0x3b94415d	0.0045243935
84	0xbeca0619	-0.39457777
85	0x3eb0f64f	0.3456292
86	0xbb5ace41	-0.0033387097
87	0xbd16106f	-0.036636766
88	0x3da3f793	0.080062054
89	0x3e56794e	0.20944712
90	0x3f0518db	0.5199105
91	0xbe2de82f	-0.16983102
92	0xbec37dc6	-0.38181895
93	0xbd692416	-0.05691918
94	0xbed4beb6	-0.4155175
95	0x3e145117	0.14484058
96	0xbe018583	-0.12648587
97	0x3d9f68b2	0.07783641
98	0x3e09a5e0	0.13442183
99	0x3de5f53d	0.11228416
100	0x3e1e685e	0.154695
101	0xbe4593be	-0.1929464
102	0x3ede934b	0.4347175
103	0xbdef646c	-0.11689076
104	0x3dfb34e8	0.122659504
105	0xbea7db68	-0.3278458
106	0xbe79c985	-0.2439328
107	0x3e569b27	0.20957623
108	0xbdc9620b	-0.09833153
109	0xbe333156	-0.17499289
110	0x3de39cb2	0.11113872
111	0xbee473af	-0.4461951
112	0x3e1f1d46	0.1553851
113	0x3e4e2a5d	0.20133348
114	0x3e8d3708	0.27581048
115	0x3f3ca295	0.7368558
116	0x3e9ec605	0.31010452
117	0xbe661636	-0.2246941
118	0xbf2e1be0	-0.68011284
119	0x3e91c249	0.2846854
120	0xbe89f555	-0.26944986
121	0x3c1dd22a	0.009632627
122	0x3d92af5a	0.07162352
123	0xbd0b150e	-0.033955626
124	0x3c4f4c3d	0.012652454
125	0x3e15b038	0.14618003
126	0xbea7cd41	-0.32773784
127	0x3e47dfa1	0.19518901
128	0xbe395b29	-0.18101181
129	0x3dcae2e9	0.09906561
130	0xbe5f9aa5	-0.21836336
131	0x3ea2a0d8	0.3176334
132	0x3e18e6c8	0.14931786
133	0xbe460e96	-0.19341502
134	0x3eb0756b	0.34464583
135	0x3eda81c2	0.42677122
136	0x3e5cd105	0.2156411
137	0xbed122a7	-0.4084675
138	0xbe441f2d	-0.19152518
139	0x3e68f066	0.22747955
140	0x3db27342	0.0871339
141	0xbd3e37d3	-0.046439957
142	0xbed12ac2	-0.40852934
143	0x3e3cdcad	0.18443556
144	0x3ee758d3	0.45184955
145	0xb8f595d1	-0.00011710416
146	0x3d87bfaa	0.06628354
147	0xbd1b9ac6	-0.0379894
148	0xbe65917c	-0.22418779
149	0xbd9fe972	-0.07808198
150	0x3e2bfdf7	0.16796099
151	0xbec90b78	-0.39266562
152	0x3ec5a67f	0.3860359
153	0x3cc6c882	0.024265531
154	0x3ea0655e	0.31327337
155	0x3ef8a00f	0.48559615
156	0xbf7ca603	-0.98690814
157	0xbcadd528	-0.021219805
158	0xbeafe3d6	-0.34353513
159	0xbd357867	-0.044304278
160	0x3f0c5dd9	0.548307
161	0xbef5a520	-0.47977543
162	0x3e387e1b	0.18016855
163	0x3d93b642	0.07212497
164	0x3da0b3c8	0.078467906
165	0x3e66c778	0.22537029
166	0xbecf05ca	-0.40434104
167	0xbeb9c062	-0.3627959
168	0xbdf957f0	-0.12174976
169	0x3eda435c	0.42629516
170	0xbf07b11a	-0.5300461
171	0xbdf0bbe7	-0.117545895
172	0x3e915959	0.2838848
173	0x3dea7744	0.11448529
174	0x3caa3442	0.020776872
175	0xbe120638	-0.14260185
176	0xbe087326	-0.13325176
177	0x3e13e878	0.14444149
178	0xbe04c983	-0.12967496
179	0x3de0a37a	0.10968681
180	0x3e308567	0.17238389
181	0x3d5ff1ed	0.054674078
182	0x3d3fb87d	0.0468068
183	0xbbd6d18e	-0.0065557426
184	0x3d86a5c9	0.0657459
185	0x3db4050c	0.08790025
186	0xbe3dfe76	-0.185541
187	0x3ea7d0c6	0.3277647
188	0xbee4886d	-0.44635335
189	0xbd28ba26	-0.04119315
190	0xbdb265dc	-0.087108344
191	0x3f0322f6	0.5122522
192	0xbed5688c	-0.41681325
193	0xbe852a09	-0.26008633
194	0xbedba9ed	-0.4290308
195	0x3ef29be0	0.47384548
196	0x3e0a11cf	0.13483356
197	0x3ebb4ff0	0.36584425
198	0xbcf55f07	-0.02995254
199	0x3cd63162	0.026146594
200	0xbeca4594	-0.3950621
201	0x3df34eeb	0.11880287
202	0x3e6e7f9a	0.23290864
203	0xbe2c9073	-0.16851978
204	0xbe9530d1	-0.29138806
205	0x3e931cd1	0.28732923
206	0xbeca3316	-0.394921
207	0x3d640df2	0.05567736
208	0xbdbdc1a5	-0.092654504
209	0xbe214148	-0.15747559
210	0xbe8d3579	-0.2757986
211	0x3e7e3250	0.2482388
212	0xbc6bf962	-0.014402719
213	0xbe80fcb9	-0.25192812
214	0x3e043bf9	0.12913503
215	0x3d69483b	0.05695365
216	0xbd8f2efe	-0.06991385
217	0xbcf728f2	-0.030170891
218	0x3e536c62	0.20646814
219	0x3e600572	0.21877077
220	0xbe8ad586	-0.2711603
221	0xbe09d3a6	-0.13459644
222	0xbc85a690	-0.016314775
223	0xbde032f2	-0.10947217
224	0xbdce93b1	-0.10086764
225	0x3e29cae7	0.16581307
226	0x3eca0428	0.39456296
227	0xbe056ede	-0.13030574
228	0x3e3c4a1c	0.18387645
229	0x3ddf77d0	0.10911524
230	0x3e8acde8	0.2711022
231	0xbd38e8eb	-0.045144003
232	0x3d5de6f3	0.05417533
233	0xbe14a0da	-0.14514485
234	0x3e3bd9b9	0.18344773
235	0xbe97fc0d	-0.29684487
236	0x3ea881b4	0.32911456
237	0x3c685798	0.01418104
238	0xbeb54e9f	-0.35411546
239	0xbe40ee52	-0.18840912
240	0xbcb8db54	-0.022565521
241	0xbe583f9d	-0.21118017
242	0x3e19d703	0.15023427
243	0xbefbad64	-0.49155724
244	0xbedcb79d	-0.43108836
245	0x3ea69f5a	0.3254345
246	0xbeab08b8	-0.3340509
247	0x3c1bbcd4	0.009505469
248	0x3e673292	0.22577885
249	0xbf128211	-0.57229716
250	0xbd4a6fd0	-0.04942304
251	0x3e28dc19	0.1649021
252	0x3f3d4fed	0.7395008
253	0x3e9eec57	0.31039688
254	0x3ccbc82e	0.024875727
255	0xbd57f8a6	-0.052727364

network_body._body_endoder.seq_layers.0.bias f4 [128]
0	0x3d244e7e	0.04011392
1	0xbd152edd	-0.036421645
2	0x3bd00f38	0.0063494705
3	0xbcb4ef7d	-0.022086853
4	0x3cec8c0e	0.028875377
5	0x3d528fa0	0.051406503
6	0xbd373e0f	-0.044736918
7	0x3d4c95f4	0.049947694
8	0xbc518f9f	-0.01279059
9	0x3c0ef9a9	0.008726516
10	0xbca996fa	-0.020701874
11	0x3ce18761	0.027530374
12	0x38f5f547	0.00011728197
13	0x3cd3b753	0.025844252
14	0x3c049c9d	0.00809398
15	0xbd8cf652	-0.06882919
16	0xbc111fb2	-0.008857654
17	0x3cc3c0cf	0.02389565
18	0xbd0e998f	-0.034814414
19	0x3d520386	0.05127289
20	0xbd43c66e	-0.04779666
21	0xbcd920a8	-0.02650483
22	0xbdf89634	-0.12138024
23	0xbce608f0	-0.028080434
24	0xbcc07c42	-0.02349675
25	0xbc127ef7	-0.008941404
26	0xbb0987fc	-0.0020985594
27	0xbd6c4a13	-0.05768783
28	0xbd48e2b2	-0.04904432
29	0xbd4c9819	-0.04994974
30	0xbbabd8ea	-0.005244364
31	0x39b87b19	0.0003518693
32	0x3bd34e07	0.0064485106
33	0x3ca4b0e2	0.020103876
34	0x3cd7bd26	0.02633531
35	0x3c73d5fe	0.014882563
36	0x3d6bc384	0.057559505
37	0x3baef84c	0.005339658
38	0xbd127ae3	-0.035761725
39	0xbd9daf59	-0.076994605
40	0xbd60010e	-0.054688506
41	0x3d32e3b9	0.043674204
42	0x3b3f20de	0.0029163877
43	0xbcd7e310	-0.026353389
44	0x3cc3f4dd	0.02392047
45	0x3da83aab	0.08214315
46	0xbd34553c	-0.0440266
47	0x3d917600	0.07102585
48	0x3d3d135d	0.046161044
49	0xba9b01f5	-0.0011826145
50	0x3cec742d	0.02886399
51	0xbdf310ec	-0.11868462
52	0xbd13ccf4	-0.03608413
53	0x3c003034	0.0078239925
54	0x3cfbd25e	0.03073996
55	0xbcdd7001	-0.027030947
56	0x3d3aa66f	0.04556888
57	0x3b158ec5	0.0022820693
58	0xbd68a2c8	-0.056795865
59	0x3c0215fe	0.007939814
60	0xbc7b080d	-0.015321744
61	0xbc817263	-0.015801614
62	0xbd3fe0f5	-0.046845395
63	0xbbee9c6f	-0.007281832
64	0xba4b639f	-0.000775868
65	0x3c7fc091	0.015609876
66	0xbd81699f	-0.06318974
67	0xbd04c00d	-0.032409716
68	0xbc176b07	-0.009241826
69	0x3c51be4d	0.012801719
70	0x3b05cd0b	0.0020416405
71	0xbd051a8f	-0.03249603
72	0xbb2503c6	-0.002517925
73	0x3c93260f	0.017962484
74	0xbc3084c3	-0.01077384
75	0xbda73d85	-0.08166031
76	0xbd16ebee	-0.036846094
77	0xbcee4d5f	-0.029089628
78	0x3d27d4b8	0.04097435
79	0xbd9c7f0e	-0.07641421
80	0x3d69a74a	0.057044305
81	0x3bb2398f	0.0054389904
82	0xbde738d7	-0.11290138
83	0x3839808d	4.422716e-05
84	0xbc852dde	-0.016257223
85	0xbcb62be8	-0.022237733
86	0x3cbc3570	0.0229747
87	0xbd730e0b	-0.059339564
88	0x3bd9a931	0.0066424836
89	0xbca1a3c4	-0.01973141
90	0x3c849063	0.01618213
91	0xbd54c46d	-0.05194514
92	0x3d867444	0.06565145
93	0x3b263cab	0.002536575
94	0xbd13844b	-0.036014836
95	0xbd34aa15	-0.044107515
96	0x3c21feaf	0.009887381
97	0xbccabb34	-0.024747469
98	0xbbbc8af1	-0.005753868
99	0x3bd0ba4f	0.006369866
100	0xbcaf2ad2	-0.021382723
101	0x3bc25247	0.0059302184
102	0xbd899225	-0.06717328
103	0xbbac581e	-0.005259528
104	0x3d5de8c6	0.05417707
105	0xbccbf73b	-0.024898162
106	0xbc91ae6e	-0.01778337
107	0xbd80b8ac	-0.06285223
108	0x3d9bf877	0.0761575
109	0x3dc64cca	0.09682615
110	0xbdea6538	-0.11445087
111	0xbb80f900	-0.003935933
112	0x3c72035f	0.014771312
113	0x3b5fc6dc	0.003414563
114	0xbc717b0d	-0.01473881
115	0x3c24b734	0.010053445
116	0x3d0231b9	0.0317857
117	0xbc15b888	-0.009138234
118	0x3c52cc54	0.012866098
119	0xbd1f25b6	-0.038854323
120	0xbc40c0a5	-0.01176468
121	0x3cdfa274	0.027299143
122	0xbc3d2df4	-0.011546601
123	0xbc79171b	-0.015203263
124	0xbc3425b3	-0.010995316
125	0xbc32c43e	-0.010911046
126	0xbc9f69fc	-0.019459717
127	0xbd578d69	-0.052625094

network_body._body_endoder.seq_layers.2.weight f4 [128, 128]
0	0x3cb3a989	0.021931427
1	0xbd8fe6bb	-0.0702643
2	0xbe5b2419	-0.21400489
3	0xbcd9da9e	-0.026593503
4	0xbd4cbdd6	-0.04998573
5	0xbc10d71f	-0.008840351
6	0xbe2ee9d1	-0.17081381
7	0xbe3cd2cf	-0.18439792
8	0xbd0c88dd	-0.03431021
9	0xbd8753ef	-0.06607806
10	0xbdfc0878	-0.12306303
11	0x3dc51b00	0.096242905
12	0xbd8104fc	-0.06299779
13	0xbe402d19	-0.18767203
14	0x3c228295	0.0099188285
15	0x3b5d9d35	0.0033815627
16	0xbc2a0aac	-0.010378521
17	0xbe84e612	-0.2595678
18	0xbd6ad536	-0.05733224
19	0xbdf91a80	-0.121632576
20	0x3de689ca	0.1125675
21	0xbdca311f	-0.0987265
22	0x3b0a268f	0.0021080112
23	0xbe08d617	-0.13362919
24	0x3d5b542c	0.05354707
25	0xba19bf94	-0.0005865034
26	0xbd6658b5	-0.05623694
27	0xbe4febd4	-0.20304805
28	0xbe359424	-0.17732292
29	0xbd21ef94	-0.03953512
30	0x3d5decc7	0.054180887
31	0xbd2f2594	-0.042760447
32	0xbd666ffe	-0.056259148
33	0x3db89c99	0.09014244
34	0x3d077d01	0.033078197
35	0x3dadf1cd	0.084933855
36	0x3cc124ee	0.02357718
37	0xbe811cc0	-0.25217247
38	0x3b6cbf86	0.00361249
39	0x3dc29f4a	0.09503038
40	0x3b43407f	0.0029793081
41	0xbd8e3035	-0.069427885
42	0x3e012f2f	0.12615655
43	0x3dd3ee15	0.10348145
44	0x3df19f82	0.11798002
45	0x3d8ac29b	0.06775399
46	0xbdbc56f2	-0.09196271
47	0xbd97b6e0	-0.074079275
48	0xbd00e9f2	-0.031473108
49	0xbdab703a	-0.08371015
50	0x3d567a02	0.05236245
51	0x3e112091	0.1417258
52	0xbc00c464	-0.007859323
53	0x3dddd9cf	0.10832559
54	0xbd0ae8f8	-0.033913583
55	0x3cc677f4	0.02422712
56	0x3ddf6ca5	0.10909394
57	0xbe01336c	-0.12617272
58	0x3d32352f	0.04350775
59	0x3e0a3abd	0.1349897
60	0x3dfc2cf9	0.12313265
61	0xbcf9b339	-0.030480968
62	0xbdf744dc	-0.12073681
63	0xbddfc2ab	-0.10925802
64	0xbd0a3843	-0.03374506
65	0xbc32fa3a	-0.0109239165
66	0xbdada0c3	-0.084779285
67	0x3db6d1b0	0.089267135
68	0xbd91a3f9	-0.071113534
69	0x3db2d479	0.08731932
70	0x3e22924e	0.15876123
71	0xbdf48aba	-0.119405225
72	0x3c14317b	0.009045
73	0xbccb5d99	-0.024824904
74	0x3dc50f17	0.09622019
75	0xbe2ecd17	-0.17070423
76	0x3dbbefe1	0.09176613
77	0x3e1a832a	0.15089098
78	0x3c84e58b	0.016222736
79	0x3d87cd74	0.06630984
80	0xbe003b7c	-0.12522691
81	0xbc435fb0	-0.011924669
82	0x3c489ede	0.012244908
83	0xbd8abce3	-0.067743085
84	0x3ca27490	0.019830972
85	0x3d1cd83b	0.03829215
86	0xbc31daa5	-0.010855352
87	0x3e1c6086	0.15271196
88	0x3e341b2a	0.17588487
89	0x3d1563f1	0.036472265
90	0x3c6cc8bf	0.0144521585
91	0xbc4d395b	-0.012525882
92	0xbd138f05	-0.036025066
93	0xbc380204	-0.011230949
94	0x3daadf08	0.08343321
95	0x3df54c49	0.11977441
96	0x3dab0969	0.08351404
97	0xbdbc55f0	-0.09196079
98	0xbe2d052b	-0.16896503
99	0x3e0b5207	0.1360551
100	0x3e161fc0	0.14660549
101	0x3dee7421	0.116432436
102	0xbc7d703d	-0.015468654
103	0x3da6e498	0.081490695
104	0x3da560d0	0.08075106
105	0xbe3ef741	-0.18649007
106	0x3ca3d643	0.019999629
107	0x3daeef50	0.08541739
108	0xbcc900af	-0.024536459
109	0xbd8549c2	-0.06508209
110	0xbdc3d47b	-0.09562012
111	0x3db2ba10	0.08726895
112	0x3e06d6b2	0.13167837
113	0xbb0aeedc	-0.00211995
114	0xbe52999b	-0.20566408
115	0x3d98b2d4	0.07455984
116	0x3db91280	0.09036732
117	0x3d489207	0.048967388
118	0x3c8b0ad2	0.016972933
119	0x3d2715a6	0.04079213
120	0x3d7fd04b	0.062454503
121	0xbd6cfd42	-0.057858713
122	0xbe18dbbe	-0.14927575
123	0xbda78037	-0.08178752
124	0xbdb0e6f2	-0.08637799
125	0xbe0872dd	-0.13325067
126	0x3d84f31f	0.06491684
127	0x3e140c16	0.14457735
128	0x3d2c98b1	0.042137805
129	0x3cef86ad	0.029239023
130	0xbe28db8e	-0.16490003
131	0x3db2c6d2	0.08729328
132	0x3e0cc975	0.13748725
133	0x3e5d6577	0.21620737
134	0x3db76a8f	0.08955871
135	0x3cd33395	0.025781432
136	0x3c3791c9	0.0112041915
137	0x3e0aef21	0.13567783
138	0xbdb76e5b	-0.089565955
139	0x3def9f5f	0.117003195
140	0x3df59230	0.11990774
141	0xbc678021	-0.014129669
142	0x3e0eb1b6	0.13934979
143	0xbd64d857	-0.05587038
144	0xbcceff1a	-0.025268126
145	0x39a73c90	0.00031897845
146	0xbe1795f3	-0.14803295
147	0x3d49535a	0.049151756
148	0x3d7ceebd	0.061751116
149	0xbe1f3f44	-0.15551478
150	0xbc814dc3	-0.01578415
151	0x3dc4e9c0	0.09614897
152	0x3d01534b	0.031573575
153	0x3e0b3181	0.13593103
154	0x3cd21655	0.025645414
155	0xbbd3b3f2	-0.00646066
156	0x3e106e53	0.14104585
157	0xbd1f4a9c	-0.038889512
158	0xbc030c4d	-0.007998538
159	0x3e2e32dc	0.17011589
160	0x3e41ffe4	0.18945271
161	0x3dec3817	0.11534136
162	0x3d01fe83	0.031736862
163	0xbdd38308	-0.103277266
164	0xbb0e5971	-0.0021720792
165	0xbccd1792	-0.025035653
166	0x3beff5e7	0.007323015
167	0xbdf3daf8	-0.11906999
168	0x3df870a0	0.121308565
169	0xbdd5b76f	-0.10435378
170	0x3d23969f	0.039938565
171	0xbe20c5e0	-0.15700483
172	0x3c707e1b	0.014678503
173	0x3d16e7b1	0.036842052
174	0xbcaeaf31	-0.021323772
175	0x3d2a1874	0.041527227
176	0xbc9aa0e0	-0.01887554
177	0x3b7f9c4c	0.0039003072
178	0xbde18fed	-0.1101378
179	0x3d705bad	0.05868118
180	0xbdb6346f	-0.0889672
181	0x3cc5bc2e	0.024137583
182	0x3d9abcb0	0.075555205
183	0x3d5597a2	0.05214656
184	0xbd9999ba	-0.07500024
185	0xbe17a7f2	-0.1481016
186	0xbd1bec3d	-0.03806709
187	0xbc90ea30	-0.017689794
188	0xbc4ad9c9	-0.012381026
189	0x3e1f90da	0.155826
190	0xbb099a2b	-0.0020996432
191	0x3df00892	0.11720385
192	0x3d678bc6	0.056529783
193	0x3d3835ae	0.044973068
194	0x3ce76aec	0.028249227
195	0x3e40f0f7	0.18841921
196	0xbdf2f664	-0.118634015
197	0x3e21a05a	0.15783826
198	0xbb19c1b6	-0.0023461408
199	0xbe0b1b0c	-0.13584536
200	0xbc40e1d8	-0.011772595
201	0xbe07cfa9	-0.1326281
202	0x3ddb2969	0.10701258
203	0x3d2d5837	0.042320456
204	0xbd383f8b	-0.044982474
205	0x3d944ba3	0.07240989
206	0x3da1dd05	0.07903484
207	0xbcdf697c	-0.027271979
208	0x3e2820c5	0.1641875
209	0xbe7263f1	-0.23670937
210	0xbe4f9323	-0.20270972
211	0xbdbb34c4	-0.091409236
212	0xbde6555a	-0.11246748
213	0x3d0130f7	0.031540837
214	0x3e08ffc9	0.13378824
215	0x3cb40de5	0.021979282
216	0x3d779999	0.060449217
217	0xbe2891e0	-0.16461897
218	0xbc20fbd3	-0.009825665
219	0x3df6f4d7	0.12058418
220	0x3de0dd7b	0.10979744
221	0x3e3ad38a	0.18244758
222	0x3d956212	0.07294096
223	0x3e028515	0.1274608
224	0xbdfb0630	-0.122570395
225	0x3cbef800	0.023311615
226	0x3e555387	0.20832644
227	0x3cab46bb	0.02090775
228	0x3dc57e94	0.096432835
229	0xbe403065	-0.18768461
230	0x3cefb945	0.029263148
231	0xbd34c008	-0.044128448
232	0x3e1c3b7b	0.15257065
233	0x3df68903	0.12037852
234	0xbdd5d9c5	-0.10441927
235	0x3b43d5a0	0.002988197
236	0x3dfcc1e1	0.12341667
237	0xbd91167b	-0.07084366
238	0xbc0663cb	-0.008202503
239	0xbe12b3a0	-0.14326334
240	0xbd19b12b	-0.037522476
241	0xbe678db0	-0.22612643
242	0x3de59754	0.11210504
243	0xbce50c28	-0.027959898
244	0xbd5da56d	-0.05411284
245	0xbcee439f	-0.029084979
246	0x3e20d393	0.15705709
247	0x3e117cd8	0.1420778
248	0xbd679be4	-0.056545153
249	0x3d5352bd	0.051592577
250	0x399195d6	0.00027768192
251	0x3d7e6257	0.062105503
252	0x3d903b42	0.070425525
253	0xba9c67b9	-0.0011932767
254	0x3d24a228	0.040193707
255	0x3e3a0193	0.18164663

network_body._body_endoder.seq_layers.2.bias f4 [128]
0	0xbc74f240	-0.014950335
1	0x3c62291e	0.013803748
2	0xbc25eced	-0.010127288
3	0xbbb6a24e	-0.0055735474
4	0xbc7d15b4	-0.015447069
5	0xbb35df94	-0.002775167
6	0x3b82a269	0.003986646
7	0xbc767cc8	-0.015044399
8	0xbcb2f20f	-0.021843938
9	0xbd273dfb	-0.040830594
10	0x3c035c54	0.008017618
11	0xbc82f862	-0.015987579
12	0xbc444971	-0.0119804
13	0xbc048011	-0.008087174
14	0xbc419ee0	-0.011817664
15	0x3a5133c0	0.00079804286
16	0xbc61acb9	-0.01377409
17	0xbc735de2	-0.014853926
18	0xbc87e61a	-0.016589213
19	0x3bc4ee90	0.006009884
20	0x3cad4823	0.021152562
21	0xbceab22f	-0.028649418
22	0x3c7190ea	0.014744023
23	0xbcfb9ac3	-0.030713445
24	0xbd0837fc	-0.033256516
25	0xbbbf485a	-0.0058374824
26	0xbbfa67b5	-0.0076417574
27	0xbc6954c1	-0.014241398
28	0x3cf37786	0.02972008
29	0xbbd8e1b6	-0.0066187037
30	0xbbfccb0f	-0.007714636
31	0xbc219ffc	-0.009864803
32	0xbc3e0080	-0.011596799
33	0xbc9d877b	-0.019229641
34	0x3d125815	0.035728533
35	0xbcdc661f	-0.026904164
36	0xbd0251d4	-0.03181632
37	0x3d03f484	0.03221561
38	0xbbb6f068	-0.005582858
39	0xbca97ba0	-0.020688832
40	0x3b3b8b94	0.002861713
41	0xb9745f94	-0.00023305259
42	0xbc839f34	-0.016067125
43	0xbbfbebf0	-0.007688038
44	0xbd31e255	-0.043428738
45	0xbd102b6f	-0.03519767
46	0xbb8a6caf	-0.004224382
47	0x3c8b5089	0.017006176
48	0x3c004376	0.007828584
49	0xbbdcd4ec	-0.0067392495
50	0x3c68f6cb	0.014218996
51	0xbce7e29c	-0.028306298
52	0xbcb5c63f	-0.022189258
53	0xbc2ae653	-0.01043089
54	0x3abd50cd	0.0014443636
55	0xbd5ee754	-0.05441983
56	0xbd306dfe	-0.043073647
57	0x3d08498e	0.033273272
58	0xbc2fb53f	-0.010724365
59	0xbc309194	-0.010776896
60	0xbbebfe94	-0.007201979
61	0xbca70408	-0.020387664
62	0xbd58339b	-0.05278359
63	0x3b786f86	0.003790827
64	0x3c9bbb87	0.019010318
65	0x3c4c3f29	0.01246623
66	0xbc214e03	-0.00984526
67	0x3cce8918	0.025211856
68	0xbbfa745a	-0.0076432647
69	0x3c567c51	0.013091163
70	0x3b703ebb	0.0036658484
71	0x3b902d2d	0.0043999166
72	0x3c8b7821	0.017025055
73	0xbc467df1	-0.012114988
74	0x3cc22ec0	0.023703933
75	0xbc0c9439	-0.008580261
76	0xbb93e486	-0.004513326
77	0xbb980bdf	-0.004640087
78	0xbc837a91	-0.016049655
79	0x3cc4abdb	0.024007728
80	0xbcd89187	-0.02643658
81	0x3cec3151	0.02883211
82	0x3b0e3be1	0.002170317
83	0x3bb2746d	0.005446008
84	0x3be678f6	0.0070334626
85	0xbc1b734d	-0.009487939
86	0x3c5a8070	0.013336286
87	0xbb1720a7	-0.0023060234
88	0xbca58c16	-0.0202084
89	0x3ccb2f97	0.024802966
90	0x3abca6c8	0.0014392966
91	0xbcebd17e	-0.028786417
92	0xbcc12945	-0.02357925
93	0x3c526efb	0.012843843
94	0xbc93015b	-0.017944982
95	0xbcbb1f5c	-0.022842102
96	0x3c21f7ad	0.009885711
97	0xbc177503	-0.009244206
98	0x3c992d42	0.018698338
99	0x3c5984cf	0.013276293
100	0x3c03ea56	0.0080514755
101	0xbc191151	-0.009342507
102	0xbb38ed1c	-0.00282175
103	0xbba4d5db	-0.0050303764
104	0x3d13abeb	0.036052626
105	0x3c9672c7	0.018365277
106	0xbc0526a1	-0.008126886
107	0xbcaf9a2a	-0.021435816
108	0x3c271e18	0.010200046
109	0x3ad510a2	0.0016255567
110	0x3b85ae37	0.004079606
111	0xbce0ca7a	-0.027440298
112	0x3c9097c9	0.017650502
113	0x3d066021	0.03280652
114	0x3d381a9f	0.044947263
115	0x3c276eaf	0.01021926
116	0x3cccd630	0.025004476
117	0x3c8e2747	0.017352713
118	0x3cf618e5	0.030041168
119	0x3cb42b6e	0.021993365
120	0x3bc1354a	0.005896245
121	0xbcb1f0d9	-0.02172129
122	0xbca87bef	-0.020566909
123	0x3c206dc4	0.009791795
124	0xbc843f85	-0.01614357
125	0x3d0bd7ba	0.03414128
126	0x3b962eda	0.004583222
127	0xbb1695e5	-0.0022977528

action_model._continuous_distribution.mu.weight f4 [1, 128]
0	0xbccfb402	-0.02535439
1	0x3d0ae566	0.033910178
2	0xbc9ba2b7	-0.018998487
3	0xbd0bfd75	-0.034177262
4	0xbd1479bf	-0.03624892
5	0xbd3bcc02	-0.045848854
6	0x3c498d06	0.012301689
7	0xbd1bf360	-0.038073897
8	0xbd10e40d	-0.035373736
9	0xbd408872	-0.047005124
10	0xbd1e2bb9	-0.038615916
11	0xbd3edd1d	-0.04659759
12	0x3b5c0d18	0.003357714
13	0x3cbf1f95	0.02333049
14	0x3c8fc763	0.01755113
15	0x3c7436bf	0.014905631
16	0xbcae8262	-0.021302406
17	0xbd3b8b60	-0.045787215
18	0xbd235996	-0.039880358
19	0x3ccc0404	0.024904259
20	0x3d5899a1	0.052880887
21	0xbd274264	-0.0408348
22	0x3d0c222e	0.034212284
23	0xbc07f4d2	-0.008298116
24	0xbd6e51f8	-0.05818364
25	0x3c4770fb	0.012172933
26	0xbcc5351a	-0.024073172
27	0xbd1425f9	-0.036169026
28	0x3d459e27	0.04824653
29	0xbc43b7e7	-0.011945701
30	0xbd2fcf65	-0.042922396
31	0x3bd15540	0.0063883364
32	0x3c7d3381	0.015454174
33	0xbd27834a	-0.04089669
34	0x3d5bc286	0.05365231
35	0x3b2d7198	0.0026465412
36	0xbb9d26cc	-0.0047958847
37	0xbbbd6776	-0.005780156
38	0x3c65faf5	0.014036884
39	0xbd1b8552	-0.03796894
40	0x3d078e36	0.033094607
41	0xbcf4f6c7	-0.029902829
42	0xbcee1045	-0.029060492
43	0xbcb99a80	-0.02265668
44	0xbcf23521	-0.02956635
45	0xbd4be613	-0.049779963
46	0x3c519710	0.012792364
47	0x3d041e97	0.032255735
48	0x3bd6a9f6	0.0065510226
49	0x3ce64d95	0.028113166
50	0x3d088746	0.03333213
51	0xbd26214a	-0.04055909
52	0x3bfe70f8	0.007764932
53	0xbd2bd398	-0.04194984
54	0x3bd7fb99	0.006591272
55	0xbd2f32d2	-0.042773075
56	0xbd00ddea	-0.031461634
57	0x3d709604	0.058736816
58	0xbd352545	-0.044224996
59	0xbd5c18f5	-0.05373474
60	0xbd70eb7e	-0.058818333
61	0xbd821bef	-0.06352984
62	0xbd5c1a69	-0.053736124
63	0x3c7ca406	0.015419966
64	0xbcc4e736	-0.024036031
65	0x3c8a6c87	0.016897453
66	0xbd0e5366	-0.034747504
67	0x3d3bcfe1	0.045852546
68	0xbb5b5974	-0.0033470066
69	0x3cd8a7ca	0.026447196
70	0x3d0857ec	0.033286974
71	0xbcaeff8c	-0.021362089
72	0x3d14df0c	0.036345527
73	0x3c33392e	0.010938926
74	0x3d50e91d	0.051003564
75	0xbd38e620	-0.04514134
76	0xbc305b59	-0.0107639665
77	0xbc9a9a39	-0.018872367
78	0xbcf9c71f	-0.030490456
79	0x3d77cf5b	0.060500484
80	0xbd4e3959	-0.05034766
81	0x3d2fa2d3	0.04287989
82	0x3d0e70ea	0.034775652
83	0x3cef46f0	0.02920863
84	0x3cdb0566	0.026735973
85	0xbd87e63e	-0.06635712
86	0xbccb2f2d	-0.024802769
87	0xbd9e6edf	-0.07735991
88	0xbce6c2ed	-0.02816912
89	0x3b911942	0.00442806
90	0x3cc8853c	0.024477594
91	0xbd125dd6	-0.03573402
92	0xbd598329	-0.0531036
93	0xbda4914d	-0.080355264
94	0xbbf3a0ed	-0.0074349553
95	0xbd27818d	-0.040895034
96	0x3c9edb64	0.019391723
97	0xbd31f09c	-0.043442354
98	0x3d1b67c4	0.037940755
99	0x3c9e6819	0.019336747
100	0x3d154113	0.036439013
101	0x3cb330a9	0.021873789
102	0xbd765bb0	-0.060146034
103	0xbd2bf392	-0.041980334
104	0x3d89913f	0.067171566
105	0x3d2cf7fd	0.042228688
106	0xbd02ea1c	-0.031961545
107	0xbd734e4c	-0.05940084
108	0xbca7a1d9	-0.020462917
109	0x3bb6908e	0.0055714315
110	0x3d0e3cd5	0.034725983
111	0x3c0ea524	0.008706365
112	0x3cbf2d93	0.023337161
113	0x3d835c33	0.0641407
114	0x3d6a9c98	0.057278246
115	0x3d396335	0.045260627
116	0x3d343197	0.043992605
117	0xbb44263e	-0.002993002
118	0x3d519508	0.051167518
119	0xbcd4f147	-0.025993956
120	0x3c24bc36	0.010054639
121	0xbc523fd3	-0.0128326
122	0xbd1b0368	-0.037845045
123	0x3c9cd1d1	0.019143017
124	0xbcac6ff4	-0.021049477
125	0x3d58d50a	0.052937545
126	0xb7943480	-1.7667422e-05
127	0xbba3362d	-0.0049808235

exp_avg f4 [128, 15]
0	0x39ce3298	0.00039329077
1	0x39dd0f3b	0.00042163752
2	0xbabadd4a	-0.0014256623
3	0xbab3ed73	-0.0013727382
4	0xb9d20c1e	-0.0004006335
5	0xb9d20c06	-0.0004006328
6	0xbabadaff	-0.001425594
7	0xbab7132d	-0.0013967507
8	0xb9d20b46	-0.0004006272
9	0xb9d20b46	-0.0004006272
10	0xbabadc3b	-0.0014256308
11	0xbab7eec4	-0.001403295
12	0xb9d205ce	-0.00040058646
13	0xb9d205ce	-0.00040058646
14	0x00000000	0.0
15	0xb99d563e	-0.0003000963
16	0x3a09642f	0.0005241064
17	0x3b8de09f	0.0043297554
18	0x3b8bf5ae	0.0042712307
19	0x3b7c028b	0.0038453664
20	0x3b7c0283	0.0038453646
21	0x3b8ddfa0	0.0043296367
22	0x3b8cd435	0.004297758
23	0x3b7c020d	0.003845337
24	0x3b7c020c	0.0038453368
25	0x3b8de05a	0.0043297233
26	0x3b8d1156	0.004305045
27	0x3b7c01e2	0.003845327
28	0x3b7c01e2	0.003845327
29	0x00000000	0.0
30	0x38abfcc6	8.200998e-05
31	0xb91cb49c	-0.00014944602
32	0xbac25432	-0.0014826118
33	0xbac0bd38	-0.0014704829
34	0xbaa43d9d	-0.0012530569
35	0xbaa43d92	-0.0012530556
36	0xbac2527f	-0.0014825611
37	0xbac174b7	-0.0014759515
38	0xbaa43ccc	-0.0012530326
39	0xbaa43cca	-0.0012530324
40	0xbac2538f	-0.0014825928
41	0xbac1a7cf	-0.0014774742
42	0xbaa43c26	-0.0012530133
43	0xbaa43c26	-0.0012530133
44	0x00000000	0.0
45	0x39b8a73c	0.00035219814
46	0x39be04b5	0.0003624313
47	0xba51f8a8	-0.000800977
48	0xba433f35	-0.0007448078
49	0xb8b2b810	-8.521986e-05
50	0xb8b2b7c0	-8.5219275e-05
51	0xba51f5e8	-0.000800936
52	0xba49f07c	-0.00077033765
53	0xb8b2b5d0	-8.5215666e-05
54	0xb8b2b5b0	-8.521543e-05
55	0xba51f95e	-0.0008009876
56	0xba4bc387	-0.00077729713
57	0xb8b2a8e0	-8.519157e-05
58	0xb8b2a8e0	-8.519157e-05
59	0x00000000	0.0
60	0x39d88429	0.00041297197
61	0x3981bd77	0.0002474596
62	0xbac33600	-0.0014893413
63	0xbab9f74a	-0.0014188078
64	0xba4d26fe	-0.00078259397
65	0xba4d26ee	-0.00078259304
66	0xbac333c4	-0.0014892747
67	0xbabe2a92	-0.0014508537
68	0xba4d25da	-0.000782577
69	0xba4d25d2	-0.0007825765
70	0xbac33540	-0.0014893189
71	0xbabf4f32	-0.0014595746
72	0xba4d23b0	-0.0007825447
73	0xba4d23b0	-0.0007825447
74	0x00000000	0.0
75	0x385bcfe7	5.2407293e-05
76	0xb8048ef0	-3.1604373e-05
77	0xba042642	-0.0005041101
78	0xba01fc6a	-0.0004958572
79	0xb9d74c03	-0.0004106463
80	0xb9d74be6	-0.00041064544
81	0xba042479	-0.0005040835
82	0xba02f6c5	-0.0004995878
83	0xb9d74a01	-0.00041063133
84	0xb9d749fd	-0.0004106312
85	0xba04250a	-0.00050409196
86	0xba033b74	-0.00050061126
87	0xb9d748b1	-0.00041062155
88	0xb9d748b1	-0.00041062155
89	0x00000000	0.0
90	0xb815bfd5	-3.5703026e-05
91	0xb8adaeb1	-8.281822e-05
92	0xb903ee77	-0.00012581969
93	0xb9092dfb	-0.00013082467
94	0xb94fc767	-0.00019815342
95	0xb94fc767	-0.00019815342
96	0xb903ee8c	-0.00012581999
97	0xb906ca62	-0.0001285463
98	0xb94fc72d	-0.00019815257
99	0xb94fc731	-0.00019815263
100	0xb903ede6	-0.00012581758
101	0xb9062489	-0.00012792846
102	0xb94fc88b	-0.00019815766
103	0xb94fc88b	-0.00019815766
104	0x00000000	0.0
105	0xb7f867e3	-2.961228e-05
106	0x3a01c384	0.00049500936
107	0x3b3370ea	0.0027380534
108	0x3b33369a	0.0027345777
109	0x3b2b678d	0.002615425
110	0x3b2b6784	0.002615423
111	0x3b336f9c	0.0027379757
112	0x3b334fcf	0.0027360802
113	0x3b2b66e3	0.0026153855
114	0x3b2b66e3	0.0026153855
115	0x3b336ff2	0.0027379957
116	0x3b33574d	0.0027365268
117	0x3b2b66d0	0.002615381
118	0x3b2b66d0	0.002615381
119	0x00000000	0.0
120	0xb7dc5b70	-2.6268623e-05
121	0x38d1d132	0.00010004862
122	0x3a1d6ea7	0.0006005563
123	0x3a1be509	0.00059469097
124	0x3a15c447	0.00057131465
125	0x3a15c442	0.00057131436
126	0x3a1d6d6d	0.00060053804
127	0x3a1c9709	0.0005973434
128	0x3a15c3e5	0.00057130895
129	0x3a15c3e5	0.00057130895
130	0x3a1d6e18	0.000600548
131	0x3a1cc823	0.00059807504
132	0x3a15c3f9	0.0005713101
133	0x3a15c3f9	0.0005713101
134	0x00000000	0.0
135	0x3a6a1590	0.00089296047
136	0x3a84a2c5	0.001011931
137	0xba9f4f3e	-0.0012154353
138	0xba8c4870	-0.001070274
139	0x39e42a71	0.0004351917
140	0x39e42a91	0.00043519263
141	0xba9f4b9f	-0.0012153274
142	0xba94ee1e	-0.0011362468
143	0x39e42c61	0.00043520614
144	0x39e42c61	0.00043520614
145	0xba9f4d14	-0.0012153708
146	0xba9746bf	-0.001154147
147	0x39e42ed1	0.0004352243
148	0x39e42ed1	0.0004352243
149	0x00000000	0.0
150	0x399168f6	0.00027734757
151	0xb932507e	-0.00017005389
152	0xbb3b43df	-0.002857439
153	0xbb3844d2	-0.0028117192
154	0xbb16a955	-0.0022989113
155	0xbb16a955	-0.0022989113
156	0xbb3b4314	-0.0028573917
157	0xbb39a144	-0.0028324882
158	0xbb16a960	-0.002298914
159	0xbb16a95e	-0.0022989134
160	0xbb3b43ce	-0.002857435
161	0xbb3a0053	-0.002838154
162	0xbb16a8fb	-0.0022988904
163	0xbb16a8fb	-0.0022988904
164	0x00000000	0.0
165	0xb989b3de	-0.00026264688
166	0xb9e9f3cf	-0.00044622875
167	0xb810b9bc	-3.4505254e-05
168	0xb8971c5d	-7.205524e-05
169	0xba242a4a	-0.0006262405
170	0xba242a4a	-0.0006262405
171	0xb810c428	-3.451496e-05
172	0xb8669548	-5.4975302e-05
173	0xba242a0c	-0.0006262369
174	0xba242a14	-0.00062623736
175	0xb810b83b	-3.4503853e-05
176	0xb8532a88	-5.034593e-05
177	0xba242b78	-0.0006262581
178	0xba242b78	-0.0006262581
179	0x00000000	0.0
180	0xb82c07f5	-4.1015406e-05
181	0xb7b423fa	-2.1474425e-05
182	0x3905083b	0.00012686934
183	0x38f86d3e	0.000118459095
184	0x38937a2a	7.032261e-05
185	0x38937a2a	7.032261e-05
186	0x39050654	0.00012686226
187	0x390038b7	0.00012228159
188	0x38937aa8	7.032353e-05
189	0x38937aa8	7.032353e-05
190	0x39050714	0.00012686505
191	0x39014f39	0.00012331911
192	0x389379f1	7.0322196e-05
193	0x389379f1	7.0322196e-05
194	0x00000000	0.0
195	0xb7934262	-1.7554677e-05
196	0xb890e762	-6.9095535e-05
197	0xb96914b6	-0.00022228327
198	0xb96bd0d9	-0.00022489148
199	0xb982d9c4	-0.0002495778
200	0xb982d9bf	-0.00024957766
201	0xb96913c4	-0.00022227975
202	0xb96a912c	-0.0002237006
203	0xb982d959	-0.0002495747
204	0xb982d95a	-0.00024957472
205	0xb96913bc	-0.00022227963
206	0xb96a3b01	-0.0002233796
207	0xb982d98f	-0.00024957626
208	0xb982d98f	-0.00024957626
209	0x00000000	0.0
210	0x39a3d0a9	0.00031245247
211	0x396cdf0a	0.00022589802
212	0xba9d2696	-0.0011989649
213	0xba969fe4	-0.0011491743
214	0xba10bf38	-0.0005521658
215	0xba10bf2a	-0.000552165
216	0xba9d246c	-0.0011989004
217	0xba999637	-0.0011717741
218	0xba10be40	-0.00055215135
219	0xba10be40	-0.00055215135
220	0xba9d25f6	-0.0011989463
221	0xba9a653d	-0.0011779439
222	0xba10bd6e	-0.0005521391
223	0xba10bd6e	-0.0005521391
224	0x00000000	0.0
225	0x39eb51c7	0.00044883622
226	0x39b46abd	0.00034411802
227	0xbac07e45	-0.0014686069
228	0xbab6f338	-0.0013957983
229	0xba1fab05	-0.00060908525
230	0xba1faaf9	-0.00060908456
231	0xbac07bf1	-0.0014685375
232	0xbabb4914	-0.0014288747
233	0xba1faa0f	-0.00060907094
234	0xba1faa09	-0.0006090706
235	0xbac07d62	-0.0014685804
236	0xbabc7702	-0.0014378729
237	0xba1fa90f	-0.00060905603
238	0xba1fa90f	-0.00060905603
239	0x00000000	0.0
240	0x391d55e7	0.00015004688
241	0xb900a413	-0.00012268154
242	0xbad885b5	-0.001651934
243	0xbad53ccd	-0.001626873
244	0xbab1d29c	-0.0013566795
245	0xbab1d28f	-0.001356678
246	0xbad88363	-0.0016518648
247	0xbad6b94a	-0.0016382125
248	0xbab1d1ae	-0.0013566518
249	0xbab1d1ad	-0.0013566517
250	0xbad8845c	-0.0016518938
251	0xbad721ac	-0.0016413233
252	0xbab1d11c	-0.0013566348
253	0xbab1d11c	-0.0013566348
254	0x00000000	0.0
255	0x3a35b4f3	0.00069315656

exp_avg_sq f4 [128, 15]
0	0x3825c7b3	3.952505e-05
1	0x3899229e	7.3020565e-05
2	0x3752f471	1.2573889e-05
3	0x37760148	1.4663041e-05
4	0x39dae30d	0.00041749366
5	0x39daebe0	0.0004175594
6	0x377fa790	1.5238198e-05
7	0x37896e71	1.6383101e-05
8	0x39de518a	0.0004240389
9	0x39de533b	0.0004240515
10	0x378f9ca4	1.711987e-05
11	0x3796ccee	1.7976821e-05
12	0x39e01041	0.0004273672
13	0x39e01232	0.00042738166
14	0x00000000	0.0
15	0x37fe1a70	3.029147e-05
16	0x3819dfbd	3.6686415e-05
17	0x38c17eca	9.2265735e-05
18	0x38c61434	9.445139e-05
19	0x391e510a	0.00015098244
20	0x391e53c0	0.00015099254
21	0x38c7559a	9.505004e-05
22	0x38cb7ef1	9.703439e-05
23	0x391f6403	0.00015200679
24	0x391f65ed	0.00015201392
25	0x38ae8bcf	8.323008e-05
26	0x38b16d05	8.460324e-05
27	0x392011dc	0.00015265442
28	0x39201205	0.00015265502
29	0x00000000	0.0
30	0x35f0c5e1	1.7938984e-06
31	0x368e7569	4.245598e-06
32	0x372e2bd4	1.0381413e-05
33	0x37304b2d	1.0507921e-05
34	0x38175072	3.6076126e-05
35	0x3817668b	3.6096706e-05
36	0x3750b599	1.2440048e-05
37	0x375260e3	1.2539534e-05
38	0x38236402	3.8955368e-05
39	0x38236332	3.895461e-05
40	0x3745ae10	1.1782642e-05
41	0x37472e77	1.1872143e-05
42	0x382618b2	3.9600483e-05
43	0x38261afa	3.9602608e-05
44	0x00000000	0.0
45	0x3814edb7	3.550734e-05
46	0x383dcc9b	4.5251665e-05
47	0x375568ca	1.2720187e-05
48	0x3771f024	1.44206315e-05
49	0x391400ad	0.00014114632
50	0x39140766	0.00014117136
51	0x36d71338	6.4097367e-06
52	0x36ffe8e7	7.6267056e-06
53	0x3915c1b1	0.00014281903
54	0x3915c0db	0.00014281592
55	0x3633ce9a	2.6793336e-06
56	0x36698626	3.479779e-06
57	0x391657f8	0.00014337886
58	0x3916588a	0.00014338098
59	0x00000000	0.0
60	0x38521ebc	5.0096525e-05
61	0x38713abf	5.751359e-05
62	0x37a44428	1.9582061e-05
63	0x37ba9f02	2.2246972e-05
64	0x39116c6e	0.00013868671
65	0x3911770c	0.00013872626
66	0x376293c9	1.3505059e-05
67	0x37801c49	1.527196e-05
68	0x391412db	0.00014121404
69	0x3914132c	0.00014121522
70	0x3732e941	1.0663935e-05
71	0x3746bd63	1.1845815e-05
72	0x3915e62c	0.00014295493
73	0x3915e70b	0.00014295818
74	0x00000000	0.0
75	0x355c8f15	8.21646e-07
76	0x358a6074	1.0309873e-06
77	0x359d698b	1.1728129e-06
78	0x35a33a92	1.2161493e-06
79	0x36848f20	3.9505685e-06
80	0x3684baf1	3.9556694e-06
81	0x35db94d2	1.6360084e-06
82	0x35df2cc0	1.6627819e-06
83	0x36a5f7ab	4.9462155e-06
84	0x36a5f6bf	4.946108e-06
85	0x3606d676	2.0092389e-06
86	0x3608666b	2.0325194e-06
87	0x36ad043a	5.156294e-06
88	0x36ad086d	5.1567827e-06
89	0x00000000	0.0
90	0x34a18dcf	3.0091766e-07
91	0x34e37af7	4.2371514e-07
92	0x33eb96c9	1.0970468e-07
93	0x3400804e	1.1967606e-07
94	0x36032bd1	1.9546026e-06
95	0x36034b2f	1.9564284e-06
96	0x34251a9e	1.5376506e-07
97	0x3429447e	1.5764269e-07
98	0x361f65cf	2.3752107e-06
99	0x361f5861	2.374429e-06
100	0x345217d6	1.9566446e-07
101	0x3454f9b5	1.9834881e-07
102	0x361f25ce	2.3714852e-06
103	0x361f26c3	2.3715409e-06
104	0x00000000	0.0
105	0x34d0a327	3.8861728e-07
106	0x36228000	2.4214387e-06
107	0x37fbde24	3.0024974e-05
108	0x37fbb98c	3.0007934e-05
109	0x38332b5c	4.2717307e-05
110	0x383349ef	4.274578e-05
111	0x381648d4	3.5830613e-05
112	0x38167366	3.587026e-05
113	0x384fadf5	4.9514656e-05
114	0x384fb226	4.951856e-05
115	0x38277a41	3.992976e-05
116	0x3827ad21	3.997714e-05
117	0x3851dcc3	5.0035083e-05
118	0x3851dff0	5.003804e-05
119	0x00000000	0.0
120	0x34a54fd3	3.0791725e-07
121	0x34d22bd3	3.9147434e-07
122	0x35e63fd9	1.7154917e-06
123	0x35ea3395	1.7449371e-06
124	0x361afdec	2.309559e-06
125	0x361afc1a	2.309453e-06
126	0x360205ee	1.937496e-06
127	0x36039f8a	1.9613385e-06
128	0x361fa4cc	2.378877e-06
129	0x361fa5b6	2.3789303e-06
130	0x35f3e8e5	1.8172692e-06
131	0x35f62d47	1.8341606e-06
132	0x36202d26	2.3868138e-06
133	0x36202d36	2.3868174e-06
134	0x00000000	0.0
135	0x396086c9	0.00021412516
136	0x3986776e	0.00025647454
137	0x37d673be	2.5564685e-05
138	0x3818c68f	3.6424546e-05
139	0x3a315ae4	0.0006765558
140	0x3a3161eb	0.0006766605
141	0x3746fa71	1.186003e-05
142	0x3794179b	1.7653967e-05
143	0x3a331b27	0.0006832354
144	0x3a331b8e	0.0006832414
145	0x3734257b	1.0737563e-05
146	0x37729db6	1.4461044e-05
147	0x3a3336c2	0.00068364677
148	0x3a33373c	0.00068365387
149	0x00000000	0.0
150	0x37de61ce	2.6510006e-05
151	0x3812b3ce	3.497657e-05
152	0x383db6cc	4.5231354e-05
153	0x38431384	4.65098e-05
154	0x39183dfc	0.0001451894
155	0x3918458f	0.00014521762
156	0x381bdb27	3.715898e-05
157	0x3822069c	3.8629965e-05
158	0x391b6d80	0.00014822744
159	0x391b7020	0.00014823722
160	0x38163a34	3.5816993e-05
161	0x381aa1be	3.6867095e-05
162	0x391d3b83	0.00014994857
163	0x391d3cab	0.00014995287
164	0x00000000	0.0
165	0x3791e002	1.7389659e-05
166	0x37e0cd2c	2.6798421e-05
167	0x35547686	7.914863e-07
168	0x35de605a	1.6568331e-06
169	0x390616f4	0.00012787787
170	0x39061b8c	0.00012789498
171	0x3480b8eb	2.3976403e-07
172	0x3516aa7b	5.6127436e-07
173	0x390818cf	0.00012979213
174	0x39081736	0.00012978617
175	0x342a3804	1.5852862e-07
176	0x34c1945b	3.6056994e-07
177	0x39084c37	0.00012998363
178	0x39084cf1	0.00012998634
179	0x00000000	0.0
180	0x3513499b	5.486888e-07
181	0x351926ac	5.7053217e-07
182	0x34662e43	2.1437249e-07
183	0x3486d662	2.511543e-07
184	0x3560bac5	8.371829e-07
185	0x3560bd3e	8.3721886e-07
186	0x33c18539	9.011496e-08
187	0x3402aa7b	1.2169214e-07
188	0x3561156a	8.3850193e-07
189	0x35611949	8.3855826e-07
190	0x33b23a77	8.2994056e-08
191	0x33dd9175	1.0317573e-07
192	0x3562a96f	8.443812e-07
193	0x3562aaca	8.444009e-07
194	0x00000000	0.0
195	0x339f6468	7.422278e-08
196	0x33bb17f7	8.712225e-08
197	0x3459a536	2.0269803e-07
198	0x345b32d7	2.041446e-07
199	0x34b5beb0	3.385262e-07
200	0x34b5c3ef	3.3856438e-07
201	0x34645a63	2.1267037e-07
202	0x346543cb	2.135195e-07
203	0x34bdb887	3.5338255e-07
204	0x34bdb3a1	3.533469e-07
205	0x3466ed8f	2.1506843e-07
206	0x3467407b	2.153701e-07
207	0x34bfa35d	3.5695385e-07
208	0x34bfa330	3.5695257e-07
209	0x00000000	0.0
210	0x37ddea28	2.645429e-05
211	0x38140cdc	3.5297926e-05
212	0x3741da0e	1.1554466e-05
213	0x37595723	1.2954496e-05
214	0x3903439e	0.00012518323
215	0x39034b7c	0.00012521254
216	0x372de10d	1.0364002e-05
217	0x373ce40d	1.125877e-05
218	0x39057713	0.00012728227
219	0x39057707	0.0001272821
220	0x37020cf8	7.751623e-06
221	0x370c3800	8.357689e-06
222	0x390590db	0.00012737831
223	0x39059163	0.00012738029
224	0x00000000	0.0
225	0x3872a1e0	5.7848054e-05
226	0x3895a7ae	7.1361064e-05
227	0x37a148b2	1.9226547e-05
228	0x37b9f733	2.216883e-05
229	0x395b7e77	0.0002093258
230	0x395b8b67	0.00020937399
231	0x3752e16c	1.25694605e-05
232	0x3772cbcc	1.4471774e-05
233	0x395ecf5a	0.00021248814
234	0x395ed02e	0.00021249123
235	0x37340204	1.0729305e-05
236	0x374937d0	1.19935285e-05
237	0x395f291f	0.00021282256
238	0x395f2a3d	0.00021282672
239	0x00000000	0.0
240	0x36da34c0	6.503047e-06
241	0x37123b78	8.716124e-06
242	0x375aeb57	1.3048607e-05
243	0x3760f307	1.3408025e-05
244	0x38223562	3.8673526e-05
245	0x38224d99	3.869608e-05
246	0x377d3c00	1.5093945e-05
247	0x378156b5	1.5418374e-05
248	0x382eb492	4.1653002e-05
249	0x382eb73d	4.1655487e-05
250	0x37813816	1.5404115e-05
251	0x3783539d	1.5655352e-05
252	0x383218d6	4.2461637e-05
253	0x38321a40	4.2462954e-05
254	0x00000000	0.0
255	0x390222b6	0.00012410697

exp_avg f4 [128]
0	0xb9d205b6	-0.00040058576
1	0x3b7c01e4	0.0038453275
2	0xbaa43c23	-0.0012530129
3	0xb8b2a8fa	-8.519176e-05
4	0xba4d23ac	-0.0007825445
5	0xb9d748ae	-0.00041062146
6	0xb94fc889	-0.00019815764
7	0x3b2b66d2	0.0026153815
8	0x3a15c3f9	0.0005713101
9	0x39e42ee1	0.00043522476
10	0xbb16a8fa	-0.0022988901
11	0xba242b7c	-0.0006262583
12	0x389379ee	7.0322174e-05
13	0xb982d98f	-0.00024957626
14	0xba10bd70	-0.00055213924
15	0xba1fa915	-0.0006090564
16	0xbab1d119	-0.0013566344
17	0x39da59c2	0.00041647075
18	0xb9c9412a	-0.00038386259
19	0x39c36476	0.00037268148
20	0xb980e34f	-0.0002458342
21	0x3b388b70	0.0028159283
22	0xb964f899	-0.00021836384
23	0x39884f76	0.00025999144
24	0xb8997628	-7.317617e-05
25	0x3ab38e57	0.0013699037
26	0xb99e88d7	-0.00030238062
27	0xb7c7a451	-2.3799164e-05
28	0xb9c957c9	-0.00038403113
29	0x3a857a4a	0.001018354
30	0x3b49d7a9	0.003079871
31	0xb9059cec	-0.00012742326
32	0x3b1c17a0	0.0023817793
33	0xb881d75d	-6.191314e-05
34	0x3a931cd3	0.00112238
35	0x3b2a25fc	0.0025962582
36	0xb8204c98	-3.8218306e-05
37	0xbb10edf9	-0.00221145
38	0x3b09e44c	0.0021040617
39	0x397b0448	0.0002393882
40	0x3a7c3425	0.0009620807
41	0x3a95544f	0.0011392924
42	0x3af71684	0.0018851315
43	0x3a28639f	0.0006423536
44	0x3b2d6319	0.0026456772
45	0x361b952a	2.3183625e-06
46	0xb940807e	-0.00018358414
47	0xba21c60c	-0.0006171174
48	0x39d79826	0.00041121355
49	0xbaf05596	-0.0018336053
50	0x3918f6f7	0.00014587851
51	0x3a99d9d6	0.0011737894
52	0xba99e644	-0.0011741598
53	0x398bef59	0.00026690474
54	0x385419b9	5.0568695e-05
55	0xb9904027	-0.00027513618
56	0x3ab765d4	0.0013992139
57	0x3a219fe0	0.0006165486
58	0x389a75a4	7.3652045e-05
59	0x3a60e29f	0.0008578691
60	0x3b8adef4	0.004238004
61	0x3b94468b	0.004525011
62	0x3b327836	0.0027232296
63	0xba072596	-0.0005155442
64	0xba86d83b	-0.001028783
65	0xbad59cfb	-0.0016297394
66	0x384f27a0	4.938955e-05
67	0xb8a1e0c4	-7.718944e-05
68	0xb9f81fa5	-0.00047325823
69	0x3aff8c78	0.0019496819
70	0xbb18a34d	-0.0023290694
71	0x3b336824	0.0027375305
72	0x3a460e81	0.0007555262
73	0x3ba9abd3	0.0051779537
74	0x3ac64c11	0.0015128871
75	0xb98468f2	-0.00025255192
76	0xb9351c89	-0.00017272135
77	0x3b23be40	0.0024985224
78	0x3982f43b	0.00024977498
79	0x38e1b835	0.00010763147
80	0xb9d58f48	-0.0004073328
81	0x36fac540	7.4735435e-06
82	0x39fae8b3	0.0004785709
83	0xbaca3022	-0.0015425722
84	0x3b6ba615	0.0035957147
85	0xba4515d8	-0.00075182086
86	0x3aa00a1c	0.0012210044
87	0x3b192277	0.002336649
88	0xb9d8da78	-0.00041361502
89	0x3b21dc17	0.0024697834
90	0x3b131b6a	0.002244676
91	0x3b8a18ee	0.0042143976
92	0x3a28a282	0.0006432907
93	0x3b78a570	0.0037940405
94	0x3b1568f9	0.0022798164
95	0xb916dd9b	-0.00014387669
96	0x3b520f56	0.0032052598
97	0x3b14b87b	0.0022692967
98	0xba41469e	-0.00073728885
99	0x3b6501a2	0.00349436
100	0xb9276cdd	-0.00015966916
101	0x3b97fdaa	0.0046383934
102	0xb98b67b4	-0.0002658941
103	0x3b55d864	0.00326302
104	0x3b826a92	0.0039799893
105	0xba56a2cd	-0.00081877114
106	0xba924972	-0.0011160804
107	0x3b39d248	0.0028354097
108	0xba580b4b	-0.0008241429
109	0xba18e616	-0.00058326253
110	0x3abb0cea	0.0014270816
111	0x3b2879c8	0.0025707353
112	0x3b709427	0.00367094
113	0xb90cd40b	-0.00013430433
114	0xba6601dc	-0.0008774081
115	0xb974283c	-0.00023284642
116	0x3a51160b	0.0007976002
117	0x3b4c2a06	0.0031152978
118	0xb9926b0d	-0.0002792705
119	0x393893a2	0.00017602605
120	0x3b720b9f	0.0036933196
121	0xba85ae3d	-0.0010199022
122	0x382dbf5f	4.1424642e-05
123	0x3837d2ce	4.3826927e-05
124	0x3a467db4	0.0007571832
125	0xbab26b37	-0.0013612275
126	0x3a40e012	0.0007357608
127	0x3afa44d6	0.0019094001

exp_avg_sq f4 [128]
0	0x39ecdbeb	0.0004517728
1	0x3920eca9	0.00015346952
2	0x38390800	4.4114888e-05
3	0x391ad0cc	0.00014764367
4	0x391e9cbc	0.00015126442
5	0x36dd6d14	6.5990116e-06
6	0x3623fef5	2.4437297e-06
7	0x386d0703	5.6511733e-05
8	0x362126ad	2.4013382e-06
9	0x3a350e48	0.000690673
10	0x39249395	0.00015695237
11	0x390d5259	0.00013477485
12	0x357e1962	9.465931e-07
13	0x34c044eb	3.581293e-07
14	0x39085626	0.00013002063
15	0x39666062	0.00021970415
16	0x3839b581	4.4276476e-05
17	0x3a0ac15a	0.0005293094
18	0x36683219	3.4599855e-06
19	0x36e8f926	6.9431435e-06
20	0x36767a29	3.6727963e-06
21	0x3929c097	0.00016188841
22	0x356d304b	8.8359656e-07
23	0x38fc2705	0.00012023564
24	0x36c5e136	5.8972755e-06
25	0x39d90fb9	0.0004140118
26	0x35e83dc3	1.7303322e-06
27	0x35ac397d	1.283173e-06
28	0x38d084c6	9.942944e-05
29	0x37ac2d05	2.0524962e-05
30	0x3a05ed1e	0.00051088806
31	0x361026a1	2.1480157e-06
32	0x391e2a6e	0.0001508386
33	0x38e90fd2	0.000111132525
34	0x379a1856	1.8369563e-05
35	0x386419e0	5.4383534e-05
36	0x38b4f422	8.628542e-05
37	0x3a67b7be	0.00088393304
38	0x37f0c49f	2.8701788e-05
39	0x37b06673	2.1028542e-05
40	0x36f4bd8c	7.293833e-06
41	0x3a97c6e2	0.0011579657
42	0x37b41658	2.1468077e-05
43	0x37e71c07	2.7550397e-05
44	0x393fe684	0.00018301053
45	0x3848e93e	4.790094e-05
46	0x389e05a6	7.535079e-05
47	0x36d5d521	6.372706e-06
48	0x36164174	2.238984e-06
49	0x39034019	0.00012517012
50	0x3a041a5f	0.000503933
51	0x37ab5c7b	2.0427853e-05
52	0x38f7bfa8	0.000118135766
53	0x376b25a4	1.4015855e-05
54	0x35dcd1b5	1.645231e-06
55	0x3804a732	3.1626965e-05
56	0x37af01f9	2.0862544e-05
57	0x395a8f05	0.00020843379
58	0x37dbd62f	2.6206571e-05
59	0x382d67da	4.1343133e-05
60	0x39122a46	0.00013939393
61	0x39a45d59	0.00031350067
62	0x38ac5281	8.216967e-05
63	0x3788f7b6	1.6327813e-05
64	0x392738fd	0.00015947591
65	0x3a7a3a70	0.0009545451
66	0x3334c59e	4.2089248e-08
67	0x378b18f8	1.6581718e-05
68	0x36ead480	6.9984817e-06
69	0x392ff6a3	0.0001678118
70	0x3aa3b908	0.0012491057
71	0x38356877	4.3251053e-05
72	0x378a2c86	1.6471615e-05
73	0x3a069701	0.00051341957
74	0x381d4511	3.749604e-05
75	0x38404832	4.5843604e-05
76	0x36765da9	3.6711374e-06
77	0x380ab25d	3.3067878e-05
78	0x39e14752	0.00042968482
79	0x381d120c	3.7448524e-05
80	0x35b980a0	1.3821009e-06
81	0x38c9c909	9.6218726e-05
82	0x38582409	5.1531973e-05
83	0x39e7a523	0.0004418279
84	0x39265708	0.00015863415
85	0x382c3511	4.1057418e-05
86	0x39413390	0.00018425123
87	0x392b9ef3	0.00016367044
88	0x370b7664	8.312611e-06
89	0x385ef04a	5.315271e-05
90	0x39a69b0b	0.00031777503
91	0x39845263	0.00025238385
92	0x3a6ce87a	0.0009037327
93	0x3a26d6d3	0.0006364409
94	0x39a91f49	0.000322575
95	0x36327cef	2.6596788e-06
96	0x38542e31	5.0587758e-05
97	0x391e723a	0.00015110607
98	0x38360047	4.339244e-05
99	0x39a6d88a	0.00031823321
100	0x39444f98	0.00018721668
101	0x3a229f77	0.00062035717
102	0x37eb7adf	2.80714e-05
103	0x39482499	0.0001908712
104	0x394c7abe	0.00019500681
105	0x38920917	6.9635156e-05
106	0x37bc67b5	2.2459639e-05
107	0x384be51d	4.861235e-05
108	0x37e1ed7f	2.6932683e-05
109	0x362ebaee	2.6036828e-06
110	0x375fb477	1.33338535e-05
111	0x39f94726	0.0004754599
112	0x390a45ab	0.00013186659
113	0x37b83f80	2.1964079e-05
114	0x39fd7376	0.00048341946
115	0x39850f21	0.0002537901
116	0x3650251c	3.1016016e-06
117	0x389817a0	7.252325e-05
118	0x39f8525c	0.0004736361
119	0x38cee6f2	9.8658624e-05
120	0x39e0679b	0.00042801801
121	0x39faa01e	0.00047803012
122	0x3282a2b5	1.5207982e-08
123	0x38b9f362	8.866821e-05
124	0x392b74a0	0.00016351277
125	0x399d1e73	0.0002996806
126	0x3785ada8	1.59357e-05
127	0x379af347	1.8471515e-05
